model_deployment1/mlruns/10/2c66df6bb9a2488480948e95e041df40/artifacts/model/data/model.pth (torch, 711639 bytes, 9 tensors)

weight f4 [1, 10354]
0.050654273 0.011935038 -0.04607261 0.020362766 0.00267538 0.028949566 -0.046890303 0.0038972732
-0.009890426 -0.0021561543 0.0136200385 0.025785733 0.010203458 0.00048836006 0.00720413 -0.0002760613
0.019184701 0.04541066 -0.25265414 0.0042452407 -0.00472008 -0.087220974 0.0044021765 0.008798507
0.025700439 -0.00966064 0.008438659 -0.08752274 0.02219502 0.022910684 0.01694203 0.01795903
0.0073372107 -0.003073872 0.020883227 -0.055001274 0.0149196405 -0.012225994 0.017395886 0.02564235
-0.028793428 0.039779637 0.054327287 0.0075480333 0.028434396 0.021941174 -0.059074964 0.01411184
0.016440123 -0.15733527 0.036366902 0.039515566 0.039406907 -0.02065361 -0.015506231 0.019973777
-0.05278631 0.023592602 0.0382907 0.00017466643 0.014600026 0.0638189 -0.003965021 0.03992762
0.0110321455 0.04354298 0.009859302 0.013181753 0.025818534 0.03141836 0.0075673894 0.01794626
0.020203993 0.044040382 -0.028032865 -0.052008312 0.0013728241 -0.006684352 0.024589399 0.03649886
-0.0226644 0.006283932 -0.018758945 0.014087606 0.01218214 0.01660172 0.0072898697 0.005437629
0.113265336 0.02358332 -0.029300382 0.018002195 0.04135597 -0.025115702 0.014499366 0.008791699
0.025896657 0.016677285 0.018036986 0.038379587 0.004630399 -0.0111996 0.07030662 0.022120588
0.11995777 0.03451053 0.025564265 0.016616149 -0.0118711945 0.0023696572 0.049883313 -0.004625932
-0.0013531365 -0.009728858 0.020670408 0.007483596 -0.017730504 0.009685937 0.041847944 -0.000556015
-0.010929506 0.049468517 0.015594813 0.013355509 0.0501014 -0.015032015 -0.013806378 0.015670082
0.028980568 0.0036766392 -0.015454533 -0.07387672 -0.022003606 0.0034230817 0.0024583978 -0.0068865665
0.025327409 -0.0039075953 -0.2300222 0.013406202 0.0058157635 0.011193054 0.022734517 0.01441094
-0.009710682 -0.016433554 0.0006561682 0.00019034087 -0.04222345 0.0039200922 0.012513558 0.014592818
-0.25009486 0.026943631 0.016613271 0.03999172 -0.0038773238 0.0041424925 -0.0074443487 -0.16541299
0.008345066 0.031016562 -0.011604043 0.024842456 0.0040254216 0.018553253 0.0055880947 0.037870973
0.057631362 -0.003690088 0.037751827 0.010654077 -0.0009049556 0.015310727 -0.0025686026 0.023193061
-0.013669182 0.011287 0.01624324 -0.0076497816 -0.044238493 0.022438277 0.0021518853 0.01669862
0.0017616375 0.04577842 0.043591443 0.03154064 0.004503052 0.015114428 0.0063040983 0.013761199
0.0042390986 -0.00033483634 -0.007329485 0.009308976 0.009547847 0.0036744191 -0.059113223 0.05800878
0.017947694 0.021910394 0.01366413 0.015069529 0.0062769167 0.01744683 -0.010218831 0.005075336
0.010829691 0.03187947 0.016218115 0.022714078 0.02352823 -0.017060274 0.016981894 0.026186366
-0.15363355 -0.0139462715 -0.09648761 0.018610619 0.05944838 -0.034004454 -0.023027161 0.021532694
0.012069161 0.003102619 0.024797902 0.0029314014 0.013125136 -0.035374366 0.0016032076 -0.007915772
-0.0339225 -0.004808255 0.00662355 0.0025450608 -0.00934651 0.013466977 0.022377508 0.04343447
0.024135148 0.0040981607 0.031959664 0.021049846 -0.019107956 0.04055877 0.0045316233 0.008721896
0.06379045 0.018469907 0.016743956 0.020120991 0.026168887 0.015918981 -0.04734269 0.04468076
00000000: db7a 4f3d 2d8b 433c a2b6 3cbd d1cf a63c
00000010: 6e55 2f3b a427 ed3c 0c10 40bd 6569 7f3b
00000020: 740b 22bc 444e 0dbb 9526 5f3c 9a3c d33c
00000030: 682c 273c 4a05 003a 9f10 ec3b 52bc 90b9
00000040: 3c29 9d3c 8700 3a3d e25b 81be a91b 8b3b
00000050: e7aa 9abb e9a0 b2bd 2240 903b 9d27 103c
00000060: ba89 d23c a947 1ebc 4d42 0a3c 1f3f b3bd
00000070: 55d2 b53c 30af bb3c 03ca 8a3c d11e 933c
00000080: fc6c f03b 0473 49bb 4d13 ab3c 0449 61bd
00000090: 8271 743c 894f 48bc d181 8e3c e80f d23c
000000a0: 32e0 ebbc f9ef 223d 4a86 5e3d 7e55 f73b
000000b0: 40ef e83c fabd b33c 97f8 71bd 5935 673c
000000c0: 70ad 863c 7f1c 21be 76f5 143d 13db 213d
000000d0: 2369 213d c231 a9bc d90d 7ebc 0ca0 a33c
000000e0: 7536 58bd 4645 c13c b6d6 1c3d aa26 3739
000000f0: f334 6f3c 7cb3 823d 02ed 81bb 258b 233d
00000100: 2cc0 343c 205a 323d e988 213c 48f8 573c
00000110: 6481 d33c 8ab0 003d ddf7 f73b 0904 933c
00000120: d882 a53c b063 343d 2ea5 e5bc ab06 55bd
00000130: 55f0 b33a 6908 dbbb b56f c93c d47f 153d
00000140: b1aa b9bc 71e9 cd3b 5cac 99bc b4cf 663c
00000150: 9997 473c 5500 883c dcdf ee3b 232e b23b
00000160: a8f7 e73d cf31 c13c 5b07 f0bc 5779 933c
00000170: e164 293d 72bf cdbc c08e 6d3c 0f0b 103c
00000180: 3a25 d43c cd9e 883c 4dc2 933c ea33 1d3d
00000190: 9aba 973b 877e 37bc ebfc 8f3d 3c36 b53c
000001a0: 6bac f53d ea5a 0d3d 266c d13c 971e 883c
000001b0: 667f 42bc 404c 1b3b 7252 4c3d 2195 97bb
000001c0: ba5b b1ba ca65 1fbc fd54 a93c f438 f53b
000001d0: 903f 91bc c4b1 1e3c c068 2b3d 89c1 11ba
000001e0: ac11 33bc 809f 4a3d 6381 7f3c 11d1 5a3c
000001f0: 2037 4d3d d748 76bc 2534 62bc 8b5e 803c
00000200: a868 ed3c c5f3 703b 0235 7dbc ae4c 97bd
00000210: e840 b4bc c855 603b 121d 213b b5a8 e1bb
00000220: 6d7b cf3c 490b 80bb f18a 6bbe b0a5 5b3c
00000230: 2992 be3b 1263 373c bd3d ba3c dd1b 6c3c
00000240: 8d19 1fbc a99f 86bc b402 2c3a 3d96 4739
00000250: 7ff2 2cbd 1e74 803b ab05 4d3c b716 6f3c
00000260: 6f0c 80be e4b8 dc3c 8e18 883c 5cce 233d
00000270: b31a 7ebb bfbd 873b b9ef f3bb 0662 29be
00000280: beb9 083c 7216 fe3c e21e 3ebc 6882 cb3c
00000290: afe7 833b fefc 973c 561c b73b 981e 1b3d
000002a0: dd0e 6c3d 67d5 71bb a9a1 1a3d 708e 2e3c
000002b0: 8b3a 6dba d8d9 7a3c 0056 28bb 60ff bd3c
000002c0: b4f4 5fbc 1ced 383c 8b10 853c 05ab fabb
000002d0: 6c33 35bd 7ad0 b73c a506 0d3b 8bcb 883c
000002e0: bfe6 e63a 2782 3b3d f18c 323d c230 013d
000002f0: 578e 933b 81a2 773c 9c92 ce3b a776 613c
00000300: 23e8 8a3b f98c afb9 2d2c f0bb ad84 183c
00000310: 936e 1c3c 86ce 703b b520 72bd 9d9a 6d3d
00000320: 0b07 933c 6d7d b33c 84df 5f3c 30e6 763c
00000330: 98ae cd3b a8ec 8e3c e26c 27bc 014f a63b
00000340: 046f 313c 0c94 023d dadb 843c e012 ba3c
00000350: 46be c03c fdc1 8bbc 9d1d 8b3c ca84 d63c
00000360: 1d52 1dbe e77e 64bc 4c9b c5bd 4c75 983c
00000370: 2580 733d 4148 0bbd 75a3 bcbc 5565 b03c
00000380: bbbd 453c 4f55 4b3b f824 cb3c c11c 403b
00000390: cf0a 573c b6e4 10bd b822 d23a 27b1 01bc
000003a0: 52f2 0abd 918e 9dbb 5d0a d93b 09cb 263b
000003b0: 1b22 19bc 98a4 5c3c 0951 b73c 58e8 313d
000003c0: 13b7 c53c dd49 863b 23e8 023d ba70 ac3c
000003d0: 4a88 9cbc f420 263d 037e 943b 49e6 0e3c
000003e0: 91a4 823d 344e 973c 9f2a 893c c7d4 a43c
000003f0: 2260 d63c 8668 823c 69ea 41bd 2c03 373d

weight f4 [10354, 16]
0.03677308 0.034010474 0.0356382 0.031664453 0.03465676 0.037592612 0.03706454 0.03705296
0.032696433 0.03331774 0.03595616 0.036735374 0.037018936 0.034305066 0.0377052 0.03805591
0.004717868 0.0033384238 0.008947114 0.0063174283 0.0064690546 0.0024668665 0.0065400647 0.008369947
0.007420598 0.008157644 0.0030202891 0.0029414587 0.008975639 0.0056063225 0.002842537 0.008184994
-0.0277178 -0.026266381 -0.030816233 -0.025544126 -0.03049921 -0.028149026 -0.025775604 -0.029992267
-0.03402848 -0.034304768 -0.025937987 -0.028706685 -0.032395255 -0.03316524 -0.03273646 -0.031057267
-9.71336e-05 9.634845e-05 -0.00089653314 -0.0016837314 0.0016627434 -0.0026949674 -0.0044900244 0.0005107382
-0.0047714054 -0.0038792333 -0.00417163 -0.0016969378 -0.0027531774 -0.0031930534 -0.00055240764 0.0017094652
0.002561757 -0.0012492122 -0.0006168742 0.0015546745 -0.0017533392 0.0011201577 -0.0040564584 -0.0020031822
0.0018450328 0.0009926627 0.0008798463 0.0016730604 0.0021429267 -0.0039215963 -0.0046752873 -0.0048856526
0.009825572 0.010158191 0.01119181 0.007880687 0.008357696 0.014394608 0.013078818 0.014878782
0.008356093 0.008156646 0.012154457 0.009088339 0.009487273 0.013726178 0.012869826 0.009512411
-0.0056178835 -0.0016223615 0.00038605253 -0.0050052637 0.00084987783 -0.0066385646 -0.0069318567 -0.004363486
-0.0065510133 -0.00025217098 -0.0046961177 -0.001955829 -0.004873909 -0.0024992246 -0.0016058118 -0.006859012
0.005198987 0.0050392123 0.0038552952 -0.0019735333 -9.710774e-05 -0.00075325376 -0.0012050256 0.0049902285
0.0024112181 -0.0017558137 0.00027989357 0.00047837352 0.0046041114 0.0035215784 0.004185871 -0.0005937598
-0.00041017908 0.0034545388 -0.00094430434 0.0017693733 0.0042844187 -4.6282745e-05 -0.0006962004 0.0052772816
0.0006162444 0.0019468026 0.0013380848 -0.00038653353 -8.800271e-05 0.001629832 -0.00019843265 -0.0012068402
-0.01725367 -0.017182844 -0.020240653 -0.022188196 -0.015895186 -0.016519366 -0.016413357 -0.01672582
-0.019336786 -0.017617155 -0.018816153 -0.022173142 -0.019751642 -0.01659234 -0.0215518 -0.018305006
0.0113508785 0.009564211 0.013477574 0.008533122 0.014212317 0.009261645 0.012764115 0.012418316
0.015697233 0.009826251 0.014143228 0.015435525 0.016122995 0.014427224 0.015196793 0.016191434
0.028333295 0.029554877 0.028363107 0.028538123 0.023931025 0.027558126 0.02782205 0.027390106
0.027533624 0.026536688 0.022414625 0.028947134 0.022742512 0.02247265 0.029697642 0.029095622
0.011348527 0.0075763715 0.012529478 0.010908318 0.011035923 0.015565149 0.011061459 0.008325225
0.014181748 0.010223894 0.009668248 0.010394366 0.008011341 0.011085161 0.008548687 0.014022547
-0.008285301 -0.0007955486 -0.004732356 -0.0018592237 -0.007341106 -0.0027211623 -0.0020414751 -0.0046411804
-0.002998961 -0.0031390742 -0.0028394666 -0.0055249156 -0.0029706657 -0.0025038694 -0.0055455454 -0.0068864087
-0.003543993 0.0012141275 -0.0013282889 0.0021372736 2.662093e-05 -0.0049618976 -0.0017513231 0.000453625
-0.0050924267 -0.0035105064 -0.004530501 -0.0025244707 0.002127099 -0.0013482638 0.0021229505 -0.0014623434
-0.007844761 -0.013638406 -0.008291282 -0.007462904 -0.008531256 -0.010739562 -0.008839602 -0.0123653915
-0.009522838 -0.006798774 -0.011002756 -0.012912391 -0.006665781 -0.008054244 -0.01051037 -0.0067596612
00000000: 5e9f 163d 914e 0b3d 5cf9 113d 96b2 013d
00000010: 3ff4 0d3d b6fa 193d fdd0 173d d8c4 173d
00000020: b2ec 053d 2f78 083d c446 133d d577 163d
00000030: 2ba1 173d 7883 0c3d c570 1a3d 84e0 1b3d
00000040: 5898 9a3b 75c9 5a3b eb96 123c 6e02 cf3b
00000050: 5dfa d33b 27ab 213b 0a4e d63b 1a22 093c
00000060: 7d28 f33b a4a7 053c 0bf0 453b 7dc5 403b
00000070: 8f0e 133c 3eb5 b73b db49 3a3b 5a1a 063c
00000080: 7110 e3bc 982c d7bc 5372 fcbc ea41 d1bc
00000090: 7bd9 f9bc c998 e6bc 5c27 d3bc 58b2 f5bc
000000a0: 7361 0bbd 2883 0cbd e77b d4bc 482a ebbc
000000b0: e3b0 04bd 46d8 07bd ab16 06bd cf6b febc
000000c0: 34b4 cbb8 ae0e ca38 5205 6bba a7b0 dcba
000000d0: 69f0 d93a 0d9e 30bb 0e21 93bb 0fe3 053a
000000e0: 7359 9cbb bc3a 7ebb 2bb2 88bb c96b deba
000000f0: a76e 34bb 8c42 51bb 73cf 10ba 2210 e03a
00000100: 27e3 273b 9bbc a3ba bab5 21ba 38c6 cb3a
00000110: 4dd0 e5ba 41d2 923a 0aec 84bb d247 03bb
00000120: 07d5 f13a 3c1c 823a 7ca5 663a 974a db3a
00000130: 5870 0c3b bc80 80bb 2733 99bb d317 a0bb
00000140: 70fb 203c 8b6e 263c da5d 373c ff1d 013c
00000150: b8ee 083c 5dd7 6b3c 8a48 563c 23c6 733c
00000160: ffe7 083c 74a3 053c 7d23 473c 42e7 143c
00000170: 8270 1b3c c3e3 603c f6db 523c f2d9 1b3c
00000180: 3916 b8bb 6ba5 d4ba 1867 ca39 3203 a4bb
00000190: 56ca 5e3a 5188 d9bb a124 e3bb 93fb 8ebb
000001a0: e2a9 d6bb d135 84b9 e4e1 99bb 5e2d 00bb
000001b0: 50b5 9fbb 08ca 23bb 1a7a d2ba 90c1 e0bb
000001c0: 445c aa3b fa1f a53b 1fa9 7c3b 6556 01bb
000001d0: 52a6 cbb8 0176 45ba f3f1 9dba 1285 a33b
000001e0: 8705 1e3b 5523 e6ba aebe 9239 35ce fa39
000001f0: 16de 963b 48ca 663b a229 893b 8ca6 1bba
00000200: 4e0d d7b9 8b65 623b 318b 77ba 51ea e73a
00000210: 4f64 8c3b b81f 42b8 3881 36ba 0ced ac3b
00000220: 768b 213a db2b ff3a ad62 af3a a7a7 cab9
00000230: 188e b8b8 16a0 d53a 5c12 50b9 d62e 9eba
00000240: 9257 8dbc 09c3 8cbc bacf a5bc 05c4 b5bc
00000250: 9f36 82bc 9f53 87bc 4e75 86bc 9604 89bc
00000260: 2e68 9ebc da51 90bc 5524 9abc 73a4 b5bc
00000270: 32ce a1bc a9ec 87bc 678d b0bc 61f4 95bc
00000280: 09f9 393c 35b3 1c3c 0bd1 5c3c 82ce 0b3c
00000290: c7da 683c 28be 173c 9420 513c 3176 4b3c
000002a0: 7c97 803c 49fe 203c ffb8 673c 49e5 7c3c
000002b0: 5f14 843c 2a60 6c3c f8fb 783c e6a3 843c
000002c0: 3a1b e83c 121d f23c bf59 e83c c8c8 e93c
000002d0: ff0a c43c 94c1 e13c 11eb e33c 3761 e03c
000002e0: 328e e13c 7863 d93c e09e b73c 8a22 ed3c
000002f0: 814e ba3c 9018 b83c 7848 f33c f159 ee3c
00000300: 2cef 393c 3643 f83b 7148 4d3c cdb8 323c
00000310: 04d0 343c f704 7f3c 1f3b 353c 8666 083c
00000320: 905a 683c 1f82 273c 9267 1e3c 224d 2a3c
00000330: 0042 033c 899e 353c cb0f 0c3c d3be 653c
00000340: 12bf 07bc 5d8c 50ba e111 9bbb 32b1 f3ba
00000350: a98d f0bb 8755 32bb 45ca 05bb 0b15 98bb
00000360: 378a 44bb edb8 4dbb 5816 3abb 5a0a b5bb
00000370: 80af 42bb f517 24bb 68b7 b5bb 62a7 e1bb
00000380: 5642 68bb 5c23 9f3a fb19 aeba 8011 0c3b
00000390: 0350 df37 6a97 a2bb a78c e5ba 84d4 ed39
000003a0: 5fde a6bb 8610 66bb 9974 94bb 9771 25bb
000003b0: cd66 0b3b 3ab8 b0ba 3321 0b3b 1aac bfba
000003c0: 5087 00bc 9f73 5fbc 28d8 07bc 608b f4bb
000003d0: aec6 0bbc fdf4 2fbc fad3 10bc 3698 4abc
000003e0: ad05 1cbc 40c8 debb e744 34bc 7e8e 53bc
000003f0: a06c dabb f3f5 03bc b033 2cbc 2680 ddbb

weight f4 [8, 16]
-0.024078166 0.017640669 0.027299944 0.015525877 -0.010141779 0.041146096 -0.017014228 -0.021911109
0.011045896 0.009596609 -0.03690193 -0.026912935 0.002127441 0.0008725881 0.029595234 -0.029260974
-0.014122948 0.00048372732 -0.0101481145 -0.023402989 0.039978385 -0.013234684 0.01463212 -0.02584381
-0.025836295 0.032111626 0.008582102 0.007702714 -0.015158358 0.015368969 0.03787174 -0.0070422646
0.025779372 -0.026954845 0.008851412 -0.019162761 -0.013640352 -0.036125425 -0.001312888 -0.0155898975
-0.03848752 -0.013186703 -0.0033377816 -0.0033118343 0.0054276385 0.026705299 0.0113433385 -0.03435935
-0.030167587 -0.023966702 -0.016765123 0.023473304 -0.040169626 0.010530223 0.017219055 -0.01929597
-0.037191447 -0.023181075 -0.03926054 -0.01747645 0.005038407 0.0006095281 0.006994731 0.03002725
-0.0076162945 0.010569083 -0.0065401285 -0.009379318 -0.03032441 -0.000997984 -0.0077752643 0.00018315128
0.0077318107 0.041793678 0.027096124 -0.009464693 0.02057839 0.004491036 0.004805404 -0.040292855
-0.018373758 -0.008832087 -0.029259764 0.0056131347 0.020437136 -0.026677294 -0.035828356 -0.022710148
0.02764818 -0.008671894 0.02536412 -0.030892696 -0.010976584 0.001717254 0.0263589 0.042054176
-0.034911405 0.011608122 0.021860452 0.0039820555 -0.019466082 0.040579922 0.021256112 0.025185594
0.0015684149 -0.021523641 -0.018415922 -0.01905387 -0.034276705 0.004229723 0.014140743 -0.03903545
0.012026067 0.009943824 -0.0039223297 -0.00879918 0.035662938 0.014768655 -0.020292621 0.023835376
0.014169001 -0.039504286 0.03846266 0.034579698 0.010499788 -0.012976495 0.039649803 0.03665007
00000000: 933f c5bc 2a83 903c 22a4 df3c 3f60 7e3c
00000010: b429 26bc cf88 283d 6c61 8bbc ed7e b3bc
00000020: d9f9 343c 183b 1d3c 7a26 17bd 8478 dcbc
00000030: 8a6c 0b3b 65be 643a b471 f23c b6b4 efbc
00000040: f063 67bc c89c fd39 4744 26bc a0b7 bfbc
00000050: 60c0 233d 4ad6 58bc 8fbb 6f3c 66b6 d3bc
00000060: a3a6 d3bc 7b87 033d f29b 0c3c 0c67 fc3b
00000070: c35a 78bc 21ce 7b3c 661f 1b3d ccc2 e6bb
00000080: 432f d33c 68d0 dcbc 8305 113c 39fb 9cbc
00000090: c87b 5fbc 41f8 13bd 3615 acba c56c 7fbc
000000a0: 17a5 1dbd 0b0d 58bc afbe 5abb 5c0b 59bb
000000b0: 55da b13b 12c5 da3c 69d9 393c 64bc 0cbd
000000c0: 0422 f7bc d155 c4bc 0357 89bc 164b c03c
000000d0: e888 24bd f586 2c3c fa0e 8d3c 9512 9ebc
000000e0: 0f56 18bd 3de6 bdbc a9cf 20bd c62a 8fbc
000000f0: 3919 a53b bdc8 1f3a 0e34 e53b b5fb f53c
00000100: 1c92 f9bb f229 2d3c 934e d6bb b6ab 19bc
00000110: e66a f8bc c9ce 82ba a5c7 febb 4c0c 4039
00000120: 215b fd3b d92f 2b3d b1f8 dd3c cd11 1bbc
00000130: 0394 a83c 8a29 933b a776 9d3b 1f0a 25bd
00000140: 9084 96bc 75b4 10bc 2cb2 efbc 63ee b73b
00000150: c86b a73c 578a dabc c1c0 12bd a20a babc
00000160: 707e e23c 8f14 0ebc 6ac8 cf3c ae12 fdbc
00000170: 21d7 33bc 7c15 e13a 9fee d73c 0041 2c3d
00000180: 43ff 0ebd fe2f 3e3c b114 b33c e77b 823b
00000190: 5577 9fbc 2237 263d 4c21 ae3c 0552 ce3c
000001a0: 4593 cd3a 5952 b0bc fddc 96bc dd16 9cbc
000001b0: bb65 0cbd 7d99 8a3b 93ae 673c a3e3 1fbd
000001c0: fb08 453c 6ceb 223c e386 80bb 702a 10bc
000001d0: 4d13 123d 3bf8 713c b63c a6bc 6842 c33c
000001e0: 1925 683c 3fcf 21bd 068b 1d3d 71a3 0d3d
000001f0: 4e07 2c3c 5d9b 54bc d567 223d 621e 163d

bias f4 [8]
-0.017219841 -0.0045420565 -0.028899454 0.026636967 -0.04111271 -0.03731304 0.0010684961 0.033934478
00000000: a010 8dbc 88d5 94bb 8cbe ecbc c535 da3c
00000010: cd65 28bd 8fd5 18bd c80c 8c3a e1fe 0a3d

weight f4 [4, 8]
0.0017731328 0.05331556 -0.020742295 0.0037373079 -0.040074773 0.049709234 -0.02681664 -0.058560822
0.021480216 0.0021070996 -0.0035272588 -0.012734286 0.020619398 -0.04374121 -0.024431247 0.022338241
0.057587974 -0.05286241 0.05640894 0.012273725 -0.047416806 -0.03388625 0.04648318 0.042615913
-0.057935953 -0.04680477 -0.05759476 -0.056548037 -0.030724805 0.04884339 -0.034857843 -0.042383507
00000000: 7768 e83a 6b61 5a3d bfeb a9bc 9fed 743b
00000010: 7225 24bd e99b 4b3d 92ae dbbc 79dd 6fbd
00000020: 47f7 af3c 4417 0a3b 9529 67bb 77a3 50bc
00000030: 03ea a83c fc29 33bd 0a24 c8bc b0fe b63c
00000040: 5ee1 6b3d 4186 58bd 100d 673d bc17 493c
00000050: 2038 42bd 4fcc 0abd 2665 3e3d 068e 2e3d
00000060: 404e 6dbd 5cb6 3fbd 7ce8 6bbd ea9e 67bd
00000070: 96b2 fbbc 0210 483d 19c7 0ebd 549a 2dbd

bias f4 [4]
0.015660396 -0.0029428725 0.04128672 -0.046406653
00000000: 3b4a 803c 35dd 40bb 441c 293d e714 3ebd

weight f4 [2, 4]
0.04624569 0.06320413 0.07150076 -0.06274062 0.014571117 0.03082309 0.014396703 0.018473774
00000000: 1f6c 3d3d 2b71 813d fe6e 923d 277e 80bd
00000010: b2bb 6e3c b480 fc3c 26e0 6b3c 5056 973c

bias f4 [2]
0.03471956 -0.049385954
00000000: 1936 0e3d ed48 4abd

weight f4 [1, 2]
-0.02049313 -0.00039413123
00000000: 35e1 a7bc 66a3 ceb9
