model_deployment1/mlruns/10/a520145f20e04098805e8f9919081cb2/artifacts/model/data/model.pth (torch, 711639 bytes, 9 tensors)

weight f4 [1, 10354]
000000 2f 77 66 3d 8a 82 5d 3c 50 d2 cc bc ca ee 55 3c
       0.056266006 0.0135198925 -0.025002629 0.01305742
000010 52 8d fb bb 0e 3f d9 3c fa 2b 33 bd 74 3d 59 bc
       -0.007676759 0.026519325 -0.04374311 -0.0132592805
000020 2f bd fb ba 33 35 bd bb 77 9e 73 3c e9 ee f5 3a
       -0.0019206161 -0.005774164 0.014869324 0.0018763217
000030 72 cd 44 3c 5f db 24 3a 7c 83 97 bb 08 14 27 bc
       0.012011873 0.00062887924 -0.0046238285 -0.010197647
000040 82 66 c9 3c 4d 7c 1c 3d 50 1e 65 be d3 f1 d7 3b
       0.024585012 0.03820448 -0.22374845 0.006590107
000050 bb a0 ee bc 96 45 31 bd c1 52 6a bb fe 71 95 3b
       -0.029129377 -0.043279253 -0.0035754892 0.004560708
000060 66 ed 94 3c a0 a2 44 bc c4 6e df bb 91 b7 e7 bd
       0.018179607 -0.012001663 -0.006818624 -0.113143094
000070 f5 f4 db 3c 96 45 ba 3c c8 5b 38 3c fb 3c ad 3c
       0.026850203 0.02273826 0.011252351 0.021147242
000080 2c 5a 9d 3c 92 dc 6f 39 3d a5 91 3b 23 b6 36 bd
       0.019208036 0.00022874985 0.0044447468 -0.044607293
000090 52 89 18 3c 99 33 a3 bc 2c 2f a3 3c 94 e8 c6 3c
       0.009310083 -0.019922065 0.019919954 0.024280824
0000a0 79 74 37 bd 48 61 f7 3c d6 42 8f 3d a6 db 2a 3c
       -0.04478881 0.030197755 0.0699517 0.010428345
0000b0 14 78 df 3c a6 8d c4 3c f9 12 5c bd 4c 68 93 3c
       0.027278937 0.023993324 -0.05372903 0.017994069
0000c0 ea 6f 86 3c a7 1b fa bd 71 86 00 3d 8e 17 4a 3d
       0.016410787 -0.122123055 0.031378213 0.04933887
0000d0 2c 63 c6 3c a5 ea 7a bc 18 ea 2d 3b 75 89 bd 3c
       0.02421721 -0.015314733 0.0026537236 0.023136834
0000e0 62 41 c2 bc d0 be 00 3d d6 40 0d 3d 4c 8c f0 ba
       -0.023712818 0.031431973 0.03448566 -0.0018352359
0000f0 29 37 b5 3b b4 71 63 3d 69 97 92 3c 30 33 ac 3c
       0.0055302572 0.055528358 0.017894464 0.021020502
000100 d7 bf 76 3b d9 40 1f 3d ac 98 a9 3c 44 60 e2 bc
       0.0037650967 0.038880203 0.020702682 -0.027633794
000110 48 67 0e 3d 15 6b 09 3d 6c 85 dd 3b a5 f6 db 3c
       0.034766465 0.033549387 0.00676029 0.026851008
000120 72 9a a1 3c 80 80 32 3d 84 cb 6c bc ae 55 14 bd
       0.019726966 0.04357958 -0.014452819 -0.036214523
000130 5f 9a 96 3b 5f c8 86 bc 08 85 ed 3c e9 59 0a 3d
       0.004596039 -0.016452966 0.028994098 0.03377715
000140 34 ea a9 bb bc 9b a9 bb 80 78 21 bc 58 cd da 3c
       -0.00518539 -0.0051760357 -0.00985539 0.026709244
000150 1e 4b c2 3b 9a dd 3d 3b 7f 8d 46 38 42 1f b6 bb
       0.005929365 0.0028971196 4.7338657e-05 -0.0055579254
000160 3a 3e 0a 3d b5 ff 91 3c 6d 68 a6 bb 05 7f 9a b8
       0.03375075 0.017822126 -0.0050783665 -7.3669515e-05
000170 b2 17 26 3d 49 7a 04 bd ff 22 fc 3c f8 db 15 3c
       0.04054994 -0.032343183 0.030778406 0.009146683
000180 96 72 5b 3c a1 e5 c6 3c 9f a9 c8 3b 32 8c e6 3c
       0.013394019 0.024279417 0.006123736 0.028143022
000190 ba ba 5c bc 2a 0f d9 bb 11 28 fa 3c 12 63 0d bc
       -0.013472253 -0.006624122 0.030536683 -0.008629577
0001a0 cb a4 a3 3d 87 08 1d 3d 4d ca b0 3c 4b ab af 3c
       0.07990416 0.03833821 0.02158084 0.021443984
0001b0 9b da 60 bc 84 76 6a 3c f9 53 36 3c 6f 67 a9 3b
       -0.013723995 0.014310483 0.011128419 0.005169801
0001c0 33 8f 34 bb d7 dc 18 bc 78 32 17 3d e6 47 c0 bb
       -0.0027551174 -0.009329996 0.036913365 -0.005867946
0001d0 2b 28 cd bc cf 6c 33 3c 01 9a 58 3d 99 db 6f bb
       -0.025043568 0.010951235 0.052881245 -0.0036599396
0001e0 73 e8 0d bc dc 3d 5c 3d fe fd c7 3b 7a 29 1a 3c
       -0.008661377 0.05376993 0.0061032763 0.009409303
0001f0 02 49 fc 3c f1 e6 96 bc 72 86 47 bc 3e ce 86 3c
       0.030796532 -0.018420668 -0.01217805 0.016455766
000200 dc 87 20 3d d2 bc d6 3a 9f a9 97 bc 5a 24 78 bd
       0.039192066 0.0016383177 -0.018513499 -0.060581543
000210 98 52 53 bc a7 1c 12 bc 24 4b 58 3b b5 41 27 bc
       -0.01289811 -0.008917964 0.0033003772 -0.010208537
000220 48 bb 97 3c eb dc ba bb 71 9e 2d be 5f 5f a2 ba
       0.01852192 -0.005702605 -0.16954972 -0.0012388042
000230 f6 bd 86 ba b3 a9 4a 3c 4d e0 5e 3b a0 61 af 3a
       -0.0010280001 0.012369561 0.0034008205 0.0013380535
000240 01 c0 59 bc 13 f6 87 bc e9 b8 27 3c 36 9c a8 3a
       -0.013290406 -0.01659683 0.010236957 0.0012863937
000250 8d 13 cf bc 6f c7 26 bc 72 86 1d 3c bd c2 6e 3c
       -0.025277877 -0.010179385 0.009614574 0.014572796
000260 61 4e 2b be 2c 6a a1 3c 4a 42 e2 3b 47 21 ee 3c
       -0.16729118 0.019703947 0.006904875 0.029068602
000270 ce e5 a7 39 f5 1b 37 3c 5e 01 41 bc 86 ce 2e be
       0.0003202394 0.011176099 -0.011780111 -0.1707097
000280 b5 e3 57 3c 18 17 00 3d dc 64 c6 bb 3a ca 92 3c
       0.013176848 0.031272024 -0.006054504 0.017918695
000290 6c 8d 7a 3c 8c ea 70 3c a8 1e 4b 3c 1a 7b f3 3c
       0.015292507 0.014704358 0.012397446 0.029721785
0002a0 64 23 5e 3d 08 d6 d5 3b 3c b7 3c 3d 71 d7 88 3c
       0.05423297 0.0065257587 0.046073183 0.016704293
0002b0 cd 93 81 3b 94 dd b2 3b 62 54 5b bc 16 3c 0b 3c
       0.003954387 0.005458543 -0.013386818 0.008498212
0002c0 12 3e 2b bd 17 b1 72 3c 93 c0 96 3c aa 6a 92 3b
       -0.04180724 0.014812729 0.018402373 0.0044682818
0002d0 5f 13 16 bd ca 6a 2f bc 98 54 af bb 81 25 fe 3b
       -0.036639567 -0.010706613 -0.0053506605 0.0077559357
0002e0 16 85 0c bc b9 6d 27 3d a4 71 58 3c 17 86 f7 3c
       -0.008576652 0.040876124 0.013210688 0.030215306
0002f0 81 8d 42 bb f6 ec b1 3c ba be 1c 3b 84 22 90 3c
       -0.0029686394 0.021719437 0.0023917393 0.017594583
000300 f4 16 b9 3b 89 ea 43 3b 5f dd 67 3a aa c4 86 3a
       0.005648488 0.0029894433 0.00088449375 0.0010281999
000310 df 57 93 3c c0 32 7d bc fb d6 42 bd 8b cb 2b 3d
       0.017986236 -0.015453994 -0.047568303 0.04194216
000320 2b e6 04 3d 36 d7 29 3d 48 0a 96 3c 76 bc ac 3c
       0.032446068 0.041465007 0.01831545 0.021085959
000330 6f 59 e7 38 db ab 3d 3c 7a 68 33 bc c6 61 12 3c
       0.00011031597 0.011576618 -0.010950202 0.008934444
000340 15 5b ba ba 6d 0c e3 3c 0a 70 e2 3c ad eb c0 3b
       -0.0014217818 0.027715886 0.027641315 0.0058874697
000350 95 0b 42 3c d7 af 9e bb e5 87 ce 3c 6e 5b ed 3c
       0.011843582 -0.004842739 0.025211284 0.028974261
000360 b8 55 29 be 76 ec 79 bc 3e 44 65 bd 19 06 10 3d
       -0.16536605 -0.015254131 -0.055973284 0.035162065
000370 54 7f 67 3d 79 22 02 bd 34 8d bc bc 16 24 21 3c
       0.056517914 -0.031771157 -0.02301655 0.009835264
000380 81 4a ce 3b 9a d3 73 3c fc 71 c4 3c 0a 11 87 bb
       0.0062955027 0.014881993 0.023980133 -0.0041219043
000390 c6 d3 fe 3b d3 57 02 bd 11 f4 36 3c c3 98 6c bc
       0.00777671 -0.031822037 0.011166588 -0.014440718
0003a0 cb a3 d7 bc 9f 14 7c bc d3 c4 ee bb 0f bf b6 ba
       -0.02632322 -0.015385776 -0.007286647 -0.0013942438
0003b0 64 6d 29 bc 36 b9 82 3c 65 9e e8 3c 0c 72 1b 3d
       -0.010341022 0.015957456 0.02839584 0.03795056
0003c0 37 79 c7 3c 51 88 0d 3c ee 59 8d 3c c5 be a3 3c
       0.024349792 0.008638457 0.017254796 0.019988427
0003d0 9f 02 8c bc 82 24 59 3d df a4 cf 3b 47 90 16 3c
       -0.017091094 0.053013332 0.006336793 0.009189672
0003e0 41 89 63 3d b9 93 02 3c 61 fa 09 3c 86 6c d4 3b
       0.055550817 0.00796979 0.008421511 0.0064826636
0003f0 f6 26 61 3c 5f 78 99 3c a7 99 0a bd cb 53 12 3d
       0.013742199 0.018734155 -0.03383794 0.035724442

weight f4 [10354, 16]
000000 a1 12 34 3d 80 c9 06 3d 03 79 21 3d 5d a6 c0 3c
       0.04396308 0.03290701 0.039422046 0.023516828
000010 53 5f 11 3d 04 85 41 3d e5 dc 38 3d a0 ab 38 3d
       0.0354913 0.047245994 0.045132536 0.04508555
000020 b4 7b e2 3c df d8 f6 3c 33 ae 26 3d e9 74 33 3d
       0.027646877 0.03013271 0.040693473 0.043812666
000030 22 1b 38 3d da 9d 0b 3d 44 5d 43 3d ca 1b 49 3d
       0.04494775 0.034086086 0.047696367 0.049098767
000040 3c 5b c4 39 8f 12 a0 bb c4 39 87 3c 04 3f d4 3b
       0.00037452008 -0.004885025 0.016507037 0.0064772386
000050 62 26 e7 3b 63 79 06 bc 2b 16 f0 3b e6 63 6a 3c
       0.007054136 -0.008207652 0.0073268614 0.014306044
000060 2e 0c 2f 3c 9a 16 5d 3c 58 de c7 bb 56 b6 d1 bb
       0.010684056 0.013494158 -0.0060995035 -0.00639991
000070 c8 1a 88 3c 1a ba 76 3b af 06 de bb 53 ce 5e 3c
       0.016614333 0.0037647546 -0.006775699 0.013598996
000080 78 63 76 bc 57 8e 23 bc 25 a6 d3 bc a1 ab f4 bb
       -0.015038364 -0.009982667 -0.02583606 -0.007466749
000090 77 97 ca bc 3a 87 87 bc 0a 8e 07 bc 01 22 bc bc
       -0.024730427 -0.016543973 -0.008273611 -0.022965433
0000a0 31 aa 17 bd 16 9b 1b bd e8 ca 10 bc 49 6e 97 bc
       -0.03702754 -0.0379897 -0.008837439 -0.018485205
0000b0 62 5b 00 bd 13 59 0b bd b7 3b 05 bd e1 86 da bc
       -0.03133715 -0.034020495 -0.03252765 -0.026675643
0000c0 22 c8 f0 3b e1 a9 04 3c ac e7 8a 3b 2a 16 9b 3a
       0.0073480764 0.008097143 0.004239043 0.0011832167
0000d0 54 65 68 3c 19 15 34 bb 33 44 1f bc 56 08 1f 3c
       0.014184315 -0.0027478395 -0.00972085 0.009706577
0000e0 a5 2e 31 bc 54 bf f0 bb b9 fa 0a bc 2a 70 94 3a
       -0.010814344 -0.007347027 -0.0084826285 0.0011324931
0000f0 70 9e 42 bb a2 67 99 bb 95 c8 b6 3b 9c 6e 6b 3c
       -0.0029696487 -0.0046815434 0.0055781105 0.014369633
000100 12 b3 83 3c 5f e1 d3 3a 88 97 83 3b 3f cb 48 3c
       0.016076598 0.0016165188 0.0040158667 0.012255489
000110 53 73 9b b9 a6 c8 2d 3c 4e 08 14 bc 06 17 a3 ba
       -0.00029649827 0.01060692 -0.009035183 -0.0012442775
000120 66 d8 5a 3c 57 da 25 3c ff d6 1e 3c bd 26 50 3c
       0.0133572575 0.010122857 0.009694814 0.012704548
000130 da 5b 6d 3c 41 a6 0b bc f6 80 3a bc c6 95 47 bc
       0.014487231 -0.008523525 -0.011383286 -0.012181705
000140 e9 86 72 bb a7 d4 1c bb 1a c6 d9 3a 7e 8a 39 bc
       -0.0037006682 -0.0023930462 0.0016614825 -0.011324523
000150 41 ef 1a bc 49 10 69 3c cd 7c 14 3c 8e 12 84 3c
       -0.009456457 0.014225074 0.009062958 0.016122129
000160 1b 05 1b bc 8b de 27 bc b2 11 b2 3b ba f2 d7 bb
       -0.009461666 -0.0102459295 0.0054342384 -0.0065902146
000170 72 b3 a4 bb b9 0f 3e 3c 71 10 07 3c 78 70 a1 bb
       -0.0050262744 0.011600428 0.008243666 -0.0049267374
000180 04 44 ed bc 52 8b 73 bc 93 df fe bb a3 8e db bc
       -0.028963096 -0.0148647595 -0.007778117 -0.026801413
000190 cc 43 c9 bb ce 61 05 bd 07 9f 09 bd 86 00 c9 bc
       -0.006142115 -0.032563977 -0.033598926 -0.024536382
0001a0 04 1e 04 bd 1f 57 24 bc 1b 9f d2 bc 7e 6a 83 bc
       -0.032255188 -0.010030537 -0.025710633 -0.01604199
0001b0 dd c3 d7 bc d7 1e 93 bc 34 98 72 bc f9 92 08 bd
       -0.026338512 -0.017959042 -0.014806796 -0.03334329
0001c0 57 ef 88 3c a6 f8 83 3c 8b 6c 3e 3c d8 85 2b bc
       0.016715689 0.016109776 0.011622558 -0.010468923
0001d0 4c 01 5c bb 65 81 bf bb 37 9b f7 bb f3 72 82 3c
       -0.003357011 -0.0058442825 -0.007556345 0.015923953
0001e0 4e 82 c9 3b f4 ff 1d bc c4 b9 fc ba e0 1f 9a ba
       0.0061495667 -0.0096435435 -0.0019281437 -0.0011758767
0001f0 1e ee 6c 3c 48 b4 29 3c eb f3 52 3c f4 ac ab bb
       0.014461068 0.010357924 0.012875537 -0.0052391235
000200 31 e3 37 bc 7a a8 47 3b b3 39 58 bc 44 30 50 bb
       -0.0112236 0.003046541 -0.01319735 -0.003176705
000210 2b 45 c8 3b 8a e8 21 bc 9c 38 49 bc 7b 2f 20 3c
       0.006111761 -0.009882102 -0.012281563 0.009776945
000220 24 99 f3 bb 64 27 25 bb 34 3e 9c bb d2 77 36 bc
       -0.0074340273 -0.002520048 -0.0047681574 -0.011136966
000230 87 67 24 bc 2f ef 71 bb 31 1b 2b bc 49 1a 68 bc
       -0.0100344485 -0.0036916246 -0.010443495 -0.014166423
000240 28 7c 22 bc 46 2c 1e bc 15 a8 ac bc ed 40 e8 bc
       -0.0099172965 -0.00965411 -0.021076242 -0.028351272
000250 c5 b3 9e bb 43 2b eb bb d1 2c de bb 0a 35 02 bc
       -0.0048432075 -0.007176788 -0.006780245 -0.007947216
000260 0e fe 90 bc 9c ba 38 bc 01 0f 81 bc da c8 e7 bc
       -0.017699268 -0.01127496 -0.015754225 -0.028294016
000270 83 af 9d bc 6d 0e f4 bb fe c7 d4 bc 58 d6 62 bc
       -0.01924873 -0.0074480087 -0.02597427 -0.013845049
000280 90 2d 40 3b 09 04 80 bb c4 7b 35 3c f3 af 00 bc
       0.0029324032 -0.003906731 0.011076871 -0.00785445
000290 b3 8c 63 3c de ef a5 bb 91 ba 08 3c 10 13 e6 3b
       0.013888526 -0.005063995 0.008345262 0.0070213154
0002a0 98 5a a0 3c 05 5e 3e bb d9 37 5f 3c e4 24 98 3c
       0.019574448 -0.002904774 0.013624155 0.018572278
0002b0 3a b4 ad 3c f9 0b 71 3c 60 aa 90 3c cc d9 af 3c
       0.021204103 0.014712327 0.017659366 0.021466158
0002c0 88 d5 ad 3c c0 45 d5 3c 53 d1 ae 3c ee 76 b4 3c
       0.021219984 0.026034236 0.021340048 0.022029366
0002d0 b5 43 7e 3b d6 da 94 3c 12 5d 9d 3c 1c 6c 8f 3c
       0.003879768 0.018170755 0.019209418 0.017507605
0002e0 8d 0a 94 3c 27 b9 67 3c da 32 09 bb ba a6 c1 3c
       0.018071437 0.014143265 -0.002093485 0.023639072
0002f0 34 2d 52 ba 80 3e f4 ba 29 e3 d9 3c e1 71 c6 3c
       -0.00080176 -0.0018634349 0.026597576 0.024224224
000300 59 f0 19 3b ca 2b 45 bc af 8a e0 3b ab d3 2f 3a
       0.0023489206 -0.012034366 0.00685247 0.0006707261
000310 59 a7 97 3a 9e f6 96 3c d4 76 a4 3a 97 62 16 bc
       0.0011570259 0.018428143 0.001254762 -0.009178779
000320 f9 7d 57 3c e5 33 fe ba b5 f9 84 bb c2 fc a8 ba
       0.013152593 -0.0019394128 -0.0040580877 -0.001289271
000330 aa 00 2a bc e2 4a b0 3a 00 6d 08 bc 1f 8b 4d 3c
       -0.010376135 0.0013450051 -0.008326769 0.012545376
000340 62 0a b5 bc e1 ca c3 3b 72 e2 0f bc 3f 47 02 3b
       -0.022099677 0.005975113 -0.008782016 0.0019878892
000350 3f 0c 98 bc a0 f4 a2 ba cd 01 ab 3a 5f 49 0a bc
       -0.018560527 -0.0012432523 0.0013046801 -0.008440345
000360 10 b2 15 bb 77 1b 38 bb d3 03 dd ba c6 8d 40 bc
       -0.002284173 -0.0028092542 -0.0016862102 -0.011752551
000370 fe bc 0e bb f3 a7 e0 b9 ee d3 41 bc d0 15 8a bc
       -0.0021780129 -0.0004284974 -0.011830313 -0.016856104
000380 6f d8 7f bc 2f 71 25 3b 7d de ea bb 19 0e c6 3b
       -0.015615567 0.0025244465 -0.007167636 0.006044161
000390 94 4a 03 bb ea 2f ac bc 67 d9 0f bc 92 41 c4 b9
       -0.0020033466 -0.021018941 -0.00877986 -0.00037432887
0003a0 a6 46 b0 bc c3 c0 7d bc bb ba 9e bc 88 28 40 bc
       -0.021518063 -0.0154878525 -0.01937615 -0.011728413
0003b0 45 c0 c4 3b 85 5e ed bb ac 45 c4 3b 32 a0 fb bb
       0.0060043656 -0.0072439336 0.005989751 -0.007679009
0003c0 39 b9 e3 3b c4 97 73 bc 7c 99 ac 3b bf 68 09 3c
       0.0069495705 -0.014867727 0.00526732 0.00838679
0003d0 21 01 8f 3b e7 83 81 bb be e0 51 3b cf 0e 25 bc
       0.0043641482 -0.0039524916 0.0032024826 -0.010074331
0003e0 87 25 25 3a f8 64 32 3c ef f4 a1 bb ee cb 46 bc
       0.00062998425 0.010888331 -0.0049425284 -0.012133582
0003f0 c4 98 3a 3c f2 da c9 3b e9 71 4a bb 34 cd 34 3c
       0.011388961 0.0061601335 -0.003089065 0.011035252

weight f4 [8, 16]
000000 9e 44 b9 bd 2d bc 87 3d b5 0e d2 3d f5 ec 6e 3d
       -0.09046291 0.066276886 0.102567114 0.05833145
000010 12 12 1c bd 47 4c 1e 3e 36 ea 82 bd ef 97 a8 bd
       -0.03810317 0.15458785 -0.063923284 -0.08232104
000020 e1 fb 29 3d 5b ae 13 3d 40 f8 0d be 6f 14 cf bd
       0.041499976 0.03605495 -0.13864231 -0.10111319
000030 a7 f4 02 3c ae d9 56 3b fb b7 e3 3d 8f 25 e1 bd
       0.0079929 0.0032783556 0.11119076 -0.10993492
000040 15 56 59 bd 60 35 ee 3a 01 2b 1c bd ac 12 b4 bd
       -0.05306061 0.0018173866 -0.03812695 -0.08792624
000050 35 ce 19 3e ba aa 4b bd ff 2b 61 3d 81 da c6 bd
       0.15020068 -0.049723364 0.0549736 -0.09709645
000060 a4 cb c6 bd aa 14 f7 3d 9e 11 04 3d 81 12 ed 3c
       -0.0970681 0.12064488 0.032243364 0.028939487
000070 20 45 69 bd d7 82 6c 3d 6c b3 11 3e ba be d8 bc
       -0.05695069 0.057741966 0.142286 -0.026458133
000080 8e 5b c6 3d 01 67 cf bd 95 36 08 3d 56 72 93 bd
       0.096854314 -0.10127068 0.03325518 -0.07199542
000090 d6 e8 51 bd 78 fb 0a be 7e a1 a1 bb 32 e9 6f bd
       -0.05124744 -0.1357249 -0.0049325814 -0.058572
0000a0 e9 11 14 be b2 ed 4a bd 6e 75 4d bc 90 dc 4b bc
       -0.14459957 -0.04954309 -0.012540204 -0.012442723
0000b0 e2 0c a7 3c 75 7b cd 3d 9f 8f 2e 3d 1d 30 04 be
       0.020391885 0.10033313 0.042617436 -0.12908979
0000c0 4c eb e7 bd 98 2c b8 bd 7c ed 80 bd 88 c5 b4 3d
       -0.11324176 -0.089928806 -0.062952965 0.088267386
0000d0 22 7b 1a be 60 40 22 3d 69 b9 84 3d 3f 54 94 bd
       -0.15086034 0.039612174 0.06480677 -0.07242631
0000e0 fb 0a 0f be 18 2d b2 bd 0a f0 16 be 10 56 86 bd
       -0.13969032 -0.08700007 -0.14740005 -0.06559384
0000f0 88 61 9b 3c 20 16 1d 3b 2c 14 d8 3c 03 3e e7 3d
       0.018967405 0.0023969486 0.026376806 0.11291125
000100 80 69 ea bc 6d a5 22 3d 49 4a c9 bc 4f 56 10 bd
       -0.02861476 0.039708544 -0.024571555 -0.03523856
000110 37 54 e9 bd bb b9 75 bb 1d 4e ef bc 23 62 34 3a
       -0.11393016 -0.0037494737 -0.029212052 0.00068810786
000120 b9 f7 ed 3c 0e ca 20 3e 45 7d d0 3d a2 a6 11 bd
       0.029048787 0.15702078 0.10180143 -0.035559304
000130 cf 56 9e 3d 5a 39 8a 3c 43 e6 93 3c e9 03 1b be
       0.07731401 0.01687305 0.018054133 -0.1513821
000140 2a 60 8d bd 6d ea 07 bd 2f 23 e1 bd 7b c2 ac 3c
       -0.069031075 -0.03318255 -0.10993039 0.02108883
000150 97 40 9d 3d 49 44 cd bd e0 d6 09 be e9 bd ae bd
       0.07678335 -0.1002279 -0.13460875 -0.08532316
000160 bd bc d4 3d 63 73 05 bd 94 29 c3 3d b0 b3 ed bd
       0.103875615 -0.032580744 0.09529415 -0.11606538
000170 d0 ea 28 bd b9 69 d3 3b 1d d1 ca 3d ab ca 21 3e
       -0.04123956 0.006451812 0.099031664 0.15799968
000180 18 21 06 be 6f 7f 33 3d 2f 4d a8 3d 3d 9c 77 3c
       -0.13098562 0.043822702 0.082178466 0.015112934
000190 91 9a 95 bd b8 30 1c 3e 53 fa a3 3d e0 01 c2 3d
       -0.07304872 0.1525296 0.0800673 0.09473014
0001a0 d5 0c c3 3b 5b 45 a5 bd d0 4e 8d bd 41 60 92 bd
       0.0059524574 -0.08069869 -0.06899798 -0.07147265
0001b0 74 cd 03 be f2 ac 83 3c 59 5a 5a 3d 82 01 16 be
       -0.12871343 0.016073678 0.05330882 -0.14649013
0001c0 96 49 39 3d b9 4a 19 3d 16 76 71 bc 61 3f 07 bd
       0.045236193 0.037424777 -0.014737627 -0.033019427
0001d0 24 3c 09 3e 15 59 63 3d 94 00 9c bd 33 74 b7 3d
       0.13401848 0.055504877 -0.07617298 0.0895771
0001e0 1a 1c 5a 3d df f2 17 be 96 05 14 3e 67 0f 05 3e
       0.053249456 -0.14838742 0.14455256 0.12994157
0001f0 12 a1 21 3d ab 82 47 bd f2 96 18 3e f7 0c 0d 3e
       0.03946025 -0.0487086 0.14901331 0.13774477

bias f4 [8]
000000 39 7f 84 bd 57 cb 8b bc 68 5d de bd 7a c5 cd 3d
       -0.06469578 -0.017064733 -0.108576596 0.10047431
000010 60 2b 1e be 1f 8d 0f be 8f 23 94 3b 9d c8 02 3e
       -0.15446234 -0.14018677 0.0045208405 0.1277184

weight f4 [4, 8]
000000 c3 4a da 3b ca 1d 4d 3e a1 99 9f bd 50 41 66 3c
       0.0066617443 0.20030895 -0.07792974 0.014053658
000010 2a 2d 1a be 09 3e 3f 3e a3 ad ce bd e1 10 60 be
       -0.15056291 0.18676008 -0.10091712 -0.21881439
000020 2f 47 a5 3d 20 b4 01 3c 48 1f 59 bc bb c3 43 bd
       0.08070218 0.00791648 -0.013252087 -0.047794085
000030 9b a7 9e 3d 27 48 28 be da fb bb bd f9 19 ac 3d
       0.07746812 -0.16433774 -0.09178896 0.084033914
000040 b4 8d 5d 3e 8c 5f 4b be 75 04 59 3e 80 fe 3c 3d
       0.21636087 -0.19860667 0.21193106 0.046141148
000050 33 6c 36 be 26 5e 02 be a9 8f 32 3e 46 e5 25 3e
       -0.17814712 -0.12731227 0.17437615 0.16200742
000060 6b e4 5e be 6c 11 34 be 58 94 5d be 71 8d 59 be
       -0.21766822 -0.17584771 -0.2163862 -0.21245362
000070 fe 68 ec bd 41 e9 3b 3e 0c 1b 06 be 01 0f 23 be
       -0.11543463 0.18350698 -0.13096255 -0.15923692

bias f4 [4]
000000 87 19 87 3d d3 16 2f bc f5 5e 2a 3e 50 89 32 be
       0.06596666 -0.010686594 0.16637786 -0.17435193

weight f4 [2, 4]
000000 b7 45 33 3e f7 2b 73 3e 1e 85 8d 3e 6f 60 71 be
       0.17507063 0.2374724 0.27640623 -0.23571943
000010 a7 3b 60 3d 91 2a ed 3d 91 8c 5d 3d 30 25 8e 3d
       0.05474439 0.115803845 0.054089133 0.06940687

bias f4 [2]
000000 31 f0 4b 3e 9c ff 3d be
       0.19915845 -0.18554538

weight f4 [1, 2]
000000 e9 c1 1c be 6f 16 c2 ba
       -0.15308346 -0.0014807711
