model_deployment1/saved_models/deepfm_model.pth (torch, 709120 bytes, 10 tensors)

weights.weight f4 [1, 10354]
00000000: 5f84 503d 664c 443c da9b 3cbd d037 a83c
00000010: c6f6 303b 3b46 ed3c 4fca 40bd 7ac9 7c3b
00000020: 5052 23bc 4010 20bb 7dc1 5e3c b40e d33c
00000030: 85e0 273c 89eb 0b3a d4b3 e93b f53c 14b9
00000040: 59dc 9d3c e3fe 3b3d 249d 81be b57f 7d3b
00000050: a3b7 8fbb ae6b b3bd e80c 923b 5216 113c
00000060: d58c d33c 22a3 1ebc 859e 093c 440f b4bd
00000070: 7f9d b63c fd18 bc3c 10ae 8c3c 1a3a 923c
00000080: e83d f13b f382 4dbb 20c0 aa3c 17e9 61bd
00000090: 6cf4 743c caa9 46bc fa37 8e3c 8b44 d23c
000000a0: 3aa4 f3bc c6ac 233d 2547 5f3d 18bb f43b
000000b0: c0e1 e93c de1c b43c 124a 73bd 7f3f 683c
000000c0: 550f 873c 90ca 21be c999 123d bb5c 233d
000000d0: 7095 213d f252 aabc 7f45 7ebc 9ca3 a43c
000000e0: 79a5 58bd a6ce c33c 1b3e 1d3d 0f6d 1739
000000f0: 694e 723c e187 833d 477a 8bbb 3da0 233d
00000100: 3d79 353c 813c 333d b597 203c e007 533c
00000110: 5219 d43c d77c 003d 9156 f73b 0d0b 953c
00000120: 2486 a83c 4850 343d 682d e7bc 6658 55bd
00000130: a983 a93a 82ac ddbb 8fdb cc3c c5e7 173d
00000140: a6cf b9bc 65d1 c53b dba9 9bbc 9831 6a3c
00000150: b039 473c 1793 873c b666 ee3b bd54 b63b
00000160: a668 e73d 6915 c23c 0a1f efbc f19f 933c
00000170: 3af6 293d 228c cebc a023 713c da2d 123c
00000180: 9daf d43c 22cd 863c 74d3 933c 0d0e 1d3d
00000190: 045f 973b 2600 39bc c8d9 8e3d 983b b73c
000001a0: 8f38 f63d dbc4 0e3d 143f d13c 3d79 873c
000001b0: 2b6a 47bc feab 1f3b dc58 493d 8c61 90bb
000001c0: 4069 a6ba 3367 21bc 8a8a aa3c c6db f53b
000001d0: 2b65 92bc 1c99 1e3c 9e25 2c3d 4fd5 1fba
000001e0: 6a37 36bc 5726 4b3d 6b5f 813c 87a5 5a3c
000001f0: 8c6e 4d3d 964a 73bc 9719 63bc 117a 813c
00000200: bd11 ee3c ee2d 6b3b b95b 7dbc 4271 97bd
00000210: 370f b5bc 0ce4 5f3b 4611 323b c2c3 ddbb
00000220: abd7 d03c ef18 83bb 3050 6cbe 3a1b 533c
00000230: f801 ba3b 9457 393c 5b78 ba3c 2853 703c
00000240: e2c2 1ebc 1197 87bc a04c 293a 01d3 2739
00000250: de20 2dbd 8f58 803b adcc 4c3c d05e 713c
00000260: 2f27 80be c727 df3c 698a 873c d8eb 253d
00000270: 08be 7fbb 54c7 863b af43 f3bb d7fb 29be
00000280: 05d9 093c 2f68 fd3c c677 3ebc f8ee cb3c
00000290: 546b 863b bc4d 9b3c d93d c23b 3604 1c3d
000002a0: dc1a 6d3d 2f13 80bb 4277 1b3d 8129 2e3c
000002b0: 25c1 7bba bcf9 793c 53f9 2bbb 4416 c03c
000002c0: e3e1 62bc d1ab 383c 053d 853c 353f fcbb
000002d0: 260f 36bd 4803 af3c 127a 0c3b 3ff6 8b3c
000002e0: 39a6 fc3a c57e 3b3d 91de 313d b63b 023d
000002f0: cfbf 933b 9467 783c 4786 d53b 8b6b 623c
00000300: f022 8b3b 928a bdb9 cd93 f0bb a2a7 183c
00000310: 64dd 1b3c a485 793b 2bb6 73bd 8e2c 6e3d
00000320: 48ba 923c ff95 b73c 68ec 603c 136b 7a3c
00000330: 550d cf3b 423b 8e3c 6adb 27bc ce8f a53b
00000340: b5e4 323c c427 043d 5e80 853c da38 b93c
00000350: d824 c13c 0eef 8bbc 94d3 8a3c 6431 d83c
00000360: 7bfd 1dbe fb27 66bc 22fc c4bd 2042 9a3c
00000370: e2b2 743d 77ea 0bbd 557f bdbc 9e89 b03c
00000380: db8c 453c 2d67 523b 7132 cd3c 48cf 433b
00000390: 5c3b 593c 8271 11bd c952 d13a a594 05bc
000003a0: c55d 0cbd b26b 9fbb 20ff d83b af91 253b
000003b0: 66b8 1bbc d1b1 5c3c f6ea b93c e8a9 313d
000003c0: 1541 c53c 8f90 8d3b 1e41 033d db65 ab3c
000003d0: baba 9cbc 994e 263d c1a1 9d3b 9486 0d3c
000003e0: 3062 833d 714d 973c faa6 8b3c 2b97 a43c
000003f0: 48d4 d73c ffcd 833c 3d77 42bd 7379 373d
0.05090749 0.011981105 -0.04604707 0.020534426 0.0027002557 0.028964153 -0.047067937 0.0038572238
-0.009968355 -0.0024423748 0.013595936 0.025763847 0.010246401 0.00053375267 0.007132033 -0.00014137088
0.019270109 0.045897376 -0.253152 0.0038680856 -0.004385905 -0.08760773 0.004457105 0.008855419
0.02582399 -0.009682449 0.00839961 -0.08791974 0.022291897 0.022961134 0.017172843 0.01784997
0.007362116 -0.003135857 0.020843565 -0.055153932 0.014950853 -0.012125442 0.017360676 0.02566745
-0.029741395 0.03995969 0.054511208 0.0074685924 0.028550029 0.021986421 -0.05939681 0.014175295
0.016486803 -0.15799928 0.035791192 0.039883357 0.039449155 -0.020791505 -0.015519499 0.020097546
-0.052892182 0.023902249 0.038389307 0.0001444111 0.014789202 0.06422401 -0.00425652 0.039947737
0.011076269 0.043758873 0.009801795 0.0128802955 0.02589098 0.031369057 0.0075481613 0.018193746
0.020571776 0.044021875 -0.028219894 -0.052086256 0.0012932915 -0.0067649493 0.025007037 0.037086267
-0.022682022 0.0060369247 -0.019001892 0.014294051 0.01215975 0.01654963 0.0072754277 0.005564301
0.11299257 0.02369185 -0.029189605 0.018020602 0.041494586 -0.025213305 0.014717966 0.008922065
0.025962645 0.016455237 0.018045165 0.038343478 0.004619481 -0.011291539 0.06975132 0.022367284
0.120225064 0.034855705 0.025542773 0.016537303 -0.0121713085 0.002436399 0.04915701 -0.0044061597
-0.0012696162 -0.009851265 0.020818014 0.0075030057 -0.017870506 0.009680059 0.042028062 -0.0006097154
-0.01112161 0.04959711 0.01579257 0.013345129 0.050154254 -0.014849326 -0.013861082 0.015805276
0.029061193 0.003588553 -0.015463763 -0.07394649 -0.022101982 0.0034163026 0.002717094 -0.006767721
0.025493464 -0.004000775 -0.23077464 0.012884909 0.005676504 0.011312384 0.022762468 0.0146682635
-0.009690018 -0.016551526 0.00064582564 0.00016004966 -0.042267673 0.003916807 0.01249997 0.014732078
-0.25029895 0.027240647 0.016545491 0.04050812 -0.003902318 0.0041131172 -0.00742384 -0.16599976
0.008413558 0.030933468 -0.011625236 0.024894223 0.00410215 0.018957965 0.005927783 0.038089953
0.057886943 -0.003908537 0.03795553 0.0106300125 -0.0009603671 0.015257295 -0.0026241138 0.023448117
-0.013847801 0.011271433 0.016264448 -0.0076979646 -0.04444804 0.02136387 0.0021435064 0.017085193
0.0019275612 0.045775194 0.043425146 0.031795226 0.0045089494 0.015161414 0.0065162512 0.013819586
0.0042461082 -0.00036152132 -0.007341838 0.0093173105 0.009513233 0.003807404 -0.0594999 0.05814796
0.017911091 0.02241039 0.013728239 0.015284318 0.006318728 0.01736224 -0.0102451835 0.0050525432
0.010918786 0.032264486 0.016296562 0.022610117 0.023577139 -0.017081764 0.016946591 0.026390739
-0.15428726 -0.014047618 -0.09618403 0.018830359 0.05974091 -0.03415915 -0.023132006 0.021549996
0.012057508 0.0032104955 0.025048466 0.0029878188 0.013258781 -0.03550864 0.0015970106 -0.008153115
-0.034269113 -0.004865133 0.00662221 0.0025263836 -0.009504413 0.013470129 0.022695046 0.043374926
0.024078885 0.0043202112 0.032044522 0.020922592 -0.019132007 0.0406023 0.0048105423 0.008638043
0.06415212 0.018469544 0.017047394 0.020091614 0.02634634 0.016089438 -0.047476996 0.044793557

factors.weight f4 [10354, 16]
00000000: 5989 163d b33b 0b3d 19e4 113d 5fa2 013d
00000010: 29e0 0d3d dae2 193d 80ba 173d 17ae 173d
00000020: 6edb 053d 5566 083d 9331 133d 9961 163d
00000030: b28a 173d 2a70 0c3d 1b59 1a3d fbc8 1b3d
00000040: 357c 9a3b 8998 5a3b 5884 123c 0ae3 ce3b
00000050: 52da d33b 9a7e 213b 782e d63b 5710 093c
00000060: af06 f33b a995 053c 86bf 453b 4c95 403b
00000070: b5fb 123c 7a97 b73b c31a 3a3b 3008 063c
00000080: 5480 e3bc ba9c d7bc c6e1 fcbc 0bb2 d1bc
00000090: 2f49 fabc 8108 e7bc 9e97 d3bc f121 f6bc
000000a0: d698 0bbd aaba 0cbd 09ec d4bc 399a ebbc
000000b0: 83e8 04bd c70f 08bd 434e 06bd 17db febc
000000c0: a5ab 1eb9 c00b 2c38 988b 79ba 01e2 e3ba
000000d0: b0bf d23a eb41 34bb b8ec 94bb 9e91 ee39
000000e0: 4921 9ebb d9e1 80bb 9276 8abb 728a e5ba
000000f0: 12f5 37bb e3d6 54bb e64a 1fba e7ed d83a
00000100: 1796 263b 9247 a6ba 85cf 26ba 5831 c93a
00000110: 9e5b e8ba f640 903a 668c 85bb e08b 04bb
00000120: cc3f ef3a 1011 7f3a b47e 613a f0b3 d83a
00000130: cb23 0b3b 9321 81bb 2ed3 99bb 72b8 a0bb
00000140: e376 203c 04ea 253c f8d8 363c a19a 003c
00000150: 0e6b 083c 2a51 6b3c bcc2 553c a53f 733c
00000160: 5d64 083c 851f 053c 189e 463c 3c63 143c
00000170: 41ec 1a3c 9e5d 603c a256 523c c655 1b3c
00000180: cc19 b9bb c971 d8ba 0cae bb39 dc02 a5bb
00000190: 8969 573a f38b dabb 3f2a e4bb d3f7 8fbb
000001a0: beaf d7bb b139 93b9 c9e1 9abb 2b19 02bb
000001b0: 7db6 a0bb 28b8 25bb e145 d6ba 76ca e1bb
000001c0: 04f2 a93b d1b4 a43b 66d0 7b3b 3735 02bb
000001d0: 7712 e7b8 10f2 48ba 3cb0 9fba 8119 a33b
000001e0: 312c 1d3b c4df e7ba dae7 8b39 57f9 f339
000001f0: 9373 963b e2f1 653b 06be 883b c711 1fba
00000200: a176 e0b9 b14b 613b 0d47 7cba b1a6 e53a
00000210: 09d9 8b3b f646 86b8 2637 3bba 8b64 ac3b
00000220: ebec 1c3a 0ce8 fc3a 1f1a ad3a e70b d4b9
00000230: 1ffa ddb8 b85a d33a 84c0 62b9 c38f a0ba
00000240: 8f05 8dbc f870 8cbc 5a83 a5bc 4a7b b5bc
00000250: f1e1 81bc 1300 87bc b121 86bc 80b1 88bc
00000260: 1e1a 9ebc 8c00 90bc 37d5 99bc aa5b b5bc
00000270: eb80 a1bc 4b99 87bc 7143 b0bc 45a4 95bc
00000280: ab86 393c 4e41 1c3c 9c61 5c3c cc5b 0b3c
00000290: 606a 683c d34c 173c b0b0 503c 2606 4b3c
000002a0: 0460 803c 868b 203c a948 673c a175 7c3c
000002b0: a7dc 833c a0f0 6b3c 1f8d 783c 046c 843c
000002c0: 84e7 e73c 50e9 f13c 0a26 e83c f394 e93c
000002d0: fdd6 c33c c28d e13c 53b7 e33c 5d2d e03c
000002e0: 615a e13c ac2f d93c a46a b73c b8ee ec3c
000002f0: 6f1a ba3c 60e4 b73c d214 f33c 3b26 ee3c
00000300: 8538 393c c6d9 f63b 1b91 4c3c 5102 323c
00000310: 9519 343c 3e4c 7e3c 8b84 343c 72b1 073c
00000320: 68a2 673c f1cb 263c c3b1 1d3c fe96 293c
00000330: 078d 023c 08e8 343c 945a 0b3c cb06 653c
00000340: f2f8 08bc 3614 64ba c483 9dbb b975 fdba
00000350: 5801 f3bb 9436 37bb 10ac 0abb 0c87 9abb
00000360: c76d 49bb 3b9e 52bb 73fa 3ebb e17c b7bb
00000370: ce93 47bb 34fb 28bb 2929 b8bb 2c1a e4bb
00000380: 2d8a 69bb 6bca 9c3a a393 b0ba 1fec 0a3b
00000390: 0e39 0c37 e141 a3bb 870a e8ba 3149 e439
000003a0: 7488 a7bb 1859 67bb 8c1c 95bb 2fb4 26bb
000003b0: c142 0a3b 6830 b3ba ddfa 093b 1221 c2ba
000003c0: 505f 01bc 8b3e 60bc f4ad 08bc 4d3b f6bb
000003d0: 149d 0cbc 86c5 30bc a3a8 11bc 8b65 4bbc
000003e0: 7cd9 1cbc a47b e0bb 4716 35bc f85b 54bc
000003f0: 9c21 dcbb b0cc 04bc 4205 2dbc 5e35 dfbb
0.03675208 0.03399248 0.03561792 0.03164899 0.034637604 0.037569858 0.037043095 0.03703126
0.032679968 0.033300716 0.03593595 0.03671417 0.036997505 0.034286655 0.037682634 0.038033467
0.0047145137 0.0033355078 0.008942686 0.0063136863 0.006465235 0.002464211 0.006536301 0.008365712
0.007416568 0.008153358 0.0030173971 0.0029385863 0.008971144 0.005602774 0.00283973 0.008180663
-0.027771153 -0.02631985 -0.030869376 -0.025597593 -0.030552475 -0.028202297 -0.025829133 -0.030045481
-0.034081303 -0.034357704 -0.025991457 -0.028760063 -0.032448303 -0.03321817 -0.03278948 -0.03111033
-0.00015131997 4.101894e-05 -0.0009519397 -0.001738608 0.0016078856 -0.002750511 -0.0045448206 0.0004550339
-0.0048257452 -0.003933173 -0.0042255605 -0.0017512573 -0.0028069657 -0.0032476715 -0.00060765294 0.0016550393
0.002541905 -0.0012686125 -0.000636332 0.0015349789 -0.0017727499 0.0011005688 -0.0040755747 -0.0020224974
0.0018253266 0.00097300205 0.0008601949 0.0016533118 0.002123105 -0.00394077 -0.004694364 -0.0049048
0.00979397 0.010126594 0.011160128 0.007849366 0.008326305 0.014362613 0.013046917 0.014846717
0.00832471 0.008125191 0.012122653 0.009056862 0.009455741 0.013694195 0.012838038 0.009480899
-0.005648827 -0.0016513403 0.00035797094 -0.0050357413 0.0008217325 -0.0066695153 -0.006963044 -0.0043935566
-0.0065822294 -0.00028081008 -0.0047266227 -0.0019851427 -0.004904567 -0.0025286768 -0.001634773 -0.0068905903
0.005186321 0.005026438 0.0038423776 -0.0019868144 -0.00011018378 -0.00076654647 -0.0012183259 0.0049774055
0.002398264 -0.0017690589 0.0002668489 0.00046534344 0.0045914142 0.00350868 0.004173043 -0.00060680177
-0.00042812995 0.003437739 -0.00096236245 0.0017520991 0.004267816 -6.4028354e-05 -0.00071417016 0.005261009
0.0005986231 0.001929523 0.0013206637 -0.0004044466 -0.0001058469 0.0016125059 -0.00021624757 -0.0012249876
-0.017214565 -0.017143711 -0.020204235 -0.022153515 -0.015854808 -0.016479528 -0.016373487 -0.016686201
-0.019299563 -0.017578386 -0.018778427 -0.022138435 -0.019714793 -0.016552588 -0.021516534 -0.018266806
0.011323611 0.009537054 0.013451006 0.008505773 0.014185518 0.009234625 0.012737438 0.012391603
0.015670784 0.00979889 0.014116445 0.015408904 0.016096426 0.014400631 0.015170365 0.016164787
0.028308637 0.029530197 0.028338451 0.028513407 0.023906225 0.027533416 0.027797377 0.02736538
0.027508916 0.02651199 0.022389717 0.028922424 0.022717683 0.022447765 0.029673014 0.029070964
0.011304979 0.007533285 0.012485768 0.01086481 0.010992427 0.015521107 0.011017929 0.008282052
0.014137842 0.010180459 0.009624901 0.010350941 0.007968194 0.011041649 0.008505482 0.01397867
-0.008360134 -0.00087005214 -0.0048069675 -0.0019337452 -0.0074159317 -0.0027956115 -0.0021159686 -0.004715806
-0.0030735598 -0.003213777 -0.0029140979 -0.0055996035 -0.0030453089 -0.0025784494 -0.005620141 -0.0069611277
-0.0035635338 0.0011962181 -0.0013471734 0.0021197868 8.357934e-06 -0.0049822186 -0.0017703333 0.0004354208
-0.005112702 -0.0035300907 -0.004550522 -0.0025436988 0.0021096917 -0.0013671042 0.0021054067 -0.0014810881
-0.007896259 -0.013686786 -0.008342255 -0.0075143934 -0.008582372 -0.010789281 -0.008890304 -0.012414346
-0.009573337 -0.0068506766 -0.011052675 -0.01296138 -0.0067178737 -0.008105442 -0.010560336 -0.006811782

dnn.factors.weight f4 [10354, 16]
00000000: 5989 163d b33b 0b3d 19e4 113d 5fa2 013d
00000010: 29e0 0d3d dae2 193d 80ba 173d 17ae 173d
00000020: 6edb 053d 5566 083d 9331 133d 9961 163d
00000030: b28a 173d 2a70 0c3d 1b59 1a3d fbc8 1b3d
00000040: 357c 9a3b 8998 5a3b 5884 123c 0ae3 ce3b
00000050: 52da d33b 9a7e 213b 782e d63b 5710 093c
00000060: af06 f33b a995 053c 86bf 453b 4c95 403b
00000070: b5fb 123c 7a97 b73b c31a 3a3b 3008 063c
00000080: 5480 e3bc ba9c d7bc c6e1 fcbc 0bb2 d1bc
00000090: 2f49 fabc 8108 e7bc 9e97 d3bc f121 f6bc
000000a0: d698 0bbd aaba 0cbd 09ec d4bc 399a ebbc
000000b0: 83e8 04bd c70f 08bd 434e 06bd 17db febc
000000c0: a5ab 1eb9 c00b 2c38 988b 79ba 01e2 e3ba
000000d0: b0bf d23a eb41 34bb b8ec 94bb 9e91 ee39
000000e0: 4921 9ebb d9e1 80bb 9276 8abb 728a e5ba
000000f0: 12f5 37bb e3d6 54bb e64a 1fba e7ed d83a
00000100: 1796 263b 9247 a6ba 85cf 26ba 5831 c93a
00000110: 9e5b e8ba f640 903a 668c 85bb e08b 04bb
00000120: cc3f ef3a 1011 7f3a b47e 613a f0b3 d83a
00000130: cb23 0b3b 9321 81bb 2ed3 99bb 72b8 a0bb
00000140: e376 203c 04ea 253c f8d8 363c a19a 003c
00000150: 0e6b 083c 2a51 6b3c bcc2 553c a53f 733c
00000160: 5d64 083c 851f 053c 189e 463c 3c63 143c
00000170: 41ec 1a3c 9e5d 603c a256 523c c655 1b3c
00000180: cc19 b9bb c971 d8ba 0cae bb39 dc02 a5bb
00000190: 8969 573a f38b dabb 3f2a e4bb d3f7 8fbb
000001a0: beaf d7bb b139 93b9 c9e1 9abb 2b19 02bb
000001b0: 7db6 a0bb 28b8 25bb e145 d6ba 76ca e1bb
000001c0: 04f2 a93b d1b4 a43b 66d0 7b3b 3735 02bb
000001d0: 7712 e7b8 10f2 48ba 3cb0 9fba 8119 a33b
000001e0: 312c 1d3b c4df e7ba dae7 8b39 57f9 f339
000001f0: 9373 963b e2f1 653b 06be 883b c711 1fba
00000200: a176 e0b9 b14b 613b 0d47 7cba b1a6 e53a
00000210: 09d9 8b3b f646 86b8 2637 3bba 8b64 ac3b
00000220: ebec 1c3a 0ce8 fc3a 1f1a ad3a e70b d4b9
00000230: 1ffa ddb8 b85a d33a 84c0 62b9 c38f a0ba
00000240: 8f05 8dbc f870 8cbc 5a83 a5bc 4a7b b5bc
00000250: f1e1 81bc 1300 87bc b121 86bc 80b1 88bc
00000260: 1e1a 9ebc 8c00 90bc 37d5 99bc aa5b b5bc
00000270: eb80 a1bc 4b99 87bc 7143 b0bc 45a4 95bc
00000280: ab86 393c 4e41 1c3c 9c61 5c3c cc5b 0b3c
00000290: 606a 683c d34c 173c b0b0 503c 2606 4b3c
000002a0: 0460 803c 868b 203c a948 673c a175 7c3c
000002b0: a7dc 833c a0f0 6b3c 1f8d 783c 046c 843c
000002c0: 84e7 e73c 50e9 f13c 0a26 e83c f394 e93c
000002d0: fdd6 c33c c28d e13c 53b7 e33c 5d2d e03c
000002e0: 615a e13c ac2f d93c a46a b73c b8ee ec3c
000002f0: 6f1a ba3c 60e4 b73c d214 f33c 3b26 ee3c
00000300: 8538 393c c6d9 f63b 1b91 4c3c 5102 323c
00000310: 9519 343c 3e4c 7e3c 8b84 343c 72b1 073c
00000320: 68a2 673c f1cb 263c c3b1 1d3c fe96 293c
00000330: 078d 023c 08e8 343c 945a 0b3c cb06 653c
00000340: f2f8 08bc 3614 64ba c483 9dbb b975 fdba
00000350: 5801 f3bb 9436 37bb 10ac 0abb 0c87 9abb
00000360: c76d 49bb 3b9e 52bb 73fa 3ebb e17c b7bb
00000370: ce93 47bb 34fb 28bb 2929 b8bb 2c1a e4bb
00000380: 2d8a 69bb 6bca 9c3a a393 b0ba 1fec 0a3b
00000390: 0e39 0c37 e141 a3bb 870a e8ba 3149 e439
000003a0: 7488 a7bb 1859 67bb 8c1c 95bb 2fb4 26bb
000003b0: c142 0a3b 6830 b3ba ddfa 093b 1221 c2ba
000003c0: 505f 01bc 8b3e 60bc f4ad 08bc 4d3b f6bb
000003d0: 149d 0cbc 86c5 30bc a3a8 11bc 8b65 4bbc
000003e0: 7cd9 1cbc a47b e0bb 4716 35bc f85b 54bc
000003f0: 9c21 dcbb b0cc 04bc 4205 2dbc 5e35 dfbb
0.03675208 0.03399248 0.03561792 0.03164899 0.034637604 0.037569858 0.037043095 0.03703126
0.032679968 0.033300716 0.03593595 0.03671417 0.036997505 0.034286655 0.037682634 0.038033467
0.0047145137 0.0033355078 0.008942686 0.0063136863 0.006465235 0.002464211 0.006536301 0.008365712
0.007416568 0.008153358 0.0030173971 0.0029385863 0.008971144 0.005602774 0.00283973 0.008180663
-0.027771153 -0.02631985 -0.030869376 -0.025597593 -0.030552475 -0.028202297 -0.025829133 -0.030045481
-0.034081303 -0.034357704 -0.025991457 -0.028760063 -0.032448303 -0.03321817 -0.03278948 -0.03111033
-0.00015131997 4.101894e-05 -0.0009519397 -0.001738608 0.0016078856 -0.002750511 -0.0045448206 0.0004550339
-0.0048257452 -0.003933173 -0.0042255605 -0.0017512573 -0.0028069657 -0.0032476715 -0.00060765294 0.0016550393
0.002541905 -0.0012686125 -0.000636332 0.0015349789 -0.0017727499 0.0011005688 -0.0040755747 -0.0020224974
0.0018253266 0.00097300205 0.0008601949 0.0016533118 0.002123105 -0.00394077 -0.004694364 -0.0049048
0.00979397 0.010126594 0.011160128 0.007849366 0.008326305 0.014362613 0.013046917 0.014846717
0.00832471 0.008125191 0.012122653 0.009056862 0.009455741 0.013694195 0.012838038 0.009480899
-0.005648827 -0.0016513403 0.00035797094 -0.0050357413 0.0008217325 -0.0066695153 -0.006963044 -0.0043935566
-0.0065822294 -0.00028081008 -0.0047266227 -0.0019851427 -0.004904567 -0.0025286768 -0.001634773 -0.0068905903
0.005186321 0.005026438 0.0038423776 -0.0019868144 -0.00011018378 -0.00076654647 -0.0012183259 0.0049774055
0.002398264 -0.0017690589 0.0002668489 0.00046534344 0.0045914142 0.00350868 0.004173043 -0.00060680177
-0.00042812995 0.003437739 -0.00096236245 0.0017520991 0.004267816 -6.4028354e-05 -0.00071417016 0.005261009
0.0005986231 0.001929523 0.0013206637 -0.0004044466 -0.0001058469 0.0016125059 -0.00021624757 -0.0012249876
-0.017214565 -0.017143711 -0.020204235 -0.022153515 -0.015854808 -0.016479528 -0.016373487 -0.016686201
-0.019299563 -0.017578386 -0.018778427 -0.022138435 -0.019714793 -0.016552588 -0.021516534 -0.018266806
0.011323611 0.009537054 0.013451006 0.008505773 0.014185518 0.009234625 0.012737438 0.012391603
0.015670784 0.00979889 0.014116445 0.015408904 0.016096426 0.014400631 0.015170365 0.016164787
0.028308637 0.029530197 0.028338451 0.028513407 0.023906225 0.027533416 0.027797377 0.02736538
0.027508916 0.02651199 0.022389717 0.028922424 0.022717683 0.022447765 0.029673014 0.029070964
0.011304979 0.007533285 0.012485768 0.01086481 0.010992427 0.015521107 0.011017929 0.008282052
0.014137842 0.010180459 0.009624901 0.010350941 0.007968194 0.011041649 0.008505482 0.01397867
-0.008360134 -0.00087005214 -0.0048069675 -0.0019337452 -0.0074159317 -0.0027956115 -0.0021159686 -0.004715806
-0.0030735598 -0.003213777 -0.0029140979 -0.0055996035 -0.0030453089 -0.0025784494 -0.005620141 -0.0069611277
-0.0035635338 0.0011962181 -0.0013471734 0.0021197868 8.357934e-06 -0.0049822186 -0.0017703333 0.0004354208
-0.005112702 -0.0035300907 -0.004550522 -0.0025436988 0.0021096917 -0.0013671042 0.0021054067 -0.0014810881
-0.007896259 -0.013686786 -0.008342255 -0.0075143934 -0.008582372 -0.010789281 -0.008890304 -0.012414346
-0.009573337 -0.0068506766 -0.011052675 -0.01296138 -0.0067178737 -0.008105442 -0.010560336 -0.006811782

dnn.mlp.mlp.0.weight f4 [8, 16]
00000000: 933f c5bc 2a83 903c 22a4 df3c 3f60 7e3c
00000010: b429 26bc cf88 283d 6c61 8bbc ed7e b3bc
00000020: d9f9 343c 183b 1d3c 7a26 17bd 8478 dcbc
00000030: 8a6c 0b3b 65be 643a b471 f23c b6b4 efbc
00000040: f063 67bc c89c fd39 4744 26bc a0b7 bfbc
00000050: 60c0 233d 4ad6 58bc 8fbb 6f3c 66b6 d3bc
00000060: a3a6 d3bc 7b87 033d f29b 0c3c 0c67 fc3b
00000070: c35a 78bc 21ce 7b3c 661f 1b3d ccc2 e6bb
00000080: 432f d33c 68d0 dcbc 8305 113c 39fb 9cbc
00000090: c87b 5fbc 41f8 13bd 3615 acba c56c 7fbc
000000a0: 17a5 1dbd 0b0d 58bc afbe 5abb 5c0b 59bb
000000b0: 55da b13b 12c5 da3c 69d9 393c 64bc 0cbd
000000c0: 6f26 f7bc 4450 c4bc a780 89bc 725c c03c
000000d0: 0884 24bd 318b 2c3c 4226 8d3c d606 9ebc
000000e0: eb56 18bd 90ef bdbc 21d3 20bd 1d17 8fbc
000000f0: 28c7 a43b 0be7 203a 15c2 e53b 6f07 f63c
00000100: 1c92 f9bb f229 2d3c 934e d6bb b6ab 19bc
00000110: e66a f8bc c9ce 82ba a5c7 febb 4c0c 4039
00000120: 215b fd3b d92f 2b3d b1f8 dd3c cd11 1bbc
00000130: 0394 a83c 8a29 933b a776 9d3b 1f0a 25bd
00000140: 9084 96bc 75b4 10bc 2cb2 efbc 63ee b73b
00000150: c86b a73c 578a dabc c1c0 12bd a20a babc
00000160: 707e e23c 8f14 0ebc 6ac8 cf3c ae12 fdbc
00000170: 21d7 33bc 7c15 e13a 9fee d73c 0041 2c3d
00000180: 5e08 0fbd 3038 3e3c afaf b23c 8a03 833b
00000190: d775 9fbc 6e33 263d 8c48 ae3c ab5b ce3c
000001a0: 8783 cc3a 2970 b0bc 1df9 96bc 14f7 9bbc
000001b0: a480 0cbd dd95 8a3b ba3a 683c eae1 1fbd
000001c0: ac0f 453c dcfa 223c 7bf0 80bb d817 10bc
000001d0: 2418 123d 62fb 713c de26 a6bc 0947 c33c
000001e0: b328 683c 4ed3 21bd fb88 1d3d 25aa 0d3d
000001f0: a6f0 2b3c d996 54bc 0371 223d a422 163d
-0.024078166 0.017640669 0.027299944 0.015525877 -0.010141779 0.041146096 -0.017014228 -0.021911109
0.011045896 0.009596609 -0.03690193 -0.026912935 0.002127441 0.0008725881 0.029595234 -0.029260974
-0.014122948 0.00048372732 -0.0101481145 -0.023402989 0.039978385 -0.013234684 0.01463212 -0.02584381
-0.025836295 0.032111626 0.008582102 0.007702714 -0.015158358 0.015368969 0.03787174 -0.0070422646
0.025779372 -0.026954845 0.008851412 -0.019162761 -0.013640352 -0.036125425 -0.001312888 -0.0155898975
-0.03848752 -0.013186703 -0.0033377816 -0.0033118343 0.0054276385 0.026705299 0.0113433385 -0.03435935
-0.030169694 -0.023964055 -0.016784979 0.023481581 -0.040164977 0.010531233 0.017230157 -0.019290369
-0.037192266 -0.023185521 -0.03926385 -0.017467076 0.005028624 0.0006137944 0.007011662 0.030032841
-0.0076162945 0.010569083 -0.0065401285 -0.009379318 -0.03032441 -0.000997984 -0.0077752643 0.00018315128
0.0077318107 0.041793678 0.027096124 -0.009464693 0.02057839 0.004491036 0.004805404 -0.040292855
-0.018373758 -0.008832087 -0.029259764 0.0056131347 0.020437136 -0.026677294 -0.035828356 -0.022710148
0.02764818 -0.008671894 0.02536412 -0.030892696 -0.010976584 0.001717254 0.0263589 0.042054176
-0.03492009 0.011610076 0.021812288 0.0039982246 -0.01946537 0.04057639 0.021274827 0.025190195
0.0015603163 -0.021537857 -0.018429333 -0.019038714 -0.03430237 0.004229291 0.014174158 -0.039033808
0.012027662 0.009947505 -0.0039349175 -0.008794747 0.035667554 0.014769407 -0.020282205 0.023837583
0.01416986 -0.039508156 0.038460713 0.03458609 0.010494387 -0.012975418 0.039658558 0.03665413

dnn.mlp.mlp.0.bias f4 [8]
00000000: a010 8dbc 88d5 94bb 8cbe ecbc ea21 da3c
00000010: cd65 28bd 8fd5 18bd be57 603a 5901 0b3d
-0.017219841 -0.0045420565 -0.028899454 0.0266275 -0.04111271 -0.03731304 0.00085579965 0.033936832

dnn.mlp.mlp.2.weight f4 [4, 8]
00000000: 7768 e83a 6b61 5a3d bfeb a9bc b6ac 763b
00000010: 7225 24bd e99b 4b3d ac85 dbbc 41a9 6fbd
00000020: 47f7 af3c 4417 0a3b 9529 67bb 888e 50bc
00000030: 03ea a83c fc29 33bd 1c28 c8bc 142b b73c
00000040: 5ee1 6b3d 4186 58bd 100d 673d 0ac9 493c
00000050: 2038 42bd 4fcc 0abd 6586 3e3d 33e0 2e3d
00000060: 404e 6dbd 5cb6 3fbd 7ce8 6bbd ea9e 67bd
00000070: 96b2 fbbc 0210 483d 19c7 0ebd 549a 2dbd
0.0017731328 0.05331556 -0.020742295 0.0037639565 -0.040074773 0.049709234 -0.026797138 -0.058511022
0.021480216 0.0021070996 -0.0035272588 -0.012729295 0.020619398 -0.04374121 -0.024433188 0.022359408
0.057587974 -0.05286241 0.05640894 0.012315998 -0.047416806 -0.03388625 0.046514887 0.04269428
-0.057935953 -0.04680477 -0.05759476 -0.056548037 -0.030724805 0.04884339 -0.034857843 -0.042383507

dnn.mlp.mlp.2.bias f4 [4]
00000000: 0c34 803c 7152 3cbb 14fb 283d e714 3ebd
0.015649818 -0.0028735662 0.04125507 -0.046406653

dnn.mlp.mlp.4.weight f4 [2, 4]
00000000: b91c 3d3d 2c73 813d 0f8c 923d 277e 80bd
00000010: b2bb 6e3c b480 fc3c 26e0 6b3c 5056 973c
0.04616997 0.063207954 0.0715562 -0.06274062 0.014571117 0.03082309 0.014396703 0.018473774

dnn.mlp.mlp.4.bias f4 [2]
00000000: 7ffc 0d3d ed48 4abd
0.034664627 -0.049385954

dnn.mlp.mlp.6.weight f4 [1, 2]
00000000: d770 a7bc 66a3 ceb9
-0.020439548 -0.00039413123
