model_deployment1/saved_models/deepfm_model.pth (torch, 709120 bytes, 10 tensors)

weights.weight f4 [1, 10354]
000000 e4 d4 50 3d 75 08 44 3c 8b 59 3d bd 86 c0 a5 3c
       0.05098428 0.011964907 -0.046227973 0.020233404
000010 87 59 32 3b e7 50 ed 3c 93 c6 41 bd ed d8 82 3b
       0.0027214007 0.028969241 -0.047308516 0.0039931447
000020 89 ab 22 bc 46 7d 24 bb 0a 0d 5f 3c ed d0 d3 3c
       -0.0099285925 -0.0025099083 0.013613949 0.02585646
000030 b9 fc 26 3c f3 74 14 3a d6 37 ec 3b df 56 62 b9
       0.01019209 0.0005663179 0.0072088046 -0.00021585402
000040 32 78 9f 3c 20 ae 3b 3d 0b 5e 81 be e0 48 96 3b
       0.019466493 0.045820355 -0.25267062 0.004586324
000050 92 60 ab bb f7 3f b3 bd 7e d3 8d 3b 6f 3a 0f 3c
       -0.005230018 -0.08752435 0.0043281903 0.008741959
000060 f8 8e d3 3c 74 f3 1e bc 1b e6 0a 3c 1d 02 b5 bd
       0.025825009 -0.009701598 0.008477713 -0.08838294
000070 76 5c b7 3c f4 f8 bb 3c 05 85 89 3c 90 ff 92 3c
       0.022382956 0.022945859 0.016787061 0.017944127
000080 2f df ee 3b da 7c 54 bb 0d d6 ab 3c b3 bf 61 bd
       0.007289789 -0.003242305 0.02097609 -0.05511446
000090 d1 56 74 3c 76 5d 4c bc ec 83 8e 3c ce c7 d4 3c
       0.014913277 -0.012473455 0.01739689 0.02597418
0000a0 28 25 ee bc 8c 7d 24 3d c2 7e 5f 3d 36 20 f6 3b
       -0.029070452 0.040158793 0.054564245 0.007511164
0000b0 eb 04 ea 3c c9 fa b3 3c 3a f1 72 bd ac b0 67 3c
       0.028566798 0.02197017 -0.059312083 0.014141243
0000c0 a1 f1 86 3c 5d 43 21 be ec 30 14 3d 97 21 22 3d
       0.01647264 -0.15748353 0.036179468 0.039582815
0000d0 64 89 21 3d c2 c0 a9 bc ba 4a 7e bc 9a 1d a3 3c
       0.039437667 -0.020721797 -0.015520746 0.019911576
0000e0 97 93 58 bd b0 cb bf 3c 70 42 1d 3d 67 29 42 39
       -0.052875128 0.023412555 0.038393438 0.00018516705
0000f0 2e 14 72 3c 10 ba 82 3d 6e 41 93 bb 17 38 24 3d
       0.014775319 0.06383145 -0.004493884 0.040092554
000100 89 ab 35 3c cc 3f 33 3d 6b 1e 20 3c ab ca 4b 3c
       0.01108826 0.043762013 0.009772877 0.0124384565
000110 c3 e3 d3 3c f4 b5 01 3d 13 0d f8 3b d6 05 94 3c
       0.025865441 0.031667665 0.007569918 0.018069189
000120 cb 65 a5 3c 41 4c 36 3d a4 b6 e6 bc 33 d3 55 bd
       0.02019014 0.044506315 -0.028163262 -0.05220337
000130 b1 2e bb 3a 7b 3b e1 bb a2 9b c6 3c 63 b8 15 3d
       0.0014280883 -0.0068735457 0.024244133 0.036552798
000140 eb d2 b9 bc f8 bd ca 3b d1 b2 9a bc 5b 44 6c 3c
       -0.022683581 0.006187197 -0.018884094 0.014420594
000150 69 c8 4a 3c ce 3e 88 3c b5 1e ee 3b 30 d2 b3 3b
       0.012376883 0.01663151 0.007266844 0.005487703
000160 9a 89 e6 3d c5 83 c0 3c c9 14 f6 bc 65 88 93 3c
       0.11256714 0.023500333 -0.030039208 0.018009374
000170 56 4b 2a 3d 4e 50 ce bc c2 1f 73 3c ab e7 11 3c
       0.041575752 -0.025184777 0.014839115 0.008905332
000180 3a 94 d3 3c ca f6 87 3c 98 0f 94 3c 4f d6 1d 3d
       0.025827516 0.01659717 0.018073842 0.03853446
000190 e0 11 9c 3b 51 bb 38 bc 2b a7 90 3d 40 dd b5 3c
       0.004762873 -0.011275128 0.07063135 0.022200227
0001a0 ed 6b f4 3d 29 2e 0e 3d 8a e4 d1 3c be 9d 88 3c
       0.11934648 0.03471199 0.025621671 0.01667678
0001b0 78 09 41 bc 82 92 1a 3b 9a c2 47 3d 6b 4e 93 bb
       -0.011782043 0.002358586 0.04876957 -0.004495432
0001c0 e6 58 70 ba 4e 4f 20 bc 07 0f ab 3c 83 e9 e8 3b
       -0.00091685203 -0.009784533 0.020881189 0.007107915
0001d0 59 13 92 bc a9 86 1f 3c f7 b2 2b 3d b3 a5 0f ba
       -0.017831491 0.009736695 0.04191872 -0.0005479708
0001e0 7d ef 32 bc 10 5a 4a 3d 5b 8e 80 3c f2 b7 5d 3c
       -0.010921356 0.049402297 0.01569288 0.0135326255
0001f0 cf 02 4e 3d e4 32 75 bc bb f0 63 bc e2 91 7f 3c
       0.050295647 -0.014965747 -0.013912375 0.015598746
000200 63 14 ed 3c fb cc 6f 3b 7c 98 7e bc 4b f2 97 bd
       0.028940385 0.0036590684 -0.015539285 -0.074192606
000210 49 0c b5 bc d2 8d 60 3b fc e0 22 3b 82 e2 e7 bb
       -0.022100585 0.003426422 0.002485334 -0.0070765624
000220 0b 6a cf 3c 15 11 80 bb 2d b3 6b be dc 15 5a 3c
       0.02531912 -0.0039082863 -0.23017569 0.013310876
000230 5e cc c4 3b 51 ce 36 3c b6 70 ba 3c d1 b1 6c 3c
       0.006005808 0.011157588 0.022758823 0.014446692
000240 78 58 1f bc 71 55 86 bc 86 f7 28 3a 6a 16 26 39
       -0.009725682 -0.016398164 0.0006445575 0.00015839344
000250 ef 00 2d bd a1 4e 7e 3b 90 56 4c 3c 4a f9 6f 3c
       -0.04223722 0.003880419 0.01247181 0.0146468375
000260 18 4c 80 be d8 fa dd 3c 35 a1 87 3c 74 ef 24 3d
       -0.25058055 0.02709715 0.016556362 0.040267423
000270 15 e5 7f bb 33 62 86 3b 63 6a f7 bb 40 3d 29 be
       -0.0039046456 0.0041010617 -0.007550524 -0.16527271
000280 35 ac 06 3c d2 cd ff 3c fc 60 3e bc 3b 7a cb 3c
       0.008219768 0.031226072 -0.011619803 0.024838557
000290 7a 04 81 3b de 96 99 3c 19 db c0 3b 1d 1a 1c 3d
       0.003937301 0.018748697 0.0058854935 0.03811084
0002a0 36 a5 6d 3d 90 ba 77 bb 5b 55 1c 3d d0 28 2e 3c
       0.058018886 -0.003780041 0.03816734 0.010629848
0002b0 ea 94 70 ba 60 b0 7b 3c 29 fb 27 bb 91 4f be 3c
       -0.00091774634 0.015361875 -0.002563188 0.0232313
0002c0 04 ec 62 bc 6a 8a 3d 3c 24 e1 84 3c 82 35 fb bb
       -0.013850216 0.011568645 0.016220637 -0.0076662907
0002d0 18 2a 36 bd 46 b2 c1 3c 98 d2 0c 3b 18 a7 86 3c
       -0.044473737 0.023644578 0.0021487828 0.016437098
0002e0 bf 2e ec 3a 71 7d 3c 3d a3 6b 32 3d 35 2a 01 3d
       0.0018019303 0.046018068 0.04355968 0.031534392
0002f0 16 b5 93 3b d0 41 7a 3c 8b ef c9 3b f3 a4 62 3c
       0.004507671 0.01527448 0.006162589 0.013833272
000300 57 3a 8b 3b e7 a2 af b9 ea d7 f1 bb 25 23 18 3c
       0.004248898 -0.00033499973 -0.0073804753 0.009285723
000310 59 06 1b 3c 3c 84 82 3b e9 7c 71 bd 71 6d 6c 3d
       0.009461963 0.0039830487 -0.058957014 0.05772156
000320 bc 4b 93 3c 96 c6 b7 3c 60 7b 62 3c c0 f7 75 3c
       0.017980449 0.02243356 0.01382336 0.0150126815
000330 87 86 cc 3b 9b 3d 8f 3c bd 1d 28 bc 37 33 a5 3b
       0.006241623 0.01748543 -0.010260996 0.0050415057
000340 7c 9f 33 3c 7c 62 03 3d fd 90 85 3c e8 e3 b7 3c
       0.010963317 0.032076344 0.016304487 0.022447541
000350 1c aa c1 3c 3e 14 8c bc 58 fe 8b 3c 1d 17 d7 3c
       0.023640685 -0.017099496 0.017089054 0.026256138
000360 92 9a 1d be 29 a5 64 bc 2f 48 c6 bd 97 38 99 3c
       -0.15390995 -0.013955393 -0.09681737 0.018703742
000370 70 ec 74 3d 14 39 0c bd 39 aa bd bc 7c 2e b1 3c
       0.059795797 -0.03423412 -0.023152458 0.02162861
000380 79 f1 43 3c 22 f5 3d 3b 95 c4 cd 3c 78 19 3d 3b
       0.011959427 0.0028985222 0.025118152 0.0028854292
000390 77 57 56 3c 9b 7e 11 bd 52 e3 ca 3a a2 18 fb bb
       0.013082377 -0.03552113 0.0015479124 -0.0076628486
0003a0 c8 85 0b bd 37 39 a6 bb f2 0a d9 3b a3 2b 23 3b
       -0.03406313 -0.0050727385 0.0066236192 0.0024897836
0003b0 b7 b5 19 bc b0 52 5b 3c ab c4 b7 3c b1 9b 31 3d
       -0.009381703 0.013386413 0.022432646 0.04336137
0003c0 c6 f4 c5 3c 74 82 82 3b a5 ca 02 3d d6 99 ab 3c
       0.024164569 0.0039828364 0.031931538 0.020947378
0003d0 97 e7 9c bc 1b e7 26 3d 2e 65 96 3b 6f c4 0e 3c
       -0.0191534 0.040747743 0.0045896983 0.008713826
0003e0 77 43 83 3d 1e ad 97 3c 92 7a 89 3c 2a eb a4 3c
       0.06409352 0.018515166 0.016782079 0.020131666
0003f0 83 ea d5 3c cd 7e 81 3c 19 bb 41 bd 76 78 37 3d
       0.0261128 0.015807534 -0.04729757 0.044792615

factors.weight f4 [10354, 16]
000000 ac 78 16 3d 06 2d 0b 3d e2 d4 11 3d 24 95 01 3d
       0.036736175 0.033978485 0.03560341 0.031636372
000010 81 d0 0d 3d 7e d2 19 3d ba aa 17 3d a7 9d 17 3d
       0.034622673 0.037554257 0.037028052 0.037015583
000020 2e cd 05 3d 0c 58 08 3d 3c 21 13 3d 1c 51 16 3d
       0.032666378 0.033287093 0.035920367 0.036698446
000030 42 7a 17 3d 92 61 0c 3d 69 48 1a 3d 9f b7 1b 3d
       0.03698183 0.034272738 0.037666712 0.03801691
000040 34 2a 9a 3b f8 eb 59 3b 8a 5c 12 3c 3f 91 ce 3b
       0.004704738 0.003325222 0.008933196 0.006303936
000050 e2 89 d3 3b 24 cd 20 3b ea db d5 3b fc e7 08 3c
       0.006455646 0.0024536336 0.00652646 0.008356091
000060 54 b6 f2 3b 86 6e 05 3c 98 15 45 3b 84 eb 3f 3b
       0.007406989 0.008144027 0.0030072685 0.0029284665
000070 79 d5 12 3c b5 44 b7 3b 59 6d 39 3b b9 e1 05 3c
       0.008962029 0.0055929073 0.0028293936 0.008171492
000080 17 bf e1 bc e6 d9 d5 bc 7c 23 fb bc 86 ee cf bc
       -0.027556939 -0.026104879 -0.030656569 -0.025382292
000090 a0 8a f8 bc a3 47 e5 bc 4a d4 d1 bc cd 62 f4 bc
       -0.030339539 -0.02798826 -0.025613923 -0.029832268
0000a0 4a bb 0a bd 40 dd 0b bd fd 28 d3 bc e2 d9 e9 bc
       -0.03387002 -0.034146547 -0.02577638 -0.028546277
0000b0 1b 0a 04 bd dd 31 07 bd 16 70 05 bd 15 1d fd bc
       -0.0322362 -0.033006538 -0.032577597 -0.030897656
0000c0 45 c6 97 b8 93 f4 fa 38 dc 22 65 ba a4 b7 d9 ba
       -7.237172e-05 0.000119664845 -0.0008740851 -0.0016610515
0000d0 7a 3b dd 3a e1 3e 2f bb b1 73 92 bb bf ee 0b 3a
       0.0016878687 -0.002674036 -0.004469358 0.0005338005
0000e0 12 a8 9b bb 8c c3 7c bb 81 f8 87 bb f2 59 db ba
       -0.00475026 -0.0038568703 -0.004149497 -0.001673518
0000f0 27 e6 32 bb 93 d3 4f bb 09 cd 0a ba fd 74 e3 3a
       -0.0027297826 -0.0031711801 -0.0005294835 0.0017353591
000100 12 09 26 3b c8 6b a7 ba 2a 1b 29 ba b1 0f c8 3a
       0.0025334996 -0.001277321 -0.0006450886 0.0015263465
000110 d8 79 e9 ba 62 18 8f 3a 36 d6 85 bb 60 1f 05 bb
       -0.0017812802 0.0010917301 -0.004084374 -0.002031289
000120 af 1e ee 3a d9 d5 7c 3a bd 43 5f 3a b0 96 d7 3a
       0.0018167103 0.0009644903 0.00085168687 0.0016448107
000130 88 96 0a 3b 56 6a 81 bb 8c 1c 9a bb 33 ff a0 bb
       0.0021146853 -0.003949444 -0.00470311 -0.0049132346
000140 71 8d 20 3c e2 00 26 3c 7c f0 36 3c ea af 00 3c
       0.009799347 0.010132046 0.011165734 0.007854441
000150 b6 80 08 3c 22 6b 6b 3c 96 db 55 3c 9c 59 73 3c
       0.008331468 0.014368804 0.013052842 0.0148529075
000160 f7 79 08 3c 02 35 05 3c 08 b6 46 3c 52 79 14 3c
       0.00832986 0.008130314 0.012128361 0.009062128
000170 92 02 1b 3c e0 76 60 3c 59 6f 52 3c 5a 6c 1b 3c
       0.009461062 0.013700217 0.01284393 0.009486282
000180 df 11 b7 bb 3c bf cf ba 0a 99 df 39 bd f3 a2 bb
       -0.005586847 -0.0015849839 0.00042647897 -0.0049729035
000190 3d 74 69 3a 72 8a d8 bb 44 2b e2 bb 97 e2 8d bb
       0.00089055655 -0.006608301 -0.0069021303 -0.00432999
0001a0 e4 ae d5 bb cc 8c 5f b9 e2 d0 98 bb b8 8f fb ba
       -0.0065210927 -0.00021319388 -0.0046635726 -0.0019192612
0001b0 f1 a7 9e bb d6 6d 21 bb 0d 91 cd ba f7 cc df bb
       -0.0048417975 -0.0024632118 -0.0015683487 -0.0068298536
0001c0 7a 95 a8 3b cd 58 a3 3b 39 20 79 3b 10 c2 04 bb
       0.005144772 0.004984951 0.003801359 -0.0020257272
0001d0 5b 1a 1d b9 11 44 53 ba 78 d1 a4 ba 7f bd a1 3b
       -0.00014982505 -0.0008059154 -0.0012574634 0.00493592
0001e0 2d 84 1a 3b 55 f9 ec ba cd 17 6e 39 6e 13 df 39
       0.0023577318 -0.0018079678 0.00022706315 0.0004254835
0001f0 cc 18 95 3b e7 43 63 3b 30 64 87 3b b9 6b 29 ba
       0.004550075 0.0034677924 0.0041318163 -0.00064628903
000200 3b 97 dc b9 2c c1 61 3b 86 47 7a ba 41 98 e6 3a
       -0.00042074345 0.0034447415 -0.0009547401 0.0017592983
000210 19 12 8c 3b d5 e5 6c b8 bb 39 39 ba b7 9d ac 3b
       0.0042746183 -5.6480832e-05 -0.00070657925 0.0052678245
000220 a9 da 1e 3a ee d6 fd 3a 7c 0b ae 3a ad 26 d0 b9
       0.00060598046 0.0019366422 0.0013278569 -0.00039701667
000230 3c 96 ce b8 51 4d d4 3a d9 e5 5a b9 79 94 9f ba
       -9.850829e-05 0.0016197358 -0.00020875725 -0.0012174986
000240 00 e4 8c bc 67 4f 8c bc d9 62 a5 bc 9f 5b b5 bc
       -0.017198563 -0.017127706 -0.020188736 -0.022138415
000250 13 c0 81 bc 5f de 86 bc d9 ff 85 bc b7 8f 88 bc
       -0.015838658 -0.016463457 -0.01635735 -0.016670091
000260 36 f9 9d bc 1a df 8f bc 56 b4 99 bc fb 3b b5 bc
       -0.019283872 -0.017562438 -0.018762749 -0.022123327
000270 77 60 a1 bc 74 77 87 bc 76 23 b0 bc 55 83 95 bc
       -0.019699318 -0.016536452 -0.021501284 -0.0182511
000280 c3 8d 39 3c be 4a 1c 3c b2 69 5c 3c 3e 65 0b 3c
       0.0113253025 0.009539304 0.013452934 0.008508025
000290 d4 70 68 3c 7e 57 17 3c f5 b8 50 3c f3 0e 4b 3c
       0.014187057 0.009237168 0.01273941 0.012393701
0002a0 3c 63 80 3c 7c 93 20 3c 1e 4f 67 3c 97 7b 7c 3c
       0.015672319 0.009800788 0.014117984 0.0154103255
0002b0 45 df 83 3c e0 f7 6b 3c 63 94 78 3c 85 6e 84 3c
       0.016097674 0.01440236 0.015172097 0.016165981
0002c0 06 b6 e7 3c 58 b7 f1 3c 7a f4 e7 3c 39 63 e9 3c
       0.028285038 0.02950637 0.028314818 0.028489696
0002d0 b4 a7 c3 3c 91 5c e1 3c ef 85 e3 3c 3d fc df 3c
       0.023883678 0.02750996 0.027773825 0.027341956
0002e0 48 29 e1 3c fd fe d8 3c 28 3c b7 3c 01 bd ec 3c
       0.027485505 0.026488775 0.022367552 0.028898718
0002f0 c1 eb b9 3c c5 b5 b7 3c 7b e2 f2 3c 3f f4 ed 3c
       0.022695424 0.022425542 0.02964901 0.02904713
000300 b2 ce 39 3c 55 02 f8 3b 2b 28 4d 3c 75 98 32 3c
       0.011340784 0.0075686374 0.012521784 0.010900606
000310 9c af 34 3c 18 e5 7e 3c c2 1a 35 3c 3c 46 08 3c
       0.011028197 0.01555755 0.011053743 0.008317526
000320 36 3a 68 3c 9a 61 27 3c 10 47 1e 3c 9e 2c 2a 3c
       0.014174035 0.010216141 0.009660497 0.010386614
000330 4c 21 03 3c 30 7e 35 3c 68 ef 0b 3c 55 9e 65 3c
       0.008003544 0.011077449 0.008540966 0.0140148
000340 9e 6f 08 bc f1 9d 5c ba a3 83 9c bb b7 a8 f9 ba
       -0.008327393 -0.0008415869 -0.0047764345 -0.0019047473
000350 32 f3 f1 bb 54 4b 35 bb b4 c4 08 bb 51 87 99 bb
       -0.0073837275 -0.0027663307 -0.0020869197 -0.0046853204
000360 0d 7b 47 bb 39 a7 50 bb 08 08 3d bb df 77 b6 bb
       -0.0030438334 -0.0031837954 -0.0028843898 -0.005568489
000370 f0 9f 45 bb e2 0d 27 bb c5 25 b7 bb 32 0f e3 bb
       -0.0030155145 -0.0025490453 -0.0055892193 -0.0069293017
000380 ae 95 69 bb c3 86 9c 3a 30 ba b0 ba 98 c4 0a 3b
       -0.0035642195 0.0011942018 -0.0013483223 0.0021174308
000390 99 44 dd 36 8b 40 a3 bb cb 2b e8 ba b3 61 e3 39
       6.594299e-06 -0.0049820594 -0.0017713247 0.00043369606
0003a0 bb 88 a7 bb f6 63 67 bb d1 1e 95 bb a6 c3 26 bb
       -0.005112735 -0.0035307384 -0.0045507927 -0.0025446205
0003b0 40 18 0a 3b 9a 59 b3 ba 04 d4 09 3b de 4e c2 ba
       0.0021071583 -0.001368332 0.0021030912 -0.001482453
0003c0 35 d2 00 bc 58 b8 5f bc 1a 21 08 bc b1 1f f5 bb
       -0.007862617 -0.013654791 -0.008308673 -0.0074805846
0003d0 92 10 0c bc 87 3b 30 bc 74 1c 11 bc a8 dd 4a bc
       -0.008548873 -0.01075638 -0.008856881 -0.0123819485
0003e0 44 4e 1c bc a8 5e df bb ac 8c 34 bc 7e d4 53 bc
       -0.009540144 -0.006816704 -0.011019867 -0.01292908
0003f0 55 04 db bb 8b 3f 04 bc 24 7b 2c bc 38 18 de bb
       -0.006683866 -0.00807179 -0.010527406 -0.0067777894

dnn.factors.weight f4 [10354, 16]
000000 ac 78 16 3d 06 2d 0b 3d e2 d4 11 3d 24 95 01 3d
       0.036736175 0.033978485 0.03560341 0.031636372
000010 81 d0 0d 3d 7e d2 19 3d ba aa 17 3d a7 9d 17 3d
       0.034622673 0.037554257 0.037028052 0.037015583
000020 2e cd 05 3d 0c 58 08 3d 3c 21 13 3d 1c 51 16 3d
       0.032666378 0.033287093 0.035920367 0.036698446
000030 42 7a 17 3d 92 61 0c 3d 69 48 1a 3d 9f b7 1b 3d
       0.03698183 0.034272738 0.037666712 0.03801691
000040 34 2a 9a 3b f8 eb 59 3b 8a 5c 12 3c 3f 91 ce 3b
       0.004704738 0.003325222 0.008933196 0.006303936
000050 e2 89 d3 3b 24 cd 20 3b ea db d5 3b fc e7 08 3c
       0.006455646 0.0024536336 0.00652646 0.008356091
000060 54 b6 f2 3b 86 6e 05 3c 98 15 45 3b 84 eb 3f 3b
       0.007406989 0.008144027 0.0030072685 0.0029284665
000070 79 d5 12 3c b5 44 b7 3b 59 6d 39 3b b9 e1 05 3c
       0.008962029 0.0055929073 0.0028293936 0.008171492
000080 17 bf e1 bc e6 d9 d5 bc 7c 23 fb bc 86 ee cf bc
       -0.027556939 -0.026104879 -0.030656569 -0.025382292
000090 a0 8a f8 bc a3 47 e5 bc 4a d4 d1 bc cd 62 f4 bc
       -0.030339539 -0.02798826 -0.025613923 -0.029832268
0000a0 4a bb 0a bd 40 dd 0b bd fd 28 d3 bc e2 d9 e9 bc
       -0.03387002 -0.034146547 -0.02577638 -0.028546277
0000b0 1b 0a 04 bd dd 31 07 bd 16 70 05 bd 15 1d fd bc
       -0.0322362 -0.033006538 -0.032577597 -0.030897656
0000c0 45 c6 97 b8 93 f4 fa 38 dc 22 65 ba a4 b7 d9 ba
       -7.237172e-05 0.000119664845 -0.0008740851 -0.0016610515
0000d0 7a 3b dd 3a e1 3e 2f bb b1 73 92 bb bf ee 0b 3a
       0.0016878687 -0.002674036 -0.004469358 0.0005338005
0000e0 12 a8 9b bb 8c c3 7c bb 81 f8 87 bb f2 59 db ba
       -0.00475026 -0.0038568703 -0.004149497 -0.001673518
0000f0 27 e6 32 bb 93 d3 4f bb 09 cd 0a ba fd 74 e3 3a
       -0.0027297826 -0.0031711801 -0.0005294835 0.0017353591
000100 12 09 26 3b c8 6b a7 ba 2a 1b 29 ba b1 0f c8 3a
       0.0025334996 -0.001277321 -0.0006450886 0.0015263465
000110 d8 79 e9 ba 62 18 8f 3a 36 d6 85 bb 60 1f 05 bb
       -0.0017812802 0.0010917301 -0.004084374 -0.002031289
000120 af 1e ee 3a d9 d5 7c 3a bd 43 5f 3a b0 96 d7 3a
       0.0018167103 0.0009644903 0.00085168687 0.0016448107
000130 88 96 0a 3b 56 6a 81 bb 8c 1c 9a bb 33 ff a0 bb
       0.0021146853 -0.003949444 -0.00470311 -0.0049132346
000140 71 8d 20 3c e2 00 26 3c 7c f0 36 3c ea af 00 3c
       0.009799347 0.010132046 0.011165734 0.007854441
000150 b6 80 08 3c 22 6b 6b 3c 96 db 55 3c 9c 59 73 3c
       0.008331468 0.014368804 0.013052842 0.0148529075
000160 f7 79 08 3c 02 35 05 3c 08 b6 46 3c 52 79 14 3c
       0.00832986 0.008130314 0.012128361 0.009062128
000170 92 02 1b 3c e0 76 60 3c 59 6f 52 3c 5a 6c 1b 3c
       0.009461062 0.013700217 0.01284393 0.009486282
000180 df 11 b7 bb 3c bf cf ba 0a 99 df 39 bd f3 a2 bb
       -0.005586847 -0.0015849839 0.00042647897 -0.0049729035
000190 3d 74 69 3a 72 8a d8 bb 44 2b e2 bb 97 e2 8d bb
       0.00089055655 -0.006608301 -0.0069021303 -0.00432999
0001a0 e4 ae d5 bb cc 8c 5f b9 e2 d0 98 bb b8 8f fb ba
       -0.0065210927 -0.00021319388 -0.0046635726 -0.0019192612
0001b0 f1 a7 9e bb d6 6d 21 bb 0d 91 cd ba f7 cc df bb
       -0.0048417975 -0.0024632118 -0.0015683487 -0.0068298536
0001c0 7a 95 a8 3b cd 58 a3 3b 39 20 79 3b 10 c2 04 bb
       0.005144772 0.004984951 0.003801359 -0.0020257272
0001d0 5b 1a 1d b9 11 44 53 ba 78 d1 a4 ba 7f bd a1 3b
       -0.00014982505 -0.0008059154 -0.0012574634 0.00493592
0001e0 2d 84 1a 3b 55 f9 ec ba cd 17 6e 39 6e 13 df 39
       0.0023577318 -0.0018079678 0.00022706315 0.0004254835
0001f0 cc 18 95 3b e7 43 63 3b 30 64 87 3b b9 6b 29 ba
       0.004550075 0.0034677924 0.0041318163 -0.00064628903
000200 3b 97 dc b9 2c c1 61 3b 86 47 7a ba 41 98 e6 3a
       -0.00042074345 0.0034447415 -0.0009547401 0.0017592983
000210 19 12 8c 3b d5 e5 6c b8 bb 39 39 ba b7 9d ac 3b
       0.0042746183 -5.6480832e-05 -0.00070657925 0.0052678245
000220 a9 da 1e 3a ee d6 fd 3a 7c 0b ae 3a ad 26 d0 b9
       0.00060598046 0.0019366422 0.0013278569 -0.00039701667
000230 3c 96 ce b8 51 4d d4 3a d9 e5 5a b9 79 94 9f ba
       -9.850829e-05 0.0016197358 -0.00020875725 -0.0012174986
000240 00 e4 8c bc 67 4f 8c bc d9 62 a5 bc 9f 5b b5 bc
       -0.017198563 -0.017127706 -0.020188736 -0.022138415
000250 13 c0 81 bc 5f de 86 bc d9 ff 85 bc b7 8f 88 bc
       -0.015838658 -0.016463457 -0.01635735 -0.016670091
000260 36 f9 9d bc 1a df 8f bc 56 b4 99 bc fb 3b b5 bc
       -0.019283872 -0.017562438 -0.018762749 -0.022123327
000270 77 60 a1 bc 74 77 87 bc 76 23 b0 bc 55 83 95 bc
       -0.019699318 -0.016536452 -0.021501284 -0.0182511
000280 c3 8d 39 3c be 4a 1c 3c b2 69 5c 3c 3e 65 0b 3c
       0.0113253025 0.009539304 0.013452934 0.008508025
000290 d4 70 68 3c 7e 57 17 3c f5 b8 50 3c f3 0e 4b 3c
       0.014187057 0.009237168 0.01273941 0.012393701
0002a0 3c 63 80 3c 7c 93 20 3c 1e 4f 67 3c 97 7b 7c 3c
       0.015672319 0.009800788 0.014117984 0.0154103255
0002b0 45 df 83 3c e0 f7 6b 3c 63 94 78 3c 85 6e 84 3c
       0.016097674 0.01440236 0.015172097 0.016165981
0002c0 06 b6 e7 3c 58 b7 f1 3c 7a f4 e7 3c 39 63 e9 3c
       0.028285038 0.02950637 0.028314818 0.028489696
0002d0 b4 a7 c3 3c 91 5c e1 3c ef 85 e3 3c 3d fc df 3c
       0.023883678 0.02750996 0.027773825 0.027341956
0002e0 48 29 e1 3c fd fe d8 3c 28 3c b7 3c 01 bd ec 3c
       0.027485505 0.026488775 0.022367552 0.028898718
0002f0 c1 eb b9 3c c5 b5 b7 3c 7b e2 f2 3c 3f f4 ed 3c
       0.022695424 0.022425542 0.02964901 0.02904713
000300 b2 ce 39 3c 55 02 f8 3b 2b 28 4d 3c 75 98 32 3c
       0.011340784 0.0075686374 0.012521784 0.010900606
000310 9c af 34 3c 18 e5 7e 3c c2 1a 35 3c 3c 46 08 3c
       0.011028197 0.01555755 0.011053743 0.008317526
000320 36 3a 68 3c 9a 61 27 3c 10 47 1e 3c 9e 2c 2a 3c
       0.014174035 0.010216141 0.009660497 0.010386614
000330 4c 21 03 3c 30 7e 35 3c 68 ef 0b 3c 55 9e 65 3c
       0.008003544 0.011077449 0.008540966 0.0140148
000340 9e 6f 08 bc f1 9d 5c ba a3 83 9c bb b7 a8 f9 ba
       -0.008327393 -0.0008415869 -0.0047764345 -0.0019047473
000350 32 f3 f1 bb 54 4b 35 bb b4 c4 08 bb 51 87 99 bb
       -0.0073837275 -0.0027663307 -0.0020869197 -0.0046853204
000360 0d 7b 47 bb 39 a7 50 bb 08 08 3d bb df 77 b6 bb
       -0.0030438334 -0.0031837954 -0.0028843898 -0.005568489
000370 f0 9f 45 bb e2 0d 27 bb c5 25 b7 bb 32 0f e3 bb
       -0.0030155145 -0.0025490453 -0.0055892193 -0.0069293017
000380 ae 95 69 bb c3 86 9c 3a 30 ba b0 ba 98 c4 0a 3b
       -0.0035642195 0.0011942018 -0.0013483223 0.0021174308
000390 99 44 dd 36 8b 40 a3 bb cb 2b e8 ba b3 61 e3 39
       6.594299e-06 -0.0049820594 -0.0017713247 0.00043369606
0003a0 bb 88 a7 bb f6 63 67 bb d1 1e 95 bb a6 c3 26 bb
       -0.005112735 -0.0035307384 -0.0045507927 -0.0025446205
0003b0 40 18 0a 3b 9a 59 b3 ba 04 d4 09 3b de 4e c2 ba
       0.0021071583 -0.001368332 0.0021030912 -0.001482453
0003c0 35 d2 00 bc 58 b8 5f bc 1a 21 08 bc b1 1f f5 bb
       -0.007862617 -0.013654791 -0.008308673 -0.0074805846
0003d0 92 10 0c bc 87 3b 30 bc 74 1c 11 bc a8 dd 4a bc
       -0.008548873 -0.01075638 -0.008856881 -0.0123819485
0003e0 44 4e 1c bc a8 5e df bb ac 8c 34 bc 7e d4 53 bc
       -0.009540144 -0.006816704 -0.011019867 -0.01292908
0003f0 55 04 db bb 8b 3f 04 bc 24 7b 2c bc 38 18 de bb
       -0.006683866 -0.00807179 -0.010527406 -0.0067777894

dnn.mlp.mlp.0.weight f4 [8, 16]
000000 93 3f c5 bc 2a 83 90 3c 22 a4 df 3c 3f 60 7e 3c
       -0.024078166 0.017640669 0.027299944 0.015525877
000010 b4 29 26 bc cf 88 28 3d 6c 61 8b bc ed 7e b3 bc
       -0.010141779 0.041146096 -0.017014228 -0.021911109
000020 d9 f9 34 3c 18 3b 1d 3c 7a 26 17 bd 84 78 dc bc
       0.011045896 0.009596609 -0.03690193 -0.026912935
000030 8a 6c 0b 3b 65 be 64 3a b4 71 f2 3c b6 b4 ef bc
       0.002127441 0.0008725881 0.029595234 -0.029260974
000040 f0 63 67 bc c8 9c fd 39 47 44 26 bc a0 b7 bf bc
       -0.014122948 0.00048372732 -0.0101481145 -0.023402989
000050 60 c0 23 3d 4a d6 58 bc 8f bb 6f 3c 66 b6 d3 bc
       0.039978385 -0.013234684 0.01463212 -0.02584381
000060 a3 a6 d3 bc 7b 87 03 3d f2 9b 0c 3c 0c 67 fc 3b
       -0.025836295 0.032111626 0.008582102 0.007702714
000070 c3 5a 78 bc 21 ce 7b 3c 66 1f 1b 3d cc c2 e6 bb
       -0.015158358 0.015368969 0.03787174 -0.0070422646
000080 43 2f d3 3c 68 d0 dc bc 83 05 11 3c 39 fb 9c bc
       0.025779372 -0.026954845 0.008851412 -0.019162761
000090 c8 7b 5f bc 41 f8 13 bd 36 15 ac ba c5 6c 7f bc
       -0.013640352 -0.036125425 -0.001312888 -0.0155898975
0000a0 17 a5 1d bd 0b 0d 58 bc af be 5a bb 5c 0b 59 bb
       -0.03848752 -0.013186703 -0.0033377816 -0.0033118343
0000b0 55 da b1 3b 12 c5 da 3c 69 d9 39 3c 64 bc 0c bd
       0.0054276385 0.026705299 0.0113433385 -0.03435935
0000c0 b3 35 f7 bc df 55 c4 bc 96 71 89 bc 52 44 c0 3c
       -0.030176973 -0.023966728 -0.016777795 0.023470078
0000d0 19 92 24 bd 83 79 2c 3c 25 1f 8d 3c 45 04 9e bc
       -0.040178392 0.0105270175 0.017226765 -0.019289145
0000e0 8e 4f 18 bd dd dc bd bc 6a bf 20 bd 1e 36 8f bc
       -0.037185244 -0.023176605 -0.039245047 -0.01748186
0000f0 a9 c8 a4 3b 17 5d 25 3a f4 9f e5 3b b3 f9 f5 3c
       0.0050288034 0.0006308122 0.0070075933 0.030026292
000100 1c 92 f9 bb f2 29 2d 3c 93 4e d6 bb b6 ab 19 bc
       -0.0076162945 0.010569083 -0.0065401285 -0.009379318
000110 e6 6a f8 bc c9 ce 82 ba a5 c7 fe bb 4c 0c 40 39
       -0.03032441 -0.000997984 -0.0077752643 0.00018315128
000120 21 5b fd 3b d9 2f 2b 3d b1 f8 dd 3c cd 11 1b bc
       0.0077318107 0.041793678 0.027096124 -0.009464693
000130 03 94 a8 3c 8a 29 93 3b a7 76 9d 3b 1f 0a 25 bd
       0.02057839 0.004491036 0.004805404 -0.040292855
000140 90 84 96 bc 75 b4 10 bc 2c b2 ef bc 63 ee b7 3b
       -0.018373758 -0.008832087 -0.029259764 0.0056131347
000150 c8 6b a7 3c 57 8a da bc c1 c0 12 bd a2 0a ba bc
       0.020437136 -0.026677294 -0.035828356 -0.022710148
000160 70 7e e2 3c 8f 14 0e bc 6a c8 cf 3c ae 12 fd bc
       0.02764818 -0.008671894 0.02536412 -0.030892696
000170 21 d7 33 bc 7c 15 e1 3a 9f ee d7 3c 00 41 2c 3d
       -0.010976584 0.001717254 0.0263589 0.042054176
000180 9b 13 0f bd 36 23 3e 3c c1 ce b2 3c 12 41 82 3b
       -0.034930807 0.011605075 0.021827104 0.003975042
000190 3e b0 9f bc df 2a 26 3d 44 39 ae 3c e8 5a ce 3c
       -0.019493219 0.04056823 0.02126754 0.025189832
0001a0 71 62 ce 3a b6 42 b0 bc e3 a3 96 bc f9 35 9c bc
       0.001574589 -0.021516185 -0.018388694 -0.019068705
0001b0 01 7e 0c bd 0a b1 8b 3b fe 14 68 3c 37 ee 1f bd
       -0.034299854 0.004263048 0.014165161 -0.03904554
0001c0 56 f6 44 3c b3 ee 22 3c 53 c3 80 bb 1b 2b 10 bc
       0.012021622 0.009944606 -0.0039295345 -0.00879934
0001d0 41 12 12 3d c1 e9 71 3c b2 2e a6 bc 50 51 c3 3c
       0.03566194 0.014765204 -0.020285938 0.023842484
0001e0 8d 44 68 3c 56 cf 21 bd c4 94 1d 3d e6 9f 0d 3d
       0.0141765 -0.03950437 0.038471952 0.03457632
0001f0 bf f1 2b 3c d1 68 54 bc dc 70 22 3d a8 1d 16 3d
       0.0104946485 -0.012964443 0.039658412 0.036649376

dnn.mlp.mlp.0.bias f4 [8]
000000 a0 10 8d bc 88 d5 94 bb 8c be ec bc 61 26 da 3c
       -0.017219841 -0.0045420565 -0.028899454 0.026629629
000010 cd 65 28 bd 8f d5 18 bd df 18 8b 3a 9b 09 0b 3d
       -0.04111271 -0.03731304 0.001061227 0.033944707

dnn.mlp.mlp.2.weight f4 [4, 8]
000000 77 68 e8 3a 6b 61 5a 3d bf eb a9 bc 6a 7f 74 3b
       0.0017731328 0.05331556 -0.020742295 0.003730739
000010 72 25 24 bd e9 9b 4b 3d 30 67 db bc cc d8 6f bd
       -0.040074773 0.049709234 -0.026782602 -0.058556363
000020 47 f7 af 3c 44 17 0a 3b 95 29 67 bb 98 7e 50 bc
       0.021480216 0.0021070996 -0.0035272588 -0.012725495
000030 03 ea a8 3c fc 29 33 bd 38 1e c8 bc 6c 42 b7 3c
       0.020619398 -0.04374121 -0.024428472 0.02237054
000040 5e e1 6b 3d 41 86 58 bd 10 0d 67 3d 18 e4 48 3c
       0.057587974 -0.05286241 0.05640894 0.012261413
000050 20 38 42 bd 4f cc 0a bd 78 9e 3e 3d da 94 2e 3d
       -0.047416806 -0.03388625 0.046537846 0.042622425
000060 40 4e 6d bd 5c b6 3f bd 7c e8 6b bd ea 9e 67 bd
       -0.057935953 -0.04680477 -0.05759476 -0.056548037
000070 96 b2 fb bc 02 10 48 3d 19 c7 0e bd 54 9a 2d bd
       -0.030724805 0.04884339 -0.034857843 -0.042383507

dnn.mlp.mlp.2.bias f4 [4]
000000 07 49 80 3c 75 16 3a bb 17 12 29 3d e7 14 3e bd
       0.015659822 -0.0028394733 0.041277017 -0.046406653

dnn.mlp.mlp.4.weight f4 [2, 4]
000000 21 50 3d 3d ee 72 81 3d 0e 7f 92 3d 27 7e 80 bd
       0.046218995 0.06320749 0.0715314 -0.06274062
000010 b2 bb 6e 3c b4 80 fc 3c 26 e0 6b 3c 50 56 97 3c
       0.014571117 0.03082309 0.014396703 0.018473774

dnn.mlp.mlp.4.bias f4 [2]
000000 88 1e 0e 3d ed 48 4a bd
       0.034697086 -0.049385954

dnn.mlp.mlp.6.weight f4 [1, 2]
000000 d6 05 a8 bc 66 a3 ce b9
       -0.020510595 -0.00039413123
