model_deployment1/saved_models/deepfm_model.pth (torch, 709120 bytes, 10 tensors)

weights.weight f4 [1, 10354]
000000 a8 e7 51 3d 88 73 42 3c 7d 60 3c bd b8 ab a4 3c
       0.051246315 0.011868365 -0.045990456 0.020101413
000010 50 d3 2d 3b 6a 58 ee 3c 0b 18 40 bd be 30 7a 3b
       0.0026523657 0.029094893 -0.04689793 0.0038176025
000020 4d 5a 21 bc 04 5d 12 bb cc fe 5e 3c f4 d4 d2 3c
       -0.00984819 -0.0022333274 0.013610553 0.02573631
000030 7a de 28 3c b3 3e 2c 3a c5 47 ec 3b d9 91 90 b9
       0.010306949 0.0006570622 0.007210704 -0.00027574485
000040 c3 36 9f 3c ca 65 3b 3d c7 93 81 be 32 5a 6e 3b
       0.019435292 0.04575137 -0.25308058 0.0036369679
000050 56 aa 56 bb 69 f2 b1 bd 27 3a 9d 3b 86 c0 11 3c
       -0.0032755337 -0.08688814 0.004798192 0.008895999
000060 65 92 d4 3c 21 c4 1e bc 8e 31 0a 3c df ce b2 bd
       0.025948713 -0.009690315 0.008434666 -0.08730864
000070 85 5b b7 3c 27 27 bd 3c cd ae 8c 3c 75 ed 90 3c
       0.022382507 0.023089958 0.017173195 0.017691353
000080 7b 66 e9 3b cd 59 40 bb de 72 aa 3c cd c7 61 bd
       0.0071228123 -0.00293504 0.020806726 -0.055122185
000090 8a e7 75 3c d5 06 4c bc 41 38 8e 3c 1d 69 cf 3c
       0.0150088165 -0.012452801 0.017360808 0.025318677
0000a0 ff 6c ed bc 4c 4b 22 3d 77 56 5f 3d 91 7e f3 3b
       -0.028982637 0.03962259 0.05452582 0.0074308594
0000b0 5a a3 e9 3c 44 c7 b4 3c a0 9e 70 bd 9a 17 6a 3c
       0.028520275 0.022067674 -0.058745027 0.014287854
0000c0 40 5b 87 3c 38 13 21 be 8b ed 11 3d 20 33 23 3d
       0.016523004 -0.15729988 0.03562693 0.03984368
0000d0 9c 9d 21 3d e8 e9 a9 bc 25 eb 7e bc 5b 20 a5 3c
       0.03945695 -0.020741418 -0.0155589925 0.02015703
0000e0 1e 02 59 bd 21 17 c4 3c 69 38 1c 3d 39 6f 04 39
       -0.052980535 0.02393681 0.038139734 0.00012629935
0000f0 2c 98 73 3c 21 fb 82 3d d2 91 86 bb 6c a6 21 3d
       0.014867824 0.06395555 -0.0041067386 0.039465353
000100 08 ee 34 3c ff f5 32 3d 97 1f 21 3c 51 33 61 3c
       0.011043079 0.04369163 0.009834192 0.013745145
000110 44 d1 d5 3c 9e f4 fe 3c b3 75 f8 3b 4c a3 94 3c
       0.026100762 0.031122502 0.00758239 0.018144272
000120 a5 91 aa 3c be 62 33 3d 68 57 e8 bc 78 29 55 bd
       0.020821402 0.04379534 -0.028361991 -0.0520415
000130 42 ba ae 3a f3 bf de bb fd 6c c7 3c 4c e7 16 3d
       0.0013330656 -0.0067977845 0.024343962 0.036841676
000140 6a d0 b9 bc af 8f d2 3b f5 d1 9b bc a4 8b 65 3c
       -0.022682387 0.00642582 -0.019021014 0.014010344
000150 6b d3 45 3c 93 ef 87 3c 3d b4 ee 3b 60 86 b6 3b
       0.012074332 0.01659373 0.0072846697 0.005570218
000160 a9 bb e6 3d 38 9e be 3c 1c f4 e6 bc 77 8b 93 3c
       0.11266262 0.023268804 -0.028192572 0.018010838
000170 09 87 2b 3d a0 7f ce bc 59 56 75 3c 3e 7f 12 3c
       0.041876826 -0.02520734 0.0149742 0.00894147
000180 9e 92 d6 3c 41 f3 86 3c e6 5c 94 3c 91 70 1c 3d
       0.02619296 0.016473414 0.018110704 0.03819329
000190 ca 50 96 3b 12 77 3a bc 10 49 8e 3d 4f a8 b7 3c
       0.0045872675 -0.011380928 0.06947529 0.022419123
0001a0 c0 dd f3 3d a9 4b 0e 3d 4d 6c d1 3c c3 bc 87 3c
       0.1190753 0.034740124 0.025564337 0.0165695
0001b0 34 3a 45 bc e0 74 15 3b f8 43 47 3d 15 de 88 bb
       -0.0120378025 0.0022805259 0.048648804 -0.004176865
0001c0 a2 4f b4 ba 6d e6 20 bc fb ca ac 3c 49 74 03 3c
       -0.0013756643 -0.009820563 0.021092882 0.00802333
0001d0 db 51 92 bc 6e 4b 1e 3c d4 ee 2b 3d dc d8 15 ba
       -0.017861297 0.0096615385 0.04197581 -0.00057162135
0001e0 b9 83 34 bc e2 d9 4a 3d 69 a3 81 3c d8 52 59 3c
       -0.011017733 0.049524195 0.01582499 0.01326438
0001f0 8d 76 4d 3d 8c bf 73 bc e0 59 62 bc 4b 97 81 3c
       0.050161887 -0.014877211 -0.013815373 0.015819212
000200 ba e5 ef 3c f4 dc 6a 3b af 82 7e bc 96 42 97 bd
       0.029284347 0.0035837265 -0.015534087 -0.07385747
000210 5f f9 b4 bc 6f 39 5d 3b 31 b9 1f 3b a7 3b db bb
       -0.022091566 0.0033756157 0.0024371857 -0.0066904607
000220 e5 96 cc 3c 0c de 82 bb 78 88 6c be 7e 21 5a 3c
       0.024974296 -0.003993755 -0.23098934 0.013313649
000230 e9 e5 b9 3b bc ca 38 3c a2 5c b8 3c b2 75 70 3c
       0.0056731594 0.011278804 0.022505108 0.014676498
000240 67 a9 1e bc e6 72 87 bc 47 60 28 3a 89 6f 11 39
       -0.009683943 -0.01653428 0.0006423038 0.00013869828
000250 c4 18 2e bd 96 86 82 3b d9 77 4d 3c fc a4 6c 3c
       -0.042504087 0.003983329 0.012540781 0.014443632
000260 03 12 80 be a5 3d df 3c 31 2b 88 3c 32 88 23 3d
       -0.25013742 0.027251074 0.016622158 0.039924808
000270 b5 44 7e bb af 33 88 3b c6 c3 f3 bb d8 cb 2a be
       -0.0038798277 0.004156552 -0.0074391095 -0.16679323
000280 98 24 07 3c b0 57 fc 3c 2c 71 3e bc f6 45 ce 3c
       0.008248471 0.030803531 -0.011623662 0.025179844
000290 b9 f7 8c 3b 5d a1 9a 3c c5 dc c5 3b bc 3e 1b 3d
       0.004301992 0.018875772 0.0060382807 0.037901625
0002a0 46 64 6c 3d 5e 04 7a bb f3 82 1b 3d a7 73 2e 3c
       0.057712816 -0.0038149576 0.03796668 0.010647691
0002b0 9c 06 70 ba f9 2b 7a 3c c9 00 2d bb 6c db c0 3c
       -0.00091562583 0.015269273 -0.0026398173 0.023542129
0002c0 b5 f7 68 bc db 27 3a 3c a7 cf 85 3c ac aa fb bb
       -0.014219214 0.011362041 0.016334368 -0.007680258
0002d0 10 48 36 bd fb d5 a9 3c 49 4a 12 3b 97 04 86 3c
       -0.044502318 0.020731917 0.002232211 0.01635961
0002e0 fd ff fd 3a 13 0d 3d 3d dc aa 2c 3d 8b 06 02 3d
       0.0019378659 0.046155047 0.04215513 0.03174452
0002f0 00 6a 93 3b f8 9e 76 3c 61 55 b6 3b 96 71 63 3c
       0.00449872 0.01505255 0.005564377 0.0138820615
000300 78 f0 8b 3b 78 cd b2 b9 ce 53 ed bb 8a e6 19 3c
       0.0042706095 -0.00034103892 -0.0072426563 0.009393344
000310 d5 9d 1d 3c f8 c6 7a 3b c8 f7 71 bd 08 b4 6e 3d
       0.00962015 0.0038265567 -0.059074193 0.05827716
000320 f3 ec 93 3c 4c c7 b5 3c b2 65 60 3c b0 22 7a 3c
       0.018057322 0.022189759 0.013696121 0.015267059
000330 35 1e cd 3b bc 14 8e 3c 7e 56 27 bc 59 41 a8 3b
       0.0062597045 0.017343871 -0.010213492 0.005134743
000340 73 ef 32 3c 2b 98 05 3d 67 25 85 3c 62 87 b9 3c
       0.010921347 0.03261582 0.016253186 0.022647563
000350 b6 55 c3 3c 89 ba 8b bc 8a 8f 8a 3c b8 cd d5 3c
       0.023844581 -0.01705672 0.016914148 0.02609907
000360 20 0a 1e be f9 c5 65 bc a8 3a c5 bd 99 6b 9b 3c
       -0.1543355 -0.014024251 -0.096303284 0.018972205
000370 07 e0 6f 3d e5 cd 0a bd 13 f4 bc bc bb 91 af 3c
       0.05856326 -0.033887763 -0.023065602 0.021431794
000380 c7 ee 45 3c 53 47 3f 3b 58 54 cc 3c 3c 79 4b 3b
       0.012080855 0.00291868 0.024942562 0.0031047603
000390 b2 77 59 3c 22 bd 10 bd ce f7 e2 3a 04 39 fd bb
       0.0132731665 -0.03533662 0.0017316283 -0.007727744
0003a0 39 4e 0c bd f3 d5 98 bb 91 95 d8 3b 35 df 28 3b
       -0.034254286 -0.0046641766 0.0066096266 0.0025767807
0003b0 12 72 1b bc 1d ff 5d 3c af 9e ba 3c 36 6c 32 3d
       -0.009487646 0.013549593 0.022780744 0.04356023
0003c0 88 0d c5 3c 7d d8 8d 3b 8d e1 03 3d 1e bc ac 3c
       0.024054304 0.004328786 0.032197524 0.021085795
0003d0 c0 77 9c bc 19 ef 26 3d 1f b8 9e 3b 99 0e 0f 3c
       -0.01910007 0.040755365 0.0048437263 0.008731508
0003e0 75 57 84 3d 9e 5d 97 3c cb 7c 89 3c 3e c0 a4 3c
       0.064619936 0.018477257 0.016783139 0.0201112
0003f0 2d fa d2 3c 3c 40 82 3c 7c 46 41 bd 03 65 38 3d
       0.025754059 0.01589977 -0.04718636 0.045018207

factors.weight f4 [10354, 16]
000000 5c 94 16 3d 4f 4b 0b 3d 86 f0 11 3d 0b b6 01 3d
       0.03676258 0.034007367 0.03562977 0.03166775
000010 a9 ee 0d 3d 78 eb 19 3d 3a c4 17 3d d2 b7 17 3d
       0.034651432 0.037578076 0.03705237 0.03704054
000020 77 ed 05 3d a0 77 08 3d e6 3d 13 3d 58 6c 16 3d
       0.032697167 0.03331721 0.035947703 0.03672442
000030 50 95 17 3d 35 7f 0c 3d c6 61 1a 3d 4d d1 1b 3d
       0.03700763 0.034301 0.0376909 0.0380414
000040 95 ba 9a 3b 2e 06 5b 3b df a9 12 3c 83 25 cf 3b
       0.0047219493 0.0033420431 0.008951633 0.0063216104
000050 76 1e d4 3b 52 e3 21 3b e0 70 d6 3b bb 34 09 3c
       0.006473358 0.0024702144 0.0065442175 0.008374388
000060 2e 4d f3 3b d6 ba 05 3c 30 2e 46 3b 8d 03 41 3b
       0.007424972 0.008162221 0.0030239932 0.002945158
000070 cc 22 13 3c 49 d7 b7 3b 5b 85 3a 3b 2c 2e 06 3c
       0.008980464 0.005610381 0.0028460834 0.008189719
000080 3a e3 e4 bc 92 ff d8 bc b8 44 fe bc e0 14 d3 bc
       -0.027940381 -0.026489053 -0.031038627 -0.02576679
000090 ef ab fb bc 50 6b e8 bc 59 fa d4 bc 93 84 f7 bc
       -0.030721633 -0.028371483 -0.025998281 -0.030214584
0000a0 50 4a 0c bd 19 6c 0d bd ff 4e d6 bc fb fc ec bc
       -0.034250557 -0.034526918 -0.026160715 -0.028929224
0000b0 ea 99 05 bd 3f c1 08 bd 79 ff 06 bd e7 1e 00 bd
       -0.032617487 -0.03338742 -0.03295848 -0.03127947
0000c0 72 ac 79 b8 58 4c 0a 39 a0 1a 62 ba 19 37 d8 ba
       -5.952683e-05 0.00013189146 -0.0008625183 -0.0016495913
0000d0 1e 00 df 3a 7b 90 2e bb a0 21 92 bb 4c 21 0f 3a
       0.0017013585 -0.002663641 -0.004459575 0.0005459979
0000e0 87 54 9b bb 89 0e 7c bb ba 9f 87 bb 3f cc d9 ba
       -0.004740301 -0.0038460812 -0.004138914 -0.0016616656
0000f0 15 24 32 bb 48 20 4f bb 56 b0 07 ba 4d 43 e5 3a
       -0.002718215 -0.0031604934 -0.00051761174 0.0017491371
000100 ac 79 28 3b 14 8f a2 ba a8 59 1f ba de f3 cc 3a
       0.0025707288 -0.001240226 -0.00060787285 0.0015636643
000110 2d a4 e4 ba 86 01 94 3a d3 a0 84 bb 0c b1 02 bb
       -0.0017443948 0.0011291958 -0.004047492 -0.0019941954
000120 03 04 f3 3a 85 49 83 3a c1 ff 68 3a 5b 77 dc 3a
       0.0018540624 0.0010016417 0.0008888208 0.0016820239
000130 c0 06 0d 3b a0 35 80 bb 26 e8 98 bb 4d cd 9f bb
       0.0021518916 -0.0039126426 -0.004666346 -0.0048767687
000140 c6 bb 20 3c c1 2d 26 3c ec 1a 37 3c 86 e2 00 3c
       0.009810394 0.0101427445 0.011175852 0.007866507
000150 53 b2 08 3c 15 8d 6b 3c 38 01 56 3c 0a 7b 73 3c
       0.008343297 0.014376898 0.013061814 0.014860878
000160 7b ab 08 3c 5d 67 05 3c 52 de 46 3c 19 a9 14 3c
       0.008341665 0.0081423195 0.012137966 0.009073519
000170 8f 31 1b 3c 51 9b 60 3c 39 95 52 3c c6 9a 1b 3c
       0.009472265 0.013708905 0.01285296 0.00949735
000180 39 99 b9 bb f6 b0 da ba fc 41 b2 39 7e 86 a5 bb
       -0.0056640175 -0.0016684819 0.00033999968 -0.005051433
000190 30 be 52 3a 64 0d db bb 85 a9 e4 bb 50 7f 90 bb
       0.00080392044 -0.006684946 -0.006978216 -0.004409708
0001a0 ba 2e d8 bb 1e 53 9c b9 24 65 9b bb 25 32 03 bb
       -0.006597367 -0.00029816566 -0.0047422815 -0.0020018902
0001b0 e3 37 a1 bb 18 d0 26 bb 7b 86 d8 ba 68 45 e2 bb
       -0.0049199923 -0.0025453623 -0.001651957 -0.0069052465
0001c0 f9 39 ab 3b fb fd a5 3b 15 62 7e 3b 96 58 ff ba
       0.0052254167 0.005065677 0.0038815786 -0.0019481357
0001d0 7e da 95 b8 f8 bd 3e ba 8c 98 9a ba 1b 63 a4 3b
       -7.145571e-05 -0.00072762324 -0.001179473 0.005016697
0001e0 7f ba 1f 3b b7 ce e2 ba d1 39 a0 39 4d 27 04 3a
       0.0024372635 -0.0017304037 0.00030560655 0.00050412567
0001f0 1b bb 97 3b 2e 82 68 3b 89 06 8a 3b 8c f2 14 ba
       0.004630459 0.0035477984 0.004212205 -0.0005681894
000200 db 40 e6 b9 b5 74 60 3b 58 21 7f ba fc 10 e4 3a
       -0.0004391734 0.003424925 -0.00097324466 0.0017400081
000210 bf 6a 8b 3b ee 0e 9e b8 79 1a 3e ba f7 f1 ab 3b
       0.0042546685 -7.536808e-05 -0.00072518695 0.0052473503
000220 39 e6 19 3a a0 52 fb 3a ad 8c ab 3a 52 dc d9 b9
       0.00058707927 0.0019174404 0.0013088189 -0.00041553617
000230 98 7e f5 b8 e2 c7 d1 3a 6a 8a 6e b9 8c f7 a1 ba
       -0.0001170609 0.0016005004 -0.00022749012 -0.00123571
000240 23 24 8d bc a6 8f 8c bc 7a 9d a5 bc 7d 92 b5 bc
       -0.017229145 -0.01715834 -0.020216692 -0.022164578
000250 93 02 82 bc d2 1f 87 bc 98 41 86 bc ea d0 88 bc
       -0.015870368 -0.016494665 -0.0163887 -0.01670118
000260 9f 35 9e bc 6b 1e 90 bc 80 f1 99 bc dd 72 b5 bc
       -0.019312678 -0.01759263 -0.018791914 -0.022149498
000270 d1 9b a1 bc c6 b8 87 bc be 5b b0 bc 56 c1 95 bc
       -0.01972762 -0.016567599 -0.021528121 -0.018280666
000280 d7 f6 39 3c 46 b0 1c 3c cf cf 5c 3c 2e cb 0b 3c
       0.011350355 0.009563511 0.01347728 0.0085323285
000290 b5 d9 68 3c 09 bb 17 3c e3 1e 51 3c 74 74 4b 3c
       0.014212062 0.009260901 0.012763712 0.012417901
0002a0 3d 97 80 3c 6b fb 20 3c 0c b8 67 3c 0e e5 7c 3c
       0.015697116 0.009825568 0.014143001 0.01543547
0002b0 63 14 84 3c 2f 5f 6c 3c 33 fb 78 3c dd a3 84 3c
       0.016123002 0.01442699 0.015196609 0.016191417
0002c0 67 2a e8 3c 60 2c f2 3c cb 68 e8 3c e3 d7 e9 3c
       0.028340532 0.029562175 0.028370282 0.028545326
0002d0 4c 19 c4 3c 78 d0 e1 3c 07 fa e3 3c 09 70 e0 3c
       0.023937844 0.027565226 0.027829183 0.027397173
0002e0 0f 9d e1 3c 3e 72 d9 3c d0 ac b7 3c bb 31 ed 3c
       0.027540712 0.026543733 0.02242127 0.028954377
0002f0 8d 5c ba 3c 82 26 b8 3c ce 57 f3 3c 2b 69 ee 3c
       0.02274921 0.0224793 0.029704954 0.029102882
000300 10 0f 39 3c eb 8b f6 3b d5 66 4c 3c 18 d9 31 3c
       0.011295095 0.0075240037 0.012475689 0.010854982
000310 41 f0 33 3c 92 1f 7e 3c 2f 5b 34 3c e9 89 07 3c
       0.010982574 0.015510457 0.011008068 0.008272626
000320 c5 76 67 3c 59 a3 26 3c 7a 89 1d 3c 10 6e 29 3c
       0.014127438 0.010170781 0.0096152965 0.010341182
000330 e7 65 02 3c ae be 34 3c ed 32 0b 3c 54 db 64 3c
       0.007958866 0.01103179 0.008496028 0.0139683075
000340 fa ec 08 bc a0 a8 64 ba 70 83 9d bb df a9 fd ba
       -0.008357281 -0.0008722637 -0.0048069283 -0.0019352994
000350 7e ef f2 bb 7d 4f 37 bb 34 c7 0a bb ac 87 9a bb
       -0.0074138036 -0.0027970963 -0.0021175863 -0.0047158804
000360 69 7a 49 bb fb a3 52 bb 3d 05 3f bb df 74 b7 bb
       -0.0030743128 -0.0032141197 -0.002914741 -0.005598649
000370 e8 9a 47 bb 06 0e 29 bb e3 24 b8 bb 25 0a e4 bb
       -0.0030457322 -0.0025795712 -0.0056196316 -0.006959217
000380 61 f8 67 bb ce 89 9f 3a 50 a2 ad ba ee 41 0c 3b
       -0.0035395848 0.0012171806 -0.0013247225 0.0021401602
000390 cc b3 fc 37 1c 74 a2 bb eb 11 e5 ba 8e 7a ef 39
       3.0124465e-05 -0.004957689 -0.0017476653 0.00045676943
0003a0 cc b8 a6 bb e2 c7 65 bb 09 4f 94 bb be 2d 25 bb
       -0.0050879475 -0.0035061766 -0.0045260233 -0.0025204266
0003b0 db 9a 0b 3b 53 3d b0 ba 25 50 0b 3b e3 29 bf ba
       0.0021302018 -0.001344601 0.0021257487 -0.0014584627
0003c0 0b 72 00 bc 4c 5c 5f bc 7e c1 07 bc 3a 5f f4 bb
       -0.00783969 -0.013632845 -0.008285878 -0.007457641
0003d0 39 b1 0b bc b6 dd 2f bc 41 bd 10 bc cd 80 4a bc
       -0.00852614 -0.010734012 -0.008834184 -0.01235981
0003e0 87 ef 1b bc 31 9d de bb ae 2e 34 bc fe 77 53 bc
       -0.009517557 -0.006793641 -0.010997457 -0.012907026
0003f0 a8 42 da bb a5 df 03 bc 05 1d 2c bc 70 56 dd bb
       -0.006660778 -0.0080489265 -0.010504966 -0.006754689

dnn.factors.weight f4 [10354, 16]
000000 5c 94 16 3d 4f 4b 0b 3d 86 f0 11 3d 0b b6 01 3d
       0.03676258 0.034007367 0.03562977 0.03166775
000010 a9 ee 0d 3d 78 eb 19 3d 3a c4 17 3d d2 b7 17 3d
       0.034651432 0.037578076 0.03705237 0.03704054
000020 77 ed 05 3d a0 77 08 3d e6 3d 13 3d 58 6c 16 3d
       0.032697167 0.03331721 0.035947703 0.03672442
000030 50 95 17 3d 35 7f 0c 3d c6 61 1a 3d 4d d1 1b 3d
       0.03700763 0.034301 0.0376909 0.0380414
000040 95 ba 9a 3b 2e 06 5b 3b df a9 12 3c 83 25 cf 3b
       0.0047219493 0.0033420431 0.008951633 0.0063216104
000050 76 1e d4 3b 52 e3 21 3b e0 70 d6 3b bb 34 09 3c
       0.006473358 0.0024702144 0.0065442175 0.008374388
000060 2e 4d f3 3b d6 ba 05 3c 30 2e 46 3b 8d 03 41 3b
       0.007424972 0.008162221 0.0030239932 0.002945158
000070 cc 22 13 3c 49 d7 b7 3b 5b 85 3a 3b 2c 2e 06 3c
       0.008980464 0.005610381 0.0028460834 0.008189719
000080 3a e3 e4 bc 92 ff d8 bc b8 44 fe bc e0 14 d3 bc
       -0.027940381 -0.026489053 -0.031038627 -0.02576679
000090 ef ab fb bc 50 6b e8 bc 59 fa d4 bc 93 84 f7 bc
       -0.030721633 -0.028371483 -0.025998281 -0.030214584
0000a0 50 4a 0c bd 19 6c 0d bd ff 4e d6 bc fb fc ec bc
       -0.034250557 -0.034526918 -0.026160715 -0.028929224
0000b0 ea 99 05 bd 3f c1 08 bd 79 ff 06 bd e7 1e 00 bd
       -0.032617487 -0.03338742 -0.03295848 -0.03127947
0000c0 72 ac 79 b8 58 4c 0a 39 a0 1a 62 ba 19 37 d8 ba
       -5.952683e-05 0.00013189146 -0.0008625183 -0.0016495913
0000d0 1e 00 df 3a 7b 90 2e bb a0 21 92 bb 4c 21 0f 3a
       0.0017013585 -0.002663641 -0.004459575 0.0005459979
0000e0 87 54 9b bb 89 0e 7c bb ba 9f 87 bb 3f cc d9 ba
       -0.004740301 -0.0038460812 -0.004138914 -0.0016616656
0000f0 15 24 32 bb 48 20 4f bb 56 b0 07 ba 4d 43 e5 3a
       -0.002718215 -0.0031604934 -0.00051761174 0.0017491371
000100 ac 79 28 3b 14 8f a2 ba a8 59 1f ba de f3 cc 3a
       0.0025707288 -0.001240226 -0.00060787285 0.0015636643
000110 2d a4 e4 ba 86 01 94 3a d3 a0 84 bb 0c b1 02 bb
       -0.0017443948 0.0011291958 -0.004047492 -0.0019941954
000120 03 04 f3 3a 85 49 83 3a c1 ff 68 3a 5b 77 dc 3a
       0.0018540624 0.0010016417 0.0008888208 0.0016820239
000130 c0 06 0d 3b a0 35 80 bb 26 e8 98 bb 4d cd 9f bb
       0.0021518916 -0.0039126426 -0.004666346 -0.0048767687
000140 c6 bb 20 3c c1 2d 26 3c ec 1a 37 3c 86 e2 00 3c
       0.009810394 0.0101427445 0.011175852 0.007866507
000150 53 b2 08 3c 15 8d 6b 3c 38 01 56 3c 0a 7b 73 3c
       0.008343297 0.014376898 0.013061814 0.014860878
000160 7b ab 08 3c 5d 67 05 3c 52 de 46 3c 19 a9 14 3c
       0.008341665 0.0081423195 0.012137966 0.009073519
000170 8f 31 1b 3c 51 9b 60 3c 39 95 52 3c c6 9a 1b 3c
       0.009472265 0.013708905 0.01285296 0.00949735
000180 39 99 b9 bb f6 b0 da ba fc 41 b2 39 7e 86 a5 bb
       -0.0056640175 -0.0016684819 0.00033999968 -0.005051433
000190 30 be 52 3a 64 0d db bb 85 a9 e4 bb 50 7f 90 bb
       0.00080392044 -0.006684946 -0.006978216 -0.004409708
0001a0 ba 2e d8 bb 1e 53 9c b9 24 65 9b bb 25 32 03 bb
       -0.006597367 -0.00029816566 -0.0047422815 -0.0020018902
0001b0 e3 37 a1 bb 18 d0 26 bb 7b 86 d8 ba 68 45 e2 bb
       -0.0049199923 -0.0025453623 -0.001651957 -0.0069052465
0001c0 f9 39 ab 3b fb fd a5 3b 15 62 7e 3b 96 58 ff ba
       0.0052254167 0.005065677 0.0038815786 -0.0019481357
0001d0 7e da 95 b8 f8 bd 3e ba 8c 98 9a ba 1b 63 a4 3b
       -7.145571e-05 -0.00072762324 -0.001179473 0.005016697
0001e0 7f ba 1f 3b b7 ce e2 ba d1 39 a0 39 4d 27 04 3a
       0.0024372635 -0.0017304037 0.00030560655 0.00050412567
0001f0 1b bb 97 3b 2e 82 68 3b 89 06 8a 3b 8c f2 14 ba
       0.004630459 0.0035477984 0.004212205 -0.0005681894
000200 db 40 e6 b9 b5 74 60 3b 58 21 7f ba fc 10 e4 3a
       -0.0004391734 0.003424925 -0.00097324466 0.0017400081
000210 bf 6a 8b 3b ee 0e 9e b8 79 1a 3e ba f7 f1 ab 3b
       0.0042546685 -7.536808e-05 -0.00072518695 0.0052473503
000220 39 e6 19 3a a0 52 fb 3a ad 8c ab 3a 52 dc d9 b9
       0.00058707927 0.0019174404 0.0013088189 -0.00041553617
000230 98 7e f5 b8 e2 c7 d1 3a 6a 8a 6e b9 8c f7 a1 ba
       -0.0001170609 0.0016005004 -0.00022749012 -0.00123571
000240 23 24 8d bc a6 8f 8c bc 7a 9d a5 bc 7d 92 b5 bc
       -0.017229145 -0.01715834 -0.020216692 -0.022164578
000250 93 02 82 bc d2 1f 87 bc 98 41 86 bc ea d0 88 bc
       -0.015870368 -0.016494665 -0.0163887 -0.01670118
000260 9f 35 9e bc 6b 1e 90 bc 80 f1 99 bc dd 72 b5 bc
       -0.019312678 -0.01759263 -0.018791914 -0.022149498
000270 d1 9b a1 bc c6 b8 87 bc be 5b b0 bc 56 c1 95 bc
       -0.01972762 -0.016567599 -0.021528121 -0.018280666
000280 d7 f6 39 3c 46 b0 1c 3c cf cf 5c 3c 2e cb 0b 3c
       0.011350355 0.009563511 0.01347728 0.0085323285
000290 b5 d9 68 3c 09 bb 17 3c e3 1e 51 3c 74 74 4b 3c
       0.014212062 0.009260901 0.012763712 0.012417901
0002a0 3d 97 80 3c 6b fb 20 3c 0c b8 67 3c 0e e5 7c 3c
       0.015697116 0.009825568 0.014143001 0.01543547
0002b0 63 14 84 3c 2f 5f 6c 3c 33 fb 78 3c dd a3 84 3c
       0.016123002 0.01442699 0.015196609 0.016191417
0002c0 67 2a e8 3c 60 2c f2 3c cb 68 e8 3c e3 d7 e9 3c
       0.028340532 0.029562175 0.028370282 0.028545326
0002d0 4c 19 c4 3c 78 d0 e1 3c 07 fa e3 3c 09 70 e0 3c
       0.023937844 0.027565226 0.027829183 0.027397173
0002e0 0f 9d e1 3c 3e 72 d9 3c d0 ac b7 3c bb 31 ed 3c
       0.027540712 0.026543733 0.02242127 0.028954377
0002f0 8d 5c ba 3c 82 26 b8 3c ce 57 f3 3c 2b 69 ee 3c
       0.02274921 0.0224793 0.029704954 0.029102882
000300 10 0f 39 3c eb 8b f6 3b d5 66 4c 3c 18 d9 31 3c
       0.011295095 0.0075240037 0.012475689 0.010854982
000310 41 f0 33 3c 92 1f 7e 3c 2f 5b 34 3c e9 89 07 3c
       0.010982574 0.015510457 0.011008068 0.008272626
000320 c5 76 67 3c 59 a3 26 3c 7a 89 1d 3c 10 6e 29 3c
       0.014127438 0.010170781 0.0096152965 0.010341182
000330 e7 65 02 3c ae be 34 3c ed 32 0b 3c 54 db 64 3c
       0.007958866 0.01103179 0.008496028 0.0139683075
000340 fa ec 08 bc a0 a8 64 ba 70 83 9d bb df a9 fd ba
       -0.008357281 -0.0008722637 -0.0048069283 -0.0019352994
000350 7e ef f2 bb 7d 4f 37 bb 34 c7 0a bb ac 87 9a bb
       -0.0074138036 -0.0027970963 -0.0021175863 -0.0047158804
000360 69 7a 49 bb fb a3 52 bb 3d 05 3f bb df 74 b7 bb
       -0.0030743128 -0.0032141197 -0.002914741 -0.005598649
000370 e8 9a 47 bb 06 0e 29 bb e3 24 b8 bb 25 0a e4 bb
       -0.0030457322 -0.0025795712 -0.0056196316 -0.006959217
000380 61 f8 67 bb ce 89 9f 3a 50 a2 ad ba ee 41 0c 3b
       -0.0035395848 0.0012171806 -0.0013247225 0.0021401602
000390 cc b3 fc 37 1c 74 a2 bb eb 11 e5 ba 8e 7a ef 39
       3.0124465e-05 -0.004957689 -0.0017476653 0.00045676943
0003a0 cc b8 a6 bb e2 c7 65 bb 09 4f 94 bb be 2d 25 bb
       -0.0050879475 -0.0035061766 -0.0045260233 -0.0025204266
0003b0 db 9a 0b 3b 53 3d b0 ba 25 50 0b 3b e3 29 bf ba
       0.0021302018 -0.001344601 0.0021257487 -0.0014584627
0003c0 0b 72 00 bc 4c 5c 5f bc 7e c1 07 bc 3a 5f f4 bb
       -0.00783969 -0.013632845 -0.008285878 -0.007457641
0003d0 39 b1 0b bc b6 dd 2f bc 41 bd 10 bc cd 80 4a bc
       -0.00852614 -0.010734012 -0.008834184 -0.01235981
0003e0 87 ef 1b bc 31 9d de bb ae 2e 34 bc fe 77 53 bc
       -0.009517557 -0.006793641 -0.010997457 -0.012907026
0003f0 a8 42 da bb a5 df 03 bc 05 1d 2c bc 70 56 dd bb
       -0.006660778 -0.0080489265 -0.010504966 -0.006754689

dnn.mlp.mlp.0.weight f4 [8, 16]
000000 93 3f c5 bc 2a 83 90 3c 22 a4 df 3c 3f 60 7e 3c
       -0.024078166 0.017640669 0.027299944 0.015525877
000010 b4 29 26 bc cf 88 28 3d 6c 61 8b bc ed 7e b3 bc
       -0.010141779 0.041146096 -0.017014228 -0.021911109
000020 d9 f9 34 3c 18 3b 1d 3c 7a 26 17 bd 84 78 dc bc
       0.011045896 0.009596609 -0.03690193 -0.026912935
000030 8a 6c 0b 3b 65 be 64 3a b4 71 f2 3c b6 b4 ef bc
       0.002127441 0.0008725881 0.029595234 -0.029260974
000040 f0 63 67 bc c8 9c fd 39 47 44 26 bc a0 b7 bf bc
       -0.014122948 0.00048372732 -0.0101481145 -0.023402989
000050 60 c0 23 3d 4a d6 58 bc 8f bb 6f 3c 66 b6 d3 bc
       0.039978385 -0.013234684 0.01463212 -0.02584381
000060 a3 a6 d3 bc 7b 87 03 3d f2 9b 0c 3c 0c 67 fc 3b
       -0.025836295 0.032111626 0.008582102 0.007702714
000070 c3 5a 78 bc 21 ce 7b 3c 66 1f 1b 3d cc c2 e6 bb
       -0.015158358 0.015368969 0.03787174 -0.0070422646
000080 43 2f d3 3c 68 d0 dc bc 83 05 11 3c 39 fb 9c bc
       0.025779372 -0.026954845 0.008851412 -0.019162761
000090 c8 7b 5f bc 41 f8 13 bd 36 15 ac ba c5 6c 7f bc
       -0.013640352 -0.036125425 -0.001312888 -0.0155898975
0000a0 17 a5 1d bd 0b 0d 58 bc af be 5a bb 5c 0b 59 bb
       -0.03848752 -0.013186703 -0.0033377816 -0.0033118343
0000b0 55 da b1 3b 12 c5 da 3c 69 d9 39 3c 64 bc 0c bd
       0.0054276385 0.026705299 0.0113433385 -0.03435935
0000c0 0a 49 f7 bc 12 33 c4 bc 56 75 89 bc 71 45 c0 3c
       -0.030186195 -0.023950133 -0.016779583 0.023470612
0000d0 8c 94 24 bd ed 87 2c 3c 66 24 8d 3c 19 0e 9e bc
       -0.040180728 0.010530454 0.01722927 -0.019293832
0000e0 76 51 18 bd 15 ed bd bc 62 c4 20 bd 2f 2a 8f bc
       -0.037187062 -0.023184339 -0.039249785 -0.01747617
0000f0 eb da a4 3b 7c db 21 3a c2 95 e5 3b e6 f8 f5 3c
       0.00503098 0.00061743683 0.007006378 0.03002591
000100 1c 92 f9 bb f2 29 2d 3c 93 4e d6 bb b6 ab 19 bc
       -0.0076162945 0.010569083 -0.0065401285 -0.009379318
000110 e6 6a f8 bc c9 ce 82 ba a5 c7 fe bb 4c 0c 40 39
       -0.03032441 -0.000997984 -0.0077752643 0.00018315128
000120 21 5b fd 3b d9 2f 2b 3d b1 f8 dd 3c cd 11 1b bc
       0.0077318107 0.041793678 0.027096124 -0.009464693
000130 03 94 a8 3c 8a 29 93 3b a7 76 9d 3b 1f 0a 25 bd
       0.02057839 0.004491036 0.004805404 -0.040292855
000140 90 84 96 bc 75 b4 10 bc 2c b2 ef bc 63 ee b7 3b
       -0.018373758 -0.008832087 -0.029259764 0.0056131347
000150 c8 6b a7 3c 57 8a da bc c1 c0 12 bd a2 0a ba bc
       0.020437136 -0.026677294 -0.035828356 -0.022710148
000160 70 7e e2 3c 8f 14 0e bc 6a c8 cf 3c ae 12 fd bc
       0.02764818 -0.008671894 0.02536412 -0.030892696
000170 21 d7 33 bc 7c 15 e1 3a 9f ee d7 3c 00 41 2c 3d
       -0.010976584 0.001717254 0.0263589 0.042054176
000180 bd 25 0f bd af b4 3e 3c ab cf b2 3c 40 78 82 3b
       -0.0349481 0.011639758 0.02182754 0.00398162
000190 b4 b4 9f bc d6 30 26 3d 4f 52 ae 3c af 4f ce 3c
       -0.019495346 0.040573917 0.021279482 0.02518448
0001a0 d5 df cd 3a 1c 57 b0 bc c2 ad 96 bc b3 16 9c bc
       0.0015706966 -0.021525912 -0.018393401 -0.019053793
0001b0 72 76 0c bd 2f f8 8a 3b 9e 05 68 3c 87 e8 1f bd
       -0.034292646 0.0042410116 0.0141614955 -0.039040115
0001c0 69 de 44 3c 18 0d 23 3c 2c dc 80 bb 94 33 10 bc
       0.012015917 0.009951852 -0.0039324965 -0.00880136
0001d0 ae 0d 12 3d 38 ff 71 3c 00 30 a6 bc eb 47 c3 3c
       0.035657577 0.014770322 -0.02028656 0.023838004
0001e0 d7 3d 68 3c 0f d4 21 bd 24 91 1d 3d b9 a3 0d 3d
       0.0141749 -0.039508875 0.038468495 0.034579966
0001f0 ad f4 2b 3c bd 90 54 bc db 6f 22 3d 93 1c 16 3d
       0.010495347 -0.012973961 0.039657455 0.036648344

dnn.mlp.mlp.0.bias f4 [8]
000000 a0 10 8d bc 88 d5 94 bb 8c be ec bc 05 37 da 3c
       -0.017219841 -0.0045420565 -0.028899454 0.026637563
000010 cd 65 28 bd 8f d5 18 bd e6 83 9f 3a ab f6 0a 3d
       -0.04111271 -0.03731304 0.0012170046 0.033926647

dnn.mlp.mlp.2.weight f4 [4, 8]
000000 77 68 e8 3a 6b 61 5a 3d bf eb a9 bc 9a ea 75 3b
       0.0017731328 0.05331556 -0.020742295 0.0037523867
000010 72 25 24 bd e9 9b 4b 3d ce 3c db bc 9d cb 6f bd
       -0.040074773 0.049709234 -0.026762392 -0.05854379
000020 47 f7 af 3c 44 17 0a 3b 95 29 67 bb 2d c4 50 bc
       0.021480216 0.0021070996 -0.0035272588 -0.012742084
000030 03 ea a8 3c fc 29 33 bd 57 1d c8 bc ea 04 b7 3c
       0.020619398 -0.04374121 -0.024428053 0.02234121
000040 5e e1 6b 3d 41 86 58 bd 10 0d 67 3d 08 79 49 3c
       0.057587974 -0.05286241 0.05640894 0.0122969225
000050 20 38 42 bd 4f cc 0a bd 18 c2 3e 3d bb a8 2e 3d
       -0.047416806 -0.03388625 0.04657182 0.042641383
000060 40 4e 6d bd 5c b6 3f bd 7c e8 6b bd ea 9e 67 bd
       -0.057935953 -0.04680477 -0.05759476 -0.056548037
000070 96 b2 fb bc 02 10 48 3d 19 c7 0e bd 54 9a 2d bd
       -0.030724805 0.04884339 -0.034857843 -0.042383507

dnn.mlp.mlp.2.bias f4 [4]
000000 8a 43 80 3c 97 96 42 bb 63 07 29 3d e7 14 3e bd
       0.015657205 -0.002969181 0.04126681 -0.046406653

dnn.mlp.mlp.4.weight f4 [2, 4]
000000 ed 32 3d 3d 9d 72 81 3d ba 8f 92 3d 27 7e 80 bd
       0.046191145 0.06320689 0.0715632 -0.06274062
000010 b2 bb 6e 3c b4 80 fc 3c 26 e0 6b 3c 50 56 97 3c
       0.014571117 0.03082309 0.014396703 0.018473774

dnn.mlp.mlp.4.bias f4 [2]
000000 08 fa 0d 3d ed 48 4a bd
       0.034662277 -0.049385954

dnn.mlp.mlp.6.weight f4 [1, 2]
000000 11 e4 a7 bc 66 a3 ce b9
       -0.020494493 -0.00039413123
