model_deployment1/mlruns/247925280627376598/4348815fd8974c5e9a2731996394260c/artifacts/model/data/model.pth (torch, 711639 bytes, 9 tensors)

weight f4 [1, 10354]
00000000: 4a6a 523d f221 443c 794c 3cbd 4fb7 a43c
00000010: 3717 2d3b f08c ed3c c1b6 41bd 3e07 793b
00000020: 0d96 21bc e31e 31bb 398e 5f3c 0783 d33c
00000030: 672d 293c a59e 2c3a 0e0f e93b e6b1 4bb9
00000040: 6d9a 9f3c 935f 3f3d 4ae3 81be 48a9 553b
00000050: 146d 46bb 72ff b2bd 1937 9b3b 4bba 133c
00000060: f7d4 d43c 740b 1fbc 53ee 0b3c 2abf b4bd
00000070: 5a6c b83c 535b bd3c 5359 8d3c 10cc 903c
00000080: f8c1 fc3b d344 42bb a8e7 aa3c 0ff6 62bd
00000090: 846b 753c dd64 4cbc dbdd 8d3c c69a d23c
000000a0: ce79 f2bc 88f7 243d 3ae9 5f3d 9207 f23b
000000b0: c8b4 eb3c 565a b53c 6265 72bd 90c8 693c
000000c0: da9e 873c 2ce6 21be 9d16 113d 1bc7 243d
000000d0: b49c 213d 7605 abbc 98e7 7ebc 3215 a63c
000000e0: 357e 59bd 10ba c63c a445 1d3d 68be cd38
000000f0: e621 753c ceec 843d 841c 90bb 8193 213d
00000100: f40e 363c 9eb1 343d 4b5b 213c d4ee 553c
00000110: 5f85 d63c 02aa ff3c 9214 fa3b c544 973c
00000120: 0882 aa3c f570 343d f079 e9bc 7e7f 56bd
00000130: be95 963a 0f3f ddbb ee95 c73c a89d 193d
00000140: 54f4 b9bc 2f74 c63b 9136 9cbc 0bf5 653c
00000150: b3fe 463c c983 883c d872 ef3b 7ca5 b93b
00000160: e441 e73d 41eb be3c 9bda e9bc bc83 933c
00000170: 1588 2b3d b1bd cfbc 1813 763c af70 173c
00000180: bcde d53c 985c 863c 6890 953c 94aa 1d3d
00000190: 13c8 983b deb7 3bbc 22cf 8e3d e756 b83c
000001a0: 7c3f f53d 190a 0f3d e443 d13c 210f 883c
000001b0: 926d 48bc 64b7 183b 61c3 413d df6e 88bb
000001c0: 861c 96ba 0b10 23bc be21 ae3c e7c5 003c
000001d0: f2c0 93bc e158 1e3c 2925 2d3d ad11 28ba
000001e0: 172b 36bc 9468 4c3d 1425 833c dde8 5c3c
000001f0: aa0f 4e3d 443d 6fbc d82b 64bc fc71 823c
00000200: 3fbf ef3c 0fd1 653b de74 7dbc a02d 98bd
00000210: b9ed b5bc 259a 5c3b 1425 193b 2f74 e1bb
00000220: 1583 cd3c 5a3c 85bb 6138 6dbe 8212 513c
00000230: b72f ba3b c8b4 393c c990 b83c 18e4 733c
00000240: 756b 1ebc 96ae 88bc c50f 2a3a 124d 4f38
00000250: 0546 2ebd 82f4 803b 2213 4d3c 594b 713c
00000260: 7b4d 80be ff66 e13c 2b95 873c 3244 263d
00000270: 70e2 80bb 2736 873b dde2 f9bb 8e14 2bbe
00000280: 4b22 083c 2018 fd3c 6ada 3ebc d5be cd3c
00000290: 3fd4 8a3b 0292 9e3c 2002 cc3b f481 1d3d
000002a0: ea09 6d3d 6077 84bb 1aee 1c3d a23b 2e3c
000002b0: 745a 7eba c158 7b3c 4d46 30bb d704 c33c
000002c0: 2f89 65bc 994a 3a3c ff98 853c b0a9 fdbb
000002d0: 77c3 37bd cb6f ab3c c6aa 113b 6980 863c
000002e0: d101 063b 510f 3d3d 13f1 2c3d 718a 023d
000002f0: 963a 943b ab76 773c 9c0f ba3b 0dbc 643c
00000300: 7269 8c3b ead1 d7b9 93c3 e5bb bdbd 1a3c
00000310: 9cd9 1c3c 5ea4 833b c76c 75bd a0ac 6e3d
00000320: ca57 933c 4570 b63c accc 613c f520 7d3c
00000330: d19e cd3b 723f 8e3c 8c77 27bc 16e9 a43b
00000340: cf99 343c 3c0b 063d 3408 863c ff20 b93c
00000350: 2e01 c33c 0836 8cbc 8e5c 8c3c a723 d93c
00000360: 0895 1ebe 4414 67bc 65c7 c4bd fad1 9c3c
00000370: 3698 733d ea1e 0dbd 05b2 bebc 7724 b13c
00000380: f178 453c 171e 393b b224 cf3c 30f7 493b
00000390: 4765 5b3c d749 12bd 9364 e23a ccc7 05bc
000003a0: a15f 0dbd fdb1 98bb 5250 da3b f0d2 253b
000003b0: b949 1ebc b280 5d3c 9adf be3c 75c2 303d
000003c0: 4dc9 c53c 96b6 923b 9009 043d 0cd8 ab3c
000003d0: 7ff5 9cbc c527 283d 05f3 a53b d2e1 0c3c
000003e0: 06e5 843d 5f7b 973c d694 8a3c d5e1 a43c
000003f0: 3628 d43c a2ca 833c dd54 42bd 7662 383d
0.051370896 0.011970984 -0.045971368 0.02010694 0.0026411542 0.028997868 -0.04729343 0.0037998701
-0.009862435 -0.0027026467 0.013644748 0.025819315 0.010325766 0.0006584919 0.0071123904 -0.00019425861
0.019482816 0.046722006 -0.2536872 0.003260212 -0.0030277418 -0.087401286 0.0047367928 0.009016584
0.025980456 -0.0097073205 0.008540708 -0.08825524 0.022512604 0.023114836 0.017254507 0.01767543
0.0077135526 -0.0029643073 0.020862415 -0.05541044 0.014979247 -0.01247522 0.017317703 0.025708567
-0.029599097 0.040275127 0.05466578 0.0073861564 0.028772727 0.022137802 -0.059178717 0.014269009
0.016555239 -0.1581046 0.035421956 0.040228944 0.039456084 -0.020876627 -0.015558146 0.020273779
-0.053098876 0.024258643 0.038396493 9.810628e-05 0.014961695 0.064904794 -0.0043979306 0.03944731
0.011111964 0.0441147 0.009848426 0.013057429 0.026186643 0.031208996 0.0076318467 0.018465409
0.020813957 0.044053037 -0.028500527 -0.05236768 0.0011488718 -0.006751902 0.024363484 0.03750387
-0.022699513 0.0060563306 -0.019068988 0.014035474 0.012145686 0.016664403 0.0073073916 0.005665479
0.112918645 0.023305537 -0.028546622 0.018007152 0.041877825 -0.025359007 0.015019201 0.009243174
0.026107185 0.016401574 0.018257335 0.038492754 0.0046625226 -0.011457412 0.06973101 0.022502376
0.11974999 0.03492174 0.025545068 0.016608777 -0.012233155 0.0023302669 0.04730547 -0.0041636075
-0.0011452592 -0.009952555 0.021256324 0.007859684 -0.01803634 0.009664745 0.042271767 -0.00064113253
-0.011118672 0.04990442 0.016008891 0.013483253 0.050307907 -0.014602009 -0.013926469 0.015923493
0.029265998 0.0035067236 -0.015469758 -0.07430577 -0.022208082 0.0033661213 0.0023368048 -0.0068803052
0.025086919 -0.0040660324 -0.23166038 0.01276076 0.0056819576 0.0113346055 0.022529976 0.014885925
-0.009669174 -0.016684812 0.0006487335 4.9424423e-05 -0.042547245 0.0039353976 0.012516769 0.014727437
-0.25059113 0.027514933 0.016550621 0.04059238 -0.0039332435 0.0041263285 -0.007625921 -0.1670706
0.008308957 0.030895293 -0.011648754 0.02511541 0.0042367275 0.019356731 0.0062258393 0.03845401
0.057870783 -0.004042551 0.03831301 0.010634335 -0.00097028096 0.015340985 -0.0026897371 0.023806019
-0.014009758 0.0113703245 0.016308306 -0.0077411756 -0.044864144 0.02092733 0.0022227033 0.016418653
0.002044786 0.046157185 0.042222094 0.03187031 0.0045235856 0.015103976 0.0056781303 0.01396085
0.004285031 -0.00041164394 -0.0070118397 0.009444651 0.0095733665 0.004017397 -0.05991819 0.058270097
0.017986197 0.022270331 0.013781708 0.015449752 0.006275036 0.017364237 -0.010221373 0.005032669
0.011022999 0.032725558 0.016361333 0.022598742 0.023804273 -0.017115608 0.017133977 0.026506258
-0.15486538 -0.014103953 -0.09608344 0.019143093 0.05947133 -0.03445331 -0.023278246 0.021623833
0.01205276 0.0028246695 0.025286052 0.0030817501 0.013390846 -0.03571495 0.0017272405 -0.008165311
-0.034515027 -0.0046598897 0.006662407 0.002530273 -0.009661132 0.013519453 0.02329998 0.0431542
0.02414384 0.0044773323 0.032235682 0.020977043 -0.01916003 0.041053552 0.0050643706 0.008598762
0.06488995 0.018491445 0.016916674 0.020127216 0.02589808 0.016087834 -0.047444213 0.045015775

weight f4 [10354, 16]
00000000: a475 163d ed2e 0b3d c7d3 113d 409c 013d
00000010: 24d2 0d3d 87cd 193d 6ea6 173d e999 173d
00000020: 4bd2 053d d95b 083d c21f 133d fa4d 163d
00000030: ba76 173d 4763 0c3d 0043 1a3d cdb1 1b3d
00000040: 4c30 9a3b 3d06 5a3b 505d 123c 9396 ce3b
00000050: 358d d33b 7aef 203b 5ce2 d53b 63e9 083c
00000060: 67b9 f23b 636e 053c 1c2c 453b b101 403b
00000070: 89d3 123c f34b b73b 3d89 393b 45e0 053c
00000080: 62b5 e4bc 4dd2 d8bc 8d15 febc dce7 d2bc
00000090: 247d fbbc 683d e8bc 56cd d4bc 0b56 f7bc
000000a0: 3e32 0cbd e153 0dbd c121 d6bc d2ce ecbc
000000b0: 3b82 05bd 4ca9 08bd c8e7 06bd 5207 00bd
000000c0: 4b8c b0b8 dafa e038 c48d 68ba 9e72 dbba
000000d0: 8fc6 db3a 972d 30bb 05f0 92bb 14b1 083a
000000e0: 7323 9cbb 52ad 7dbb 186f 88bb a308 ddba
000000f0: 8fc2 33bb f6bd 50bb 8d24 0eba a708 e23a
00000100: d7a0 273b 4e36 a4ba 76a1 22ba ec4c cb3a
00000110: 1f54 e6ba b563 923a 4e0a 85bb d982 03bb
00000120: 6c5b f13a 339a 813a e1a2 653a d1c8 da3a
00000130: 2a2d 0c3b 38a0 80bb 0c52 99bb e53a a0bb
00000140: 7d49 203c 81bc 253c 44ab 363c b96d 003c
00000150: 173e 083c a422 6b3c 9e94 553c 3011 733c
00000160: 6437 083c 6af2 043c 3470 463c 0d36 143c
00000170: ecbe 1a3c 762f 603c 6028 523c 8528 1b3c
00000180: 85e0 b9bb e90d dbba 9f40 b239 23c3 a5bb
00000190: 99c7 523a 1759 dbbb a0f9 e4bb 4fb3 90bb
000001a0: 187d d8bb f706 9db9 c2a0 9bbb 2b6d 03bb
000001b0: 2577 a1bb 1313 27bb 34e1 d8ba 6f9a e2bb
000001c0: 085b aa3b f91e a53b 32a4 7c3b ce67 01bb
000001d0: 845a cdb8 acaf 45ba 5312 9eba fa83 a33b
000001e0: 65fd 1d3b 2e46 e6ba 7258 9239 eb6a fa39
000001f0: 66dc 963b aac4 663b bb27 893b 5ce0 1bba
00000200: e234 f8b9 2a37 5e3b 2619 84ba 2c93 df3a
00000210: f64d 8a3b 609e e6b8 6129 47ba 05d4 aa3b
00000220: 66e5 103a 8cd9 f63a 9b11 a73a b7da ebb9
00000230: 519d 1eb9 3349 cd3a 5157 89b9 8675 a6ba
00000240: 68f8 8cbc 6f63 8cbc 947c a5bc f178 b5bc
00000250: bbd1 81bc d2f0 86bc 6412 86bc f3a2 88bc
00000260: 7b11 9ebc 18f4 8fbc 8acb 99bc 8059 b5bc
00000270: 6f79 a1bc 7e8a 87bc ad3f b0bc 6699 95bc
00000280: 7b41 393c 28fd 1b3c 061b 5c3c 4418 0b3c
00000290: 6c23 683c db08 173c 4f6a 503c 20c0 4a3c
000002a0: 053c 803c 2947 203c ad01 673c e42d 7c3c
000002b0: 94b8 833c 67a9 6b3c 5945 783c e547 843c
000002c0: fca8 e73c 63aa f13c 4ee7 e73c 4456 e93c
000002d0: 4b9a c33c 684f e13c f178 e33c 31ef df3c
000002e0: 231c e13c e8f1 d83c b22e b73c fbaf ec3c
000002f0: 3ade b93c 56a8 b73c a3d5 f23c 39e7 ed3c
00000300: 0144 383c faf5 f43b 199c 4b3c 620e 313c
00000310: 4c25 333c 4d55 7d3c 7390 333c 22bf 063c
00000320: 1dac 663c 32d8 253c 68be 1c3c 1ca3 283c
00000330: a69a 013c d4f3 333c 0368 0a3c 6410 643c
00000340: 3a1f 0abc 309f 77ba 7de2 9fbb c293 03bb
00000350: 1d52 f5bb 2309 3cbb 0484 0fbb 4ee6 9cbb
00000360: e83a 4ebb 6268 57bb 35c8 43bb e9d6 b9bb
00000370: 4060 4cbb 5ecd 2dbb 5784 babb ff6d e6bb
00000380: 3921 69bb 938c 9d3a 1fc7 afba a24a 0b3b
00000390: 1cd3 6e37 640b a3bb 0f3d e7ba 765d e739
000003a0: a551 a7bb 23ef 66bb afe6 94bb f24c 26bb
000003b0: 37a0 0a3b 4565 b2ba b959 0a3b 9c58 c1ba
000003c0: d945 01bc 2324 60bc 4992 08bc 3805 f6bb
000003d0: 1783 0cbc 96a9 30bc 0c8d 11bc 824a 4bbc
000003e0: c2be 1cbc 2d47 e0bb 6efc 34bc 5942 54bc
000003f0: 5fee dbbb 9eb1 04bc 56ea 2cbc b802 dfbb
0.036733285 0.0339803 0.035602357 0.031643152 0.034624234 0.03754952 0.037023954 0.037012015
0.032671254 0.033290718 0.03591896 0.036695458 0.03697846 0.034274366 0.037661552 0.03801136
0.0047054645 0.0033267878 0.00893338 0.006304571 0.006456042 0.0024556802 0.0065272283 0.008356425
0.0074073556 0.008143994 0.0030086106 0.0029297883 0.008961567 0.0055937706 0.002831056 0.008171146
-0.027918521 -0.026467467 -0.031016136 -0.025745325 -0.03069932 -0.028349593 -0.025976818 -0.030192396
-0.034227602 -0.03450382 -0.026139142 -0.028907213 -0.0325949 -0.03336458 -0.032935888 -0.03125698
-8.4184656e-05 0.00010727877 -0.00088712224 -0.0016742533 0.0016767549 -0.0026882642 -0.004484179 0.0005214375
-0.004764968 -0.0038708043 -0.004163634 -0.0016863536 -0.0027429198 -0.0031851507 -0.00054223166 0.001724501
0.0025578046 -0.0012528391 -0.0006203869 0.0015510595 -0.0017572677 0.0011168631 -0.0040600663 -0.0020067005
0.0018414087 0.0009887874 0.00087599276 0.0016691928 0.0021389225 -0.0039253496 -0.00467897 -0.0048898333
0.009783146 0.010115744 0.011149231 0.00783866 0.008315585 0.014351521 0.013035921 0.014835641
0.008313987 0.008114437 0.012111712 0.00904609 0.009444933 0.013683191 0.012827009 0.00947011
-0.0056725168 -0.001671252 0.00033998952 -0.0050586625 0.00080406066 -0.00669397 -0.0069877654 -0.0044159065
-0.006606709 -0.00029950563 -0.0047493884 -0.0020054083 -0.004927533 -0.0025493547 -0.0016546608 -0.0069153826
0.00519884 0.0050390926 0.0038550016 -0.001974571 -9.7920216e-05 -0.0007541131 -0.0012059904 0.004990098
0.0024107334 -0.0017568523 0.00027913187 0.00047763376 0.0046039103 0.0035212436 0.0041856444 -0.0005946213
-0.00047341647 0.0033907392 -0.0010078296 0.001705741 0.0042207194 -0.00010996754 -0.00075974135 0.005213263
0.0005527347 0.0018833145 0.0012746336 -0.00044985648 -0.00015126659 0.0015662074 -0.00026195732 -0.001269982
-0.017208293 -0.017137257 -0.020201005 -0.022152396 -0.015847078 -0.016472254 -0.016366191 -0.016679263
-0.019295445 -0.017572448 -0.018773813 -0.022137403 -0.019711224 -0.01654553 -0.021514738 -0.018261623
0.011307116 0.009520806 0.013434177 0.008489672 0.0141686015 0.00921842 0.012720658 0.012374908
0.01565362 0.009782591 0.014099521 0.015391801 0.016079225 0.01438365 0.0151532525 0.016147563
0.02827882 0.029500192 0.028308537 0.028483517 0.023877284 0.027503684 0.02776763 0.027335735
0.027479237 0.026482537 0.022361133 0.028892508 0.022688974 0.022419136 0.029642886 0.02904092
0.011246682 0.0074756118 0.012427353 0.010806652 0.010934185 0.015462232 0.010959732 0.008224281
0.014079121 0.010122346 0.009566881 0.010292795 0.007910406 0.010983426 0.00844765 0.013919923
-0.008430297 -0.0009446023 -0.0048792944 -0.0020077084 -0.0074865953 -0.002869197 -0.0021898756 -0.0047881966
-0.0031468216 -0.0032868613 -0.0029873971 -0.0056713712 -0.00311853 -0.0026520113 -0.0056920457 -0.0070321555
-0.003557278 0.0012020044 -0.0013410783 0.0021254201 1.4235058e-05 -0.004975723 -0.0017642098 0.00044129387
-0.0051061683 -0.0035237751 -0.004544101 -0.0025375453 0.0021152624 -0.0013610503 0.0021110608 -0.0014751139
-0.007890188 -0.013680491 -0.008335658 -0.0075079463 -0.008576176 -0.01078262 -0.008883726 -0.012407901
-0.009566965 -0.0068444223 -0.011046512 -0.012955272 -0.0067117657 -0.008098988 -0.010553917 -0.006805744

weight f4 [8, 16]
00000000: 933f c5bc 2a83 903c 22a4 df3c 3f60 7e3c
00000010: b429 26bc cf88 283d 6c61 8bbc ed7e b3bc
00000020: d9f9 343c 183b 1d3c 7a26 17bd 8478 dcbc
00000030: 8a6c 0b3b 65be 643a b471 f23c b6b4 efbc
00000040: f063 67bc c89c fd39 4744 26bc a0b7 bfbc
00000050: 60c0 233d 4ad6 58bc 8fbb 6f3c 66b6 d3bc
00000060: a3a6 d3bc 7b87 033d f29b 0c3c 0c67 fc3b
00000070: c35a 78bc 21ce 7b3c 661f 1b3d ccc2 e6bb
00000080: 432f d33c 68d0 dcbc 8305 113c 39fb 9cbc
00000090: c87b 5fbc 41f8 13bd 3615 acba c56c 7fbc
000000a0: 17a5 1dbd 0b0d 58bc afbe 5abb 5c0b 59bb
000000b0: 55da b13b 12c5 da3c 69d9 393c 64bc 0cbd
000000c0: e221 f7bc 7a62 c4bc 9b60 89bc f044 c03c
000000d0: 938f 24bd a6b4 2c3c de12 8d3c 6004 9ebc
000000e0: 9152 18bd 8cd5 bdbc 92ca 20bd d925 8fbc
000000f0: 84bc a43b 6474 223a e3a1 e53b 4618 f63c
00000100: 1c92 f9bb f229 2d3c 934e d6bb b6ab 19bc
00000110: e66a f8bc c9ce 82ba a5c7 febb 4c0c 4039
00000120: 215b fd3b d92f 2b3d b1f8 dd3c cd11 1bbc
00000130: 0394 a83c 8a29 933b a776 9d3b 1f0a 25bd
00000140: 9084 96bc 75b4 10bc 2cb2 efbc 63ee b73b
00000150: c86b a73c 578a dabc c1c0 12bd a20a babc
00000160: 707e e23c 8f14 0ebc 6ac8 cf3c ae12 fdbc
00000170: 21d7 33bc 7c15 e13a 9fee d73c 0041 2c3d
00000180: 3002 0fbd 4e06 3e3c 7af9 b23c c657 823b
00000190: 519e 9fbc 9046 263d 2c22 ae3c c95f ce3c
000001a0: 16cd cd3a 8c35 b0bc 19c8 96bc 3515 9cbc
000001b0: c17e 0cbd 6f19 8b3b 271b 683c 76ce 1fbd
000001c0: f816 453c b8d2 223c 19ab 80bb 6f22 10bc
000001d0: 7b11 123d 6f13 723c 8d30 a6bc e14f c33c
000001e0: 602f 683c 95cd 21bd f68b 1d3d f2a7 0d3d
000001f0: a3f2 2b3c 788e 54bc e670 223d 6628 163d
-0.024078166 0.017640669 0.027299944 0.015525877 -0.010141779 0.041146096 -0.017014228 -0.021911109
0.011045896 0.009596609 -0.03690193 -0.026912935 0.002127441 0.0008725881 0.029595234 -0.029260974
-0.014122948 0.00048372732 -0.0101481145 -0.023402989 0.039978385 -0.013234684 0.01463212 -0.02584381
-0.025836295 0.032111626 0.008582102 0.007702714 -0.015158358 0.015368969 0.03787174 -0.0070422646
0.025779372 -0.026954845 0.008851412 -0.019162761 -0.013640352 -0.036125425 -0.001312888 -0.0155898975
-0.03848752 -0.013186703 -0.0033377816 -0.0033118343 0.0054276385 0.026705299 0.0113433385 -0.03435935
-0.030167524 -0.023972739 -0.016769698 0.023470372 -0.040175986 0.010541117 0.01722091 -0.019289196
-0.037188116 -0.023173116 -0.039255686 -0.017474102 0.0050273556 0.0006197153 0.007007824 0.030040871
-0.0076162945 0.010569083 -0.0065401285 -0.009379318 -0.03032441 -0.000997984 -0.0077752643 0.00018315128
0.0077318107 0.041793678 0.027096124 -0.009464693 0.02057839 0.004491036 0.004805404 -0.040292855
-0.018373758 -0.008832087 -0.029259764 0.0056131347 0.020437136 -0.026677294 -0.035828356 -0.022710148
0.02764818 -0.008671894 0.02536412 -0.030892696 -0.010976584 0.001717254 0.0263589 0.042054176
-0.034914196 0.011598183 0.021847475 0.0039777486 -0.01948467 0.040594637 0.021256529 0.025192158
0.0015701379 -0.021509908 -0.01840596 -0.019053081 -0.03430057 0.0042449753 0.01416663 -0.039015256
0.012029402 0.009937935 -0.0039266464 -0.008797272 0.035661202 0.014775141 -0.020286823 0.0238418
0.014171451 -0.0395027 0.038463555 0.034583993 0.010494861 -0.01297342 0.03965845 0.03665962

bias f4 [8]
00000000: a010 8dbc 88d5 94bb 8cbe ecbc 8933 da3c
00000010: cd65 28bd 8fd5 18bd 042b 8f3a b6f5 0a3d
-0.017219841 -0.0045420565 -0.028899454 0.026635902 -0.04111271 -0.03731304 0.0010922854 0.033925734

weight f4 [4, 8]
00000000: 7768 e83a 6b61 5a3d bfeb a9bc 9abd 753b
00000010: 7225 24bd e99b 4b3d 8f8e dbbc b2b5 6fbd
00000020: 47f7 af3c 4417 0a3b 9529 67bb 60a8 50bc
00000030: 03ea a83c fc29 33bd d828 c8bc 260d b73c
00000040: 5ee1 6b3d 4186 58bd 100d 673d 1b6b 493c
00000050: 2038 42bd 4fcc 0abd 7b7e 3e3d e6cc 2e3d
00000060: 404e 6dbd 5cb6 3fbd 7ce8 6bbd ea9e 67bd
00000070: 96b2 fbbc 0210 483d 19c7 0ebd 549a 2dbd
0.0017731328 0.05331556 -0.020742295 0.0037497045 -0.040074773 0.049709234 -0.026801376 -0.058522888
0.021480216 0.0021070996 -0.0035272588 -0.012735456 0.020619398 -0.04374121 -0.024433538 0.022345137
0.057587974 -0.05286241 0.05640894 0.012293602 -0.047416806 -0.03388625 0.04650734 0.042675875
-0.057935953 -0.04680477 -0.05759476 -0.056548037 -0.030724805 0.04884339 -0.034857843 -0.042383507

bias f4 [4]
00000000: 1b39 803c 5526 42bb 3100 293d e714 3ebd
0.01565223 -0.0029624898 0.04125995 -0.046406653

weight f4 [2, 4]
00000000: 1b2d 3d3d a973 813d 4782 923d 277e 80bd
00000010: b2bb 6e3c b480 fc3c 26e0 6b3c 5056 973c
0.046185594 0.063208885 0.07153755 -0.06274062 0.014571117 0.03082309 0.014396703 0.018473774

bias f4 [2]
00000000: c9e5 0d3d ed48 4abd
0.03464297 -0.049385954

weight f4 [1, 2]
00000000: 572e a7bc 66a3 ceb9
-0.020407839 -0.00039413123
