model_deployment1/mlruns/10/933811e8a65f463fa92724221d11fcc5/artifacts/model/data/model.pth (torch, 711639 bytes, 9 tensors)

weight f4 [1, 10354]
0.05812927 0.013708092 -0.025037892 0.013536477 -0.007572165 0.026407704 -0.043986257 -0.012818147
-0.002087145 -0.006140574 0.015025127 0.0019182327 0.011843573 0.000857578 -0.0047449186 -0.0098235505
0.02493305 0.040458944 -0.22866142 0.004685761 -0.032071892 -0.043719564 -0.0034544987 0.0051664663
0.018288037 -0.0119494535 -0.0069509144 -0.117553696 0.026748583 0.02277213 0.011533691 0.02096857
0.021604747 0.00021934633 0.004360586 -0.044885945 0.009284773 -0.019719241 0.020569438 0.024476051
-0.045930568 0.029373126 0.071047954 0.010337943 0.0293932 0.024201546 -0.05415906 0.01805218
0.01644161 -0.12328988 0.030448696 0.050709024 0.024299221 -0.015446934 0.002559667 0.023444658
-0.023415549 0.031863302 0.035011802 -0.0018578252 0.0054455316 0.06142794 0.017374806 0.021736985
0.0038498095 0.039401855 0.020738645 -0.03356482 0.034656707 0.033372227 0.0069396496 0.027426865
0.02059563 0.043551534 -0.014512191 -0.036617175 0.004516427 -0.016589995 0.029055357 0.039460715
-0.0052567134 -0.0057389433 -0.009936926 0.027299194 0.0058464566 0.0028170755 -4.5867357e-05 -0.0052443375
0.03525441 0.017649546 -0.004012303 -0.00013220732 0.040980626 -0.03281511 0.030674985 0.0097927805
0.013303168 0.02466286 0.0059707216 0.028291177 -0.013075575 -0.0067061526 0.03313464 -0.009083181
0.08162321 0.03814612 0.021598823 0.021593457 -0.014224028 0.014312756 0.004065633 0.005284805
-0.0033613213 -0.009243586 0.036447663 -0.00593676 -0.025172422 0.010876204 0.054940604 -0.0036930921
-0.008713322 0.056677904 0.006538066 0.009418602 0.032822695 -0.018098013 -0.012224952 0.016877374
0.03951329 0.0017314311 -0.018301388 -0.062518924 -0.013112438 -0.008899354 0.0038694206 -0.010715903
0.018450774 -0.0058181393 -0.17151187 -0.0025466648 -0.0019622936 0.012356716 0.0032908116 0.0019528951
-0.013270335 -0.017127397 0.010198397 0.0012087732 -0.025167089 -0.010168805 0.0096326005 0.015285277
-0.16763966 0.019239277 0.00678268 0.030442255 0.00033339363 0.011038778 -0.011980819 -0.17386651
0.013188535 0.03131506 -0.006112168 0.017871268 0.015115087 0.016572887 0.01284216 0.031044208
0.055106927 0.0064793713 0.047078315 0.016688319 0.003864579 0.0053346995 -0.01341284 0.008962154
-0.042498402 0.015454681 0.018340342 0.0044007483 -0.037205044 -0.01117048 -0.0054031783 0.0077104755
-0.008704639 0.041273378 0.014931445 0.030448552 -0.0028886357 0.021781541 0.002335369 0.01820407
0.005771863 0.003088165 0.0016170093 0.0009613297 0.018033782 -0.01572269 -0.04862505 0.04330638
0.032273382 0.043604765 0.01831301 0.021740582 0.000116018884 0.011631072 -0.010975273 0.008843404
-0.0011275691 0.026517758 0.02823517 0.0055938805 0.012013943 -0.0048571876 0.0247646 0.029998722
-0.1680488 -0.015270837 -0.055847753 0.036145534 0.057895213 -0.033209763 -0.023435954 0.010126309
0.006314333 0.01475002 0.02565413 -0.0038950983 0.007985921 -0.03279991 0.011115625 -0.017464269
-0.026500707 -0.015497106 -0.007063503 -0.0013663877 -0.010603442 0.016021026 0.030531976 0.038029104
0.02433836 0.009018002 0.017242517 0.01963983 -0.017161096 0.053036794 0.0069791414 0.009030852
0.05478478 0.00788225 0.008969534 0.0065158163 0.013363333 0.02003316 -0.03383417 0.036688425
00000000: f518 6e3d e897 603c 441c cdbc 1ac8 5d3c
00000010: ed1f f8bb f854 d83c ef2a 34bd 3503 52bc
00000020: 7cc8 08bb de36 c9bb f32b 763c 356d fb3a
00000030: 8c0b 423c 16cf 603a 437b 9bbb f5f2 20bc
00000040: 6540 cc3c 47b8 253d 3826 6abe 038b 993b
00000050: d15d 03bd 4913 33bd df64 62bb 764b a93b
00000060: cbd0 953c a4c7 43bc 7fc4 e3bb febf f0bd
00000070: d81f db3c 9e8c ba3c cef7 3c3c 47c6 ab3c
00000080: 70fc b03c 5500 6639 3fe3 8e3b 53da 37bd
00000090: 291f 183c 3f8a a1bc 3d81 a83c 0082 c83c
000000a0: b121 3cbd e99f f03c 9781 913d 7a60 293c
000000b0: 02ca f03c 5242 c63c e4d5 5dbd 2ae2 933c
000000c0: 8eb0 863c 687f fcbd 8b6f f93c 44b4 4f3d
000000d0: 290f c73c 2315 7dbc 16c0 273b 030f c03c
000000e0: f7d1 bfbc 1883 023d 8968 0f3d 4582 f3ba
000000f0: 6e70 b23b dd9b 7b3d 9c55 8e3c c311 b23c
00000100: 164d 7c3b d763 213d 17e4 a93c 447b 09bd
00000110: 31f4 0d3d 51b1 083d 0066 e33b 4eae e03c
00000120: 2bb8 a83c 1863 323d 8ac4 6dbc e4fb 15bd
00000130: 89fe 933b bee7 87bc 8005 ee3c 8fa1 213d
00000140: 8240 acbb bf0d bcbb 7dce 22bc 8fa2 df3c
00000150: a293 bf3b af9e 383b b361 40b8 b1d8 abbb
00000160: ee66 103d c895 903c a379 83bb 22a1 0ab9
00000170: 4ddb 273d 2369 06bd 1b4a fb3c e671 203c
00000180: 88f5 593c c409 ca3c 0ba6 c33b e6c2 e73c
00000190: f03a 56bc 49bf dbbb 30b8 073d 9fd1 14bc
000001a0: 122a a73d 1b3f 1c3d 04f0 b03c c3e4 b03c
000001b0: e60b 69bc 0d80 6a3c 0039 853b 282c ad3b
000001c0: 9d49 5cbb 6972 17bc 254a 153d 2789 c2bb
000001d0: 6536 cebc 1b32 323c 6609 613d ce07 72bb
000001e0: 52c2 0ebc 1727 683d 463d d63b 7b50 1a3c
000001f0: 1771 063d 4942 94bc 2a4b 48bc 6b42 8a3c
00000200: b0d8 213d 30f1 e23a cbec 95bc ec09 80bd
00000210: 8dd5 56bc 99ce 11bc 1b96 7d3b c191 2fbc
00000220: 1426 973c 17a6 bebb cfa0 2fbe f2e5 26bb
00000230: d399 00bb d373 4a3c a8aa 573b 49f8 ff3a
00000240: d26b 59bc c14e 8cbc 2d17 273c b36f 9e3a
00000250: 362b cebc 0f9b 26bc 0ed2 1d3c 196f 7a3c
00000260: bba9 2bbe b09b 9d3c 3e41 de3b 0962 f93c
00000270: 56cb ae39 fedb 343c 324b 44bc 100a 32be
00000280: ba14 583c 3844 003d 9548 c8bb c466 923c
00000290: 45a5 773c ddc3 873c ec67 523c 6c50 fe3c
000002a0: cdb7 613d e850 d43b 31d5 403d f1b5 883c
000002b0: e044 7d3b b4ce ae3b 87c1 5bbc 00d6 123c
000002c0: ce12 2ebd a135 7d3c 7c3e 963c 2734 903b
000002d0: 5164 18bd 6404 37bc 250d b1bb 28a8 fc3b
000002e0: e79d 0ebc 460e 293d 05a3 743c 3e6f f93c
000002f0: 444f 3dbb 346f b23c fd0c 193b b420 953c
00000300: e521 bd3b d062 4a3b d4f1 d33a be01 7c3a
00000310: 95bb 933c dfcc 80bc 0f2b 47bd 0862 313d
00000320: 1831 043d e99a 323d 2a05 963c 4e19 b23c
00000330: 2a4f f338 4090 3e3c a2d1 33bc ede3 103c
00000340: f1ca 93ba c53b d93c 714d e73c df4c b73b
00000350: 21d6 443c 0b29 9fbb 21df ca3c e1bf f53c
00000360: fc14 2cbe 8832 7abc 9dc0 64bd 570d 143d
00000370: 8823 6d3d f606 08bd c2fc bfbc d1e8 253c
00000380: 77e8 ce3b 11aa 713c 9c28 d23c e844 7fbb
00000390: 61d7 023c 3359 06bd 4f1e 363c 3a11 8fbc
000003a0: 0318 d9bc 93e7 7dbc f574 e7bb 5d18 b3ba
000003b0: 0fba 2dbc 873e 833c 321e fa3c 68c4 1b3d
000003c0: 3e61 c73c 3ec0 133c 2e40 8d3c b5e3 a03c
000003d0: 6d95 8cbc 1c3d 593d 48b1 e43b 23f6 133c
000003e0: 0166 603d 8d24 013c f4f4 123c a182 d53b
000003f0: e2f1 5a3c 951c a43c b395 0abd 9a46 163d

weight f4 [10354, 16]
0.044123773 0.033097137 0.0395957 0.023729973 0.035674136 0.047399472 0.04529093 0.045244493
0.027850263 0.03032925 0.040862862 0.0439739 0.045105364 0.03427279 0.047848005 0.04924492
8.4114436e-05 -0.0051723206 0.016214248 0.0061864713 0.006762443 -0.008493113 0.007036533 0.01401395
0.010392179 0.013200779 -0.006387568 -0.0066879797 0.016319409 0.0034748123 -0.007062534 0.013304582
-0.015329273 -0.010274467 -0.026129069 -0.0077581564 -0.025022293 -0.016836818 -0.008565554 -0.023258343
-0.037320603 -0.038282428 -0.009128374 -0.018776642 -0.03162898 -0.0343135 -0.032820713 -0.026967013
0.0071136435 0.007868651 0.0040141237 0.0009575122 0.013948123 -0.002966338 -0.009937975 0.009479021
-0.011033475 -0.007571237 -0.008705878 0.00090368476 -0.0031982448 -0.004903811 0.0053512743 0.014130451
0.016064325 0.0016056175 0.0040047327 0.012243563 -0.00030720836 0.010595146 -0.009045086 -0.0012549232
0.013345258 0.010111191 0.009683152 0.012692556 0.014475142 -0.008533479 -0.011392941 -0.012191285
-0.003727098 -0.0024191765 0.0016358886 -0.011351625 -0.009483576 0.014201012 0.009038321 0.01609834
-0.009488692 -0.010273108 0.005408961 -0.00661688 -0.0050528576 0.0115761 0.008218849 -0.0049532577
-0.02908461 -0.014981775 -0.007893061 -0.02692185 -0.0062570553 -0.032685563 -0.033721056 -0.024655923
-0.032377146 -0.01014666 -0.025831016 -0.016159674 -0.026459254 -0.018077012 -0.01492373 -0.03346605
0.01665328 0.016044497 0.011558767 -0.010519259 -0.003407957 -0.005899103 -0.0076096808 0.015858047
0.0060910927 -0.009692435 -0.0019799625 -0.0012285528 0.014399363 0.010295592 0.012812013 -0.0052888324
-0.010905016 0.003367164 -0.012880131 -0.0028571612 0.006433518 -0.009564531 -0.011964147 0.010098661
-0.007115326 -0.0021999986 -0.0044485577 -0.010818581 -0.009715583 -0.003372216 -0.010125527 -0.013848227
-0.009680793 -0.009416548 -0.020843586 -0.02812213 -0.004604077 -0.006937467 -0.0065412056 -0.007708559
-0.017465474 -0.011038857 -0.0155199785 -0.028065357 -0.019016331 -0.0072095906 -0.025743851 -0.013610235
0.00275418 -0.0040834197 0.010897428 -0.008030485 0.013708327 -0.0052404134 0.008166306 0.0068426277
0.01939331 -0.0030818046 0.0134440055 0.018391155 0.02102241 0.014532085 0.017478574 0.021284366
0.021122754 0.025936568 0.021242665 0.021931961 0.0037834113 0.018073427 0.01911214 0.017410373
0.017974256 0.014046425 -0.0021895084 0.023541577 -0.00089783786 -0.0019594808 0.026499815 0.02412669
0.0020189015 -0.012368132 0.0065237866 0.00034046595 0.0008267425 0.018102711 0.0009246505 -0.00951169
0.012825536 -0.0022706464 -0.004389761 -0.0016201433 -0.010709489 0.0010148445 -0.008659348 0.012218318
-0.022406986 0.0056573916 -0.0090944925 0.0016715508 -0.01886922 -0.0015586752 0.000988511 -0.00875301
-0.002598839 -0.0031235334 -0.0020010136 -0.012063774 -0.0024926122 -0.0007439084 -0.0121418 -0.017165516
-0.015709776 0.0024342001 -0.0072584804 0.0059539047 -0.0020954907 -0.021110494 -0.008870892 -0.0004643046
-0.021611273 -0.015581457 -0.019470112 -0.011821541 0.0059124017 -0.0073355767 0.005899946 -0.007772617
0.007216522 -0.0145863015 0.0055392557 0.008655746 0.0046335347 -0.0036745633 0.0034753883 -0.009794353
0.0009028317 0.011154293 -0.004668326 -0.011855807 0.011653613 0.006430314 -0.0028135437 0.011299633
00000000: 21bb 343d dd90 073d 1a2f 223d 5c65 c23c
00000010: 0b1f 123d f325 423d fb82 393d 4a52 393d
00000020: 3c26 e43c 0c75 f83c d15f 273d fa1d 343d
00000030: 67c0 383d a061 0c3d 45fc 433d 0bb5 493d
00000040: 9866 b038 927c a9bb bed3 843c e2b7 ca3b
00000050: 7c97 dd3b b326 0bbc b892 e63b c49a 653c
00000060: f543 2a3c 1548 583c ce4e d1bb d726 dbbb
00000070: 48b0 853c adb9 633b d46c e7bb 76fb 593c
00000080: a227 7bbc 3d56 28bc a10c d6bc 2238 febb
00000090: 8dfb ccbc 5eed 89bc 8a56 0cbc 4888 bebc
000000a0: 7ddd 18bd 09ce 1cbd 2d8f 15bc 79d1 99bc
000000b0: 648d 01bd 508c 0cbd 036f 06bd ede9 dcbc
000000c0: 9119 e93b 84eb 003c e988 833b 8e01 7b3a
000000d0: ab86 643c e566 42bb e3d2 22bc e54d 1b3c
000000e0: c0c5 34bc 2418 f8bb 19a3 0ebc 42e5 6c3a
000000f0: a599 51bb 26b0 a0bb be59 af3b 6883 673c
00000100: 5599 833c 9573 d23a 223a 833b 3a99 483c
00000110: cf10 a1b9 4397 2d3c d731 14bc 3c7c a4ba
00000120: 12a6 5a3c 69a9 253c 15a6 1e3c 70f4 4f3c
00000130: 2529 6d3c 01d0 0bbc 75a9 3abc f5bd 47bc
00000140: 5442 74bb 0c8b 1ebb 506b d63a 2bfc 39bc
00000150: 0061 1bbc 5dab 683c 7715 143c aae0 833c
00000160: 7576 1bbc 8a50 28bc a73d b13b 6ad2 d8bb
00000170: 7192 a5bb afa9 3d3c 5aa8 063c f04e a2bb
00000180: d942 eebc 1e76 75bc e651 01bc 368b dcbc
00000190: fc07 cdbb 4ce1 05bd 171f 0abd 38fb c9bc
000001a0: e69d 04bd 2d3e 26bc 919b d3bc 4b61 84bc
000001b0: 14c1 d8bc 3e16 94bc a982 74bc b213 09bd
000001c0: 766c 883c c06f 833c fc60 3d3c f858 2cbc
000001d0: 0858 5fbb 434d c1bb a15a f9bb bce8 813c
000001e0: ca97 c73b 05cd 1ebc 42c2 01bb 6407 a1ba
000001f0: 4eeb 6b3c d8ae 283c 7ae9 513c f14d adbb
00000200: f4aa 32bc a3ab 5c3b 2f07 53bc 363f 3bbb
00000210: 43d0 d23b 8db4 1cbc 4505 44bc db74 253c
00000220: ae27 e9bb da2d 10bb 35c5 91bb 6b40 31bc
00000230: 1c2e 1fbc 6500 5dbb 8ae5 25bc ade3 62bc
00000240: 309c 1ebc dd47 1abc 2bc0 aabc 6260 e6bc
00000250: ccdd 96bb b153 e3bb 9c57 d6bb 1498 fcbb
00000260: c113 8fbc 52dc 34bc 8247 7ebc 52e9 e5bc
00000270: 23c8 9bbc 6e3e ecbb c5e4 d2bc 77fd 5ebc
00000280: 797f 343b 35ce 85bb 208b 323c 4c92 03bc
00000290: e498 603c c6b7 abbb f8cb 053c 1f38 e03b
000002a0: b8de 9e3c 1af8 49bb 3f44 5c3c 0ca9 963c
000002b0: 3037 ac3c fb17 6e3c 3a2f 8f3c 8d5c ae3c
000002c0: a009 ad3c ed78 d43c 1905 ae3c a8aa b33c
000002d0: 1cf3 773b b90e 943c 1091 9c3c 33a0 8e3c
000002e0: bf3e 933c fa22 663c db7d 0fbb 44da c03c
000002f0: e15c 6bba a26a 00bb 2416 d93c 56a5 c53c
00000300: 8c4f 043b b5a3 4abc 7dc5 d53b 9180 b239
00000310: c0b9 583a 234c 943c 3f64 723a ebd6 1bbc
00000320: 3222 523c 20cf 14bb fcd7 8fbb fd5a d4ba
00000330: da76 2fbc 8804 853a f0df 0dbc 572f 483c
00000340: db8e b7bc a461 b93b 1101 15bc f017 db3a
00000350: 9f93 9abc 764c ccba ed90 813a c968 0fbc
00000360: 4951 2abb 32b4 4cbb 7023 03bb 23a7 45bc
00000370: 185b 23bb d902 43ba 66ee 46bc b29e 8cbc
00000380: cab1 80bc 1a87 1f3b 8cd8 edbb f918 c33b
00000390: 8054 09bb eaef acbc 3857 11bc e96d f3b9
000003a0: 200a b1bc 5e49 7fbc c97f 9fbc 23af 41bc
000003b0: d2bc c13b 475f f0bb 5654 c13b 70b1 febb
000003c0: 9378 ec3b 62fb 6ebc a582 b53b d4d0 0d3c
000003d0: e8d4 973b f1d0 70bb 57c3 633b 7e78 20bc
000003e0: 03ac 6c3a 7fc0 363c c2f8 98bb dc3e 42bc
000003f0: ccee 3e3c 62b5 d23b 6e63 38bb 1922 393c

weight f4 [8, 16]
-0.09046291 0.066276886 0.102567114 0.05833145 -0.03810317 0.15458785 -0.063923284 -0.08232104
0.041499976 0.03605495 -0.13864231 -0.10111319 0.0079929 0.0032783556 0.11119076 -0.10993492
-0.05306061 0.0018173866 -0.03812695 -0.08792624 0.15020068 -0.049723364 0.0549736 -0.09709645
-0.0970681 0.12064488 0.032243364 0.028939487 -0.05695069 0.057741966 0.142286 -0.026458133
0.096854314 -0.10127068 0.03325518 -0.07199542 -0.05124744 -0.1357249 -0.0049325814 -0.058572
-0.14459957 -0.04954309 -0.012540204 -0.012442723 0.020391885 0.10033313 0.042617436 -0.12908979
-0.11326913 -0.08993907 -0.06293781 0.08828357 -0.1508829 0.039634414 0.064784594 -0.072420664
-0.1396289 -0.087018825 -0.14739864 -0.06555731 0.019027133 0.0023905789 0.026375614 0.11290949
-0.02861476 0.039708544 -0.024571555 -0.03523856 -0.11393016 -0.0037494737 -0.029212052 0.00068810786
0.029048787 0.15702078 0.10180143 -0.035559304 0.07731401 0.01687305 0.018054133 -0.1513821
-0.069031075 -0.03318255 -0.10993039 0.02108883 0.07678335 -0.1002279 -0.13460875 -0.08532316
0.103875615 -0.032580744 0.09529415 -0.11606538 -0.04123956 0.006451812 0.099031664 0.15799968
-0.13100724 0.04385122 0.082217224 0.015178445 -0.073078565 0.15260513 0.08007184 0.094758205
0.0061131287 -0.080705546 -0.06896091 -0.07135894 -0.12857234 0.016099054 0.053326983 -0.14645551
0.045212593 0.037414514 -0.014721159 -0.033012874 0.13399425 0.055516295 -0.07619212 0.08958744
0.053290904 -0.14839804 0.1445607 0.12996526 0.039500546 -0.04870889 0.14901513 0.13773544
00000000: 9e44 b9bd 2dbc 873d b50e d23d f5ec 6e3d
00000010: 1212 1cbd 474c 1e3e 36ea 82bd ef97 a8bd
00000020: e1fb 293d 5bae 133d 40f8 0dbe 6f14 cfbd
00000030: a7f4 023c aed9 563b fbb7 e33d 8f25 e1bd
00000040: 1556 59bd 6035 ee3a 012b 1cbd ac12 b4bd
00000050: 35ce 193e baaa 4bbd ff2b 613d 81da c6bd
00000060: a4cb c6bd aa14 f73d 9e11 043d 8112 ed3c
00000070: 2045 69bd d782 6c3d 6cb3 113e babe d8bc
00000080: 8e5b c63d 0167 cfbd 9536 083d 5672 93bd
00000090: d6e8 51bd 78fb 0abe 7ea1 a1bb 32e9 6fbd
000000a0: e911 14be b2ed 4abd 6e75 4dbc 90dc 4bbc
000000b0: e20c a73c 757b cd3d 9f8f 2e3d 1d30 04be
000000c0: a5f9 e7bd fa31 b8bd 8ae5 80bd 04ce b43d
000000d0: 0c81 1abe b257 223d c9ad 843d 4951 94bd
000000e0: e1fa 0ebe ed36 b2bd abef 16be e942 86bd
000000f0: cade 9b3c 42ab 1c3b ac11 d83c 173d e73d
00000100: 8069 eabc 6da5 223d 494a c9bc 4f56 10bd
00000110: 3754 e9bd bbb9 75bb 1d4e efbc 2362 343a
00000120: b9f7 ed3c 0eca 203e 457d d03d a2a6 11bd
00000130: cf56 9e3d 5a39 8a3c 43e6 933c e903 1bbe
00000140: 2a60 8dbd 6dea 07bd 2f23 e1bd 7bc2 ac3c
00000150: 9740 9d3d 4944 cdbd e0d6 09be e9bd aebd
00000160: bdbc d43d 6373 05bd 9429 c33d b0b3 edbd
00000170: d0ea 28bd b969 d33b 1dd1 ca3d abca 213e
00000180: c326 06be 569d 333d 8161 a83d 03af 783c
00000190: 37aa 95bd 8544 1c3e b4fc a33d 9710 c23d
000001a0: a450 c83b f348 a5bd 613b 8dbd a324 92bd
000001b0: 78a8 03be 2ae2 833c 656d 5a3d 6ff8 15be
000001c0: d730 393d f63f 193d 0431 71bc 8238 07bd
000001d0: ca35 093e 0e65 633d 9d0a 9cbd 9f79 b73d
000001e0: 9047 5a3d a8f5 17be b807 143e 9d15 053e
000001f0: 53cb 213d f982 47bd 6c97 183e 850a 0d3e

bias f4 [8]
-0.06469578 -0.017064733 -0.108576596 0.10050824 -0.15446234 -0.14018677 0.0050604055 0.12767236
00000000: 397f 84bd 57cb 8bbc 685d debd 44d7 cd3d
00000010: 602b 1ebe 1f8d 0fbe c2d1 a53b 8bbc 023e

weight f4 [4, 8]
0.0066617443 0.20030895 -0.07792974 0.014045269 -0.15056291 0.18676008 -0.10092759 -0.21867132
0.08070218 0.00791648 -0.013252087 -0.04785545 0.07746812 -0.16433774 -0.09177571 0.083977185
0.21636087 -0.19860667 0.21193106 0.04612177 -0.17814712 -0.12731227 0.17436044 0.16223374
-0.21766822 -0.17584771 -0.2163862 -0.21245362 -0.11543463 0.18350698 -0.13096255 -0.15923692
00000000: c34a da3b ca1d 4d3e a199 9fbd 211e 663c
00000010: 2a2d 1abe 093e 3f3e 20b3 cebd 60eb 5fbe
00000020: 2f47 a53d 20b4 013c 481f 59bc 1404 44bd
00000030: 9ba7 9e3d 2748 28be e7f4 bbbd 3bfc ab3d
00000040: b48d 5d3e 8c5f 4bbe 7504 593e 2eea 3c3d
00000050: 336c 36be 265e 02be 8b8b 323e 9a20 263e
00000060: 6be4 5ebe 6c11 34be 5894 5dbe 718d 59be
00000070: fe68 ecbd 41e9 3b3e 0c1b 06be 010f 23be

bias f4 [4]
0.0660351 -0.010997698 0.16645963 -0.17435193
00000000: 693d 873d b02f 34bc 6574 2a3e 5089 32be

weight f4 [2, 4]
0.17491545 0.23747501 0.27656493 -0.23571943 0.05474439 0.115803845 0.054089133 0.06940687
00000000: 091d 333e a62c 733e eb99 8d3e 6f60 71be
00000010: a73b 603d 912a ed3d 918c 5d3d 3025 8e3d

bias f4 [2]
0.1992852 -0.18554538
00000000: 6b11 4c3e 9cff 3dbe

weight f4 [1, 2]
-0.15347795 -0.0014807711
00000000: 5329 1dbe 6f16 c2ba
