model_deployment1/mlruns/1/c0f1ad31cf794511b837a90a9ded33dd/artifacts/model/data/model.pth (torch, 711639 bytes, 9 tensors)

weight f4 [1, 10354]
00000000: 3901 513d 1a75 423c 6852 3cbd 565e a53c
00000010: b895 2f3b 9ff8 eb3c 45e7 40bd 8e27 7f3b
00000020: 6286 21bc 7394 15bb d4eb 5f3c 848d d33c
00000030: 66f6 283c 9496 243a 884f e73b 0c87 c7b8
00000040: 20a8 9e3c f329 3d3d 1ca1 81be e0a3 7c3b
00000050: 48b5 77bb 0687 b2bd f0d5 9c3b 4e86 113c
00000060: 1061 d33c 1d73 1ebc 43bc 0a3c ddea b3bd
00000070: ef9e b53c 3939 bc3c 65c4 8b3c ad05 913c
00000080: 8fc2 f73b 8f51 48bb a4bf aa3c dd5e 62bd
00000090: 3f61 753c 8e67 4cbc c4fa 8c3c 60c2 d13c
000000a0: 46cf ebbc c70d 243d 36e3 5f3d e116 f33b
000000b0: dc62 eb3c fe9e b43c 3575 71bd cd1f 683c
000000c0: dcf1 863c c921 21be c3e5 113d ada4 223d
000000d0: e18e 213d 371c aabc e83d 7ebc f335 a53c
000000e0: 987b 57bd 45a5 c53c 389d 1d3d d202 fc38
000000f0: 1071 723c 4020 833d 4ca0 83bb f697 223d
00000100: 20fb 343c 4576 333d aaeb 203c d8d9 533c
00000110: fc83 d33c 59e0 ff3c 47b3 fa3b 77b7 943c
00000120: be25 a63c b991 343d bd56 e8bc 62ac 55bd
00000130: 0fcf 8e3a 7698 dabb 9f25 c53c 8c7a 173d
00000140: 789a b9bc 9422 c83b e51f 9abc 993e 633c
00000150: 80c6 473c 9ce6 883c 6c99 f13b 44f9 b63b
00000160: 989f e73d 6a48 be3c eed6 ecbc 0c88 933c
00000170: f160 2a3d d58d cebc 2b4f 723c 4f43 143c
00000180: 6305 d53c d490 863c fef9 933c 52c4 1d3d
00000190: 79b8 983b 3102 39bc d717 903d ecdf b83c
000001a0: 0e53 f43d 7ea1 0d3d b1d8 d03c 19c8 873c
000001b0: dd1e 44bc 3ac2 173b 9e89 443d 4588 92bb
000001c0: c92e 93ba 894e 21bc 0c07 a93c 60a6 fd3b
000001d0: 9527 93bc 61a3 1e3c 3197 2b3d 630f 23ba
000001e0: 8adb 33bc 71b9 4a3d d094 813c 5f7c 5c3c
000001f0: 7811 4f3d c4e7 71bc f8bf 63bc 0e61 813c
00000200: 6875 ef3c c1c4 6b3b e39f 7cbc 1bb0 97bd
00000210: f0ce b4bc c505 5e3b 02d2 193b 66ec ddbb
00000220: 2a4f cc3c 1752 83bb 5c3d 6cbe f2c3 523c
00000230: 3263 bb3b 5023 393c a46e b93c f55c 733c
00000240: 7cb1 1dbc 191e 88bc aa9f 2a3a f0ad c338
00000250: 078d 2dbd a4e0 803b e6f5 4d3c 269d 703c
00000260: 6116 80be 551e de3c 23e9 873c 0331 283d
00000270: 293c 80bb 257b 863b 8d09 f8bb 2123 2abe
00000280: dfd2 073c 2b86 fd3c 9163 3ebc ef54 cc3c
00000290: 8b1f 893b 5dba 9a3c 666a c63b 4b95 1d3d
000002a0: aacd 6c3d 3b4c 7ebb 6dcf 1b3d ad9a 2e3c
000002b0: ab2c 73ba 9eaf 793c 4027 2ebb a281 c03c
000002c0: ebd8 60bc bbeb 393c b471 853c 6314 fcbb
000002d0: 9eb9 35bd 4f68 b33c f958 0f3b f9ff 823c
000002e0: 904b 023b 2d48 3c3d b505 2f3d 438b 023d
000002f0: 3774 933b 8819 783c c96e b63b 2d5f 623c
00000300: a67f 8c3b 52a8 c8b9 a1c4 e5bb 2f34 193c
00000310: c418 1d3c 5981 823b ed2b 75bd 8c4e 6e3d
00000320: 7c8d 933c 60e6 af3c 117a 603c 05c0 7b3c
00000330: e46d cb3b 06ca 8e3c 037c 27bc 19d1 a43b
00000340: 0c92 333c b6f0 033d bb82 853c e435 ba3c
00000350: 4c08 c23c 9317 8cbc e345 8c3c 20c0 d83c
00000360: 6dcf 1dbe 36d9 65bc b7a4 c4bd 68b6 9a3c
00000370: fd80 723d e978 0cbd 7e53 bdbc 01ac b13c
00000380: 3df7 443c e23f 323b b943 cd3c a037 453b
00000390: dd22 593c 462b 11bd 5537 d83a ff83 02bc
000003a0: 7c2c 0cbd 207c 95bb 5588 da3b fe1f 253b
000003b0: 5c5d 1cbc e603 5e3c 06fb b93c 4ff8 303d
000003c0: 0a94 c53c 20b2 913b 4e99 033d 70ee aa3c
000003d0: 0cd9 9cbc d39e 273d bbe6 a03b 6a87 0e3c
000003e0: a307 833d 4250 973c b816 893c 1d0a a53c
000003f0: 87f0 d33c b37b 833c b884 41bd dc4d 373d
0.051026557 0.0118687395 -0.045977026 0.020186584 0.002679212 0.028805075 -0.047095556 0.0038933489
-0.0098586995 -0.0022824078 0.013667066 0.025824316 0.010312652 0.00062785414 0.0070590414 -9.514214e-05
0.019367278 0.046182584 -0.2531823 0.0038549826 -0.003779726 -0.0871716 0.0047862455 0.008882118
0.025803119 -0.009671 0.008467737 -0.08785031 0.022170512 0.022976505 0.017061422 0.017702902
0.007561035 -0.003056619 0.020843334 -0.05526625 0.014976799 -0.012475861 0.017209418 0.02560538
-0.02878536 0.0400522 0.054660045 0.007418499 0.028733663 0.02204847 -0.058949668 0.014167738
0.01647275 -0.15735544 0.03561951 0.03970783 0.0394429 -0.020765407 -0.015517689 0.020167327
-0.052608103 0.024126658 0.038480014 0.00012016822 0.014797464 0.064026356 -0.0040169116 0.039695702
0.011046201 0.043813962 0.009821812 0.012930356 0.025819771 0.031234907 0.007650766 0.01815389
0.020281669 0.044084284 -0.028361673 -0.05216635 0.0010895449 -0.006671007 0.02406579 0.036982104
-0.022656664 0.0061076377 -0.018814037 0.013869905 0.012193322 0.016711526 0.0073730256 0.005583914
0.11309737 0.02322789 -0.02891108 0.018009208 0.041596357 -0.025214115 0.014789383 0.009049251
0.026003545 0.016426481 0.018063542 0.038517304 0.0046606627 -0.011292026 0.07035797 0.022567712
0.11929904 0.03457784 0.025493952 0.016574906 -0.011970249 0.002315654 0.047982804 -0.004471811
-0.0011229153 -0.009845384 0.020633243 0.0077407807 -0.01796321 0.009682507 0.041892234 -0.00062202493
-0.010977635 0.049493257 0.01581803 0.013457387 0.05055377 -0.01476473 -0.013900749 0.01579335
0.029230788 0.0035975429 -0.015418979 -0.07406636 -0.022071332 0.003387795 0.0023471122 -0.0067725657
0.024940092 -0.0040075886 -0.23070282 0.0128641 0.005718612 0.011299923 0.022635765 0.014853706
-0.009624835 -0.016615914 0.0006508777 9.330723e-05 -0.042370822 0.0039330292 0.012570834 0.014685905
-0.25017074 0.027114073 0.01659066 0.041062366 -0.0039134216 0.0041040354 -0.007569498 -0.16614963
0.008290022 0.030947765 -0.011620418 0.024942843 0.0041846684 0.018887693 0.006055164 0.038472455
0.057813324 -0.003880276 0.038039614 0.010656995 -0.00092763704 0.015239624 -0.0026573688 0.023499314
-0.013723592 0.011347706 0.01628957 -0.00769286 -0.04436647 0.021900324 0.00218731 0.015991198
0.0019881465 0.04596727 0.042730052 0.03187109 0.004499938 0.015142806 0.005567406 0.013816637
0.004287678 -0.0003827238 -0.0070119654 0.00935082 0.009588424 0.0039827046 -0.059856344 0.058180377
0.018011801 0.021472156 0.013700978 0.015365605 0.0062081683 0.017430317 -0.010222438 0.005029809
0.010960113 0.03221198 0.016297689 0.022730775 0.023685597 -0.017101085 0.017123168 0.0264588
-0.15411158 -0.014028838 -0.09601729 0.018885806 0.059205044 -0.034294996 -0.023111101 0.021688463
0.012021837 0.0027198722 0.025056707 0.003009297 0.013252941 -0.03544166 0.0016495982 -0.007966041
-0.03422211 -0.004561916 0.006669084 0.002519607 -0.009543743 0.013550734 0.022702705 0.043205556
0.024118442 0.004446283 0.032128625 0.020865649 -0.019146465 0.04092295 0.0049103177 0.008699277
0.06397941 0.018470887 0.016734466 0.020146424 0.025871528 0.016050195 -0.04724571 0.044751987

weight f4 [10354, 16]
00000000: 2b91 163d d644 0b3d 35ec 113d 0fad 013d
00000010: 42e9 0d3d 7ce9 193d 7bc1 173d 16b5 173d
00000020: 98e5 053d 3e70 083d ab39 133d 2c69 163d
00000030: 6192 173d 3f79 0c3d 0060 1a3d c4cf 1b3d
00000040: 112e 9a3b 0df6 593b 8f67 123c e99d ce3b
00000050: 6994 d33b b4d8 203b ffea d53b 82f2 083c
00000060: bcc5 f23b f475 053c 8f17 453b c0ec 3f3b
00000070: 75dd 123c 524f b73b 7675 393b 88e8 053c
00000080: 36ed e3bc 4b09 d8bc 364c fdbc 121f d2bc
00000090: aeb4 fabc a373 e7bc 1b04 d4bc b88c f6bc
000000a0: 97cd 0bbd 70ef 0cbd 6659 d5bc 6b06 ecbc
000000b0: e41d 05bd 9b44 08bd 3e83 06bd 8746 ffbc
000000c0: df82 b8b8 8245 dd38 2dd2 68ba c9a7 dbba
000000d0: a74c db3a a527 30bb 5df0 92bb 3f5c 083a
000000e0: e529 9cbb 9fcf 7dbb 4b7e 88bb 5260 ddba
000000f0: 28f5 33bb 3fd0 50bb 2c85 0eba 2e70 e13a
00000100: e648 283b 8eda a2ba ecf2 1fba 2a9c cc3a
00000110: d0f1 e4ba 63b0 933a bbb0 84bb 47d4 02bb
00000120: bbab f23a 26f0 823a 3050 683a 951c dc3a
00000130: 06d7 0c3b 2446 80bb 6df7 98bb 5cde 9fbb
00000140: a610 213c 9486 263c 6779 373c 1b32 013c
00000150: 6500 093c 1cfb 6b3c 8c69 563c 97e9 733c
00000160: 3dfb 083c e3b6 053c ac3d 473c 15fb 143c
00000170: ad85 1b3c 1405 613c 6dfa 523c e4ee 1b3c
00000180: 682d b9bb f49d d8ba f950 bb39 c615 a5bb
00000190: c24e 573a aea4 dabb 9942 e4bb 210a 90bb
000001a0: 06c7 d7bb 3c96 93b9 92f3 9abb b52e 02bb
000001b0: ecc7 a0bb 32d1 25bb 8e72 d6ba 03e1 e1bb
000001c0: eb90 aa3b 8d54 a53b 3314 7d3b aedf 00bb
000001d0: 293c bdb8 fda4 43ba c307 9dba a1b9 a33b
000001e0: d273 1e3b e835 e5ba 4654 9639 f75f fe39
000001f0: 4013 973b 3536 673b 0c5f 893b 01d4 19ba
00000200: 0015 e6b9 c97f 603b 8b0c 7fba d822 e43a
00000210: b270 8b3b 923b 9db8 9603 3eba f1f8 ab3b
00000220: 2202 1a3a 7264 fb3a ab9c ab3a 2faf d9b9
00000230: 5bbb f4b8 3fd9 d13a db24 6eb9 81ee a1ba
00000240: b74e 8dbc 49ba 8cbc 17ca a5bc 78c0 b5bc
00000250: 412c 82bc e249 87bc 846b 86bc 30fb 88bc
00000260: 8861 9ebc 2849 90bc 421d 9abc e0a0 b5bc
00000270: 45c8 a1bc e3e2 87bc 4c89 b0bc a3ec 95bc
00000280: 1884 393c 0742 1c3c 405e 5c3c 665d 0b3c
00000290: 1565 683c 9c4e 173c 16ae 503c 1d04 4b3c
000002a0: d55c 803c 078b 203c 9e43 673c 1f6f 7c3c
000002b0: b5d8 833c caeb 6b3c 8087 783c f367 843c
000002c0: 8dd7 e73c dfd8 f13c ef15 e83c d384 e93c
000002d0: f3c8 c33c f87d e13c 78a7 e33c bf1d e03c
000002e0: c24a e13c 7820 d93c 6b5d b73c 8dde ec3c
000002f0: e90c ba3c 00d7 b73c 1204 f33c e415 ee3c
00000300: cf01 393c 1f71 f63b c559 4c3c f9cb 313c
00000310: 0de3 333c f812 7e3c 114e 343c a47c 073c
00000320: f069 673c 0996 263c 277c 1d3c d160 293c
00000330: 6a58 023c 84b1 343c 9c25 0b3c 71ce 643c
00000340: f005 09bc 33b7 65ba 7fa7 9dbb 332e feba
00000350: ce1f f3bb fa8c 37bb 2604 0bbb ceac 9abb
00000360: a9c7 49bb fcf0 52bb d55a 3fbb fea1 b7bb
00000370: 98ee 47bb e952 29bb 9c4c b8bb d239 e4bb
00000380: ff6d 68bb e639 9f3a 7d35 aeba 3326 0c3b
00000390: 8ce5 dc37 73af a2bb aeaf e5ba b000 ee39
000003a0: e3f9 a6bb 5a3a 66bb a28e 94bb cb90 25bb
000003b0: 8875 0b3b dbd8 b0ba 2637 0b3b 38d8 bfba
000003c0: d551 01bc bb2b 60bc 18a0 08bc 0521 f6bb
000003d0: f68e 0cbc 60b5 30bc 439a 11bc f653 4bbc
000003e0: 7fca 1cbc 9f62 e0bb bb05 35bc 9249 54bc
000003f0: d308 dcbb ddbe 04bc 58f5 2cbc 4e1c dfbb
0.036759537 0.034001194 0.035625655 0.031659182 0.03464628 0.037576184 0.03704975 0.03703793
0.03268966 0.033310167 0.03594367 0.036721393 0.037004832 0.034295317 0.03768921 0.038039938
0.0047051986 0.003325823 0.008935823 0.0063054455 0.006456901 0.0024543228 0.006528258 0.0083586
0.0074088257 0.008145798 0.0030073856 0.00292854 0.008963932 0.0055941725 0.0028298772 0.008173116
-0.027823072 -0.026371619 -0.03092013 -0.025649581 -0.030603733 -0.028253382 -0.025880864 -0.030096397
-0.034131613 -0.034408033 -0.026043605 -0.028811654 -0.03249921 -0.033268552 -0.032840006 -0.03116156
-8.79818e-05 0.00010551048 -0.0008881416 -0.0016758378 0.0016731218 -0.0026879099 -0.00448422 0.0005201734
-0.0047657364 -0.0038728488 -0.004165446 -0.0016889668 -0.0027459357 -0.0031862406 -0.0005436714 0.001719957
0.0025678216 -0.0012424754 -0.0006101567 0.0015610505 -0.0017467085 0.0011267777 -0.004049388 -0.0019962953
0.0018514314 0.0009989783 0.00088620465 0.0016793186 0.0021490469 -0.0039146114 -0.0046681673 -0.004878802
0.009830629 0.010163922 0.011198378 0.007885481 0.0083619105 0.014403131 0.013086688 0.014887235
0.008360681 0.008161279 0.0121607 0.009093066 0.00949232 0.013734121 0.012877089 0.009517405
-0.005651165 -0.0016526566 0.0003572775 -0.005037996 0.0008213335 -0.0066724634 -0.006965947 -0.0043957387
-0.0065850047 -0.00028149958 -0.004728743 -0.0019864265 -0.004906645 -0.0025301692 -0.0016361044 -0.0068932786
0.005205264 0.0050454796 0.0038616776 -0.0019664573 -9.023428e-05 -0.0007463245 -0.0011980463 0.004996494
0.002417792 -0.0017487379 0.00028673018 0.00048518155 0.004610449 0.0035280113 0.0041922387 -0.0005868078
-0.00043884665 0.0034255853 -0.0009729347 0.0017405404 0.0042553777 -7.497439e-05 -0.0007248459 0.005248182
0.00058749516 0.0019179715 0.0013092955 -0.00041519987 -0.00011669724 0.0016010179 -0.00022711178 -0.0012354405
-0.017249448 -0.017178671 -0.020237966 -0.022186503 -0.015890243 -0.016514722 -0.01640869 -0.016721338
-0.019333616 -0.017613009 -0.01881278 -0.022171438 -0.019748816 -0.01658768 -0.021549843 -0.018301314
0.0113229975 0.0095372265 0.013450205 0.008506155 0.014184256 0.0092350505 0.012736818 0.012391117
0.015669266 0.009798772 0.014115242 0.015407353 0.016094545 0.014399478 0.0151690245 0.016162848
0.028301025 0.029522358 0.028330771 0.028505718 0.023899531 0.027525887 0.027789816 0.027357934
0.027501468 0.02650474 0.022383412 0.028914714 0.022711234 0.022441387 0.029665027 0.029063173
0.011291935 0.0075208093 0.012472575 0.0108518535 0.010979426 0.015507452 0.011004941 0.008269463
0.014124379 0.010167607 0.00961212 0.010338024 0.00795565 0.011028651 0.0084928535 0.013965235
-0.008363232 -0.00087629555 -0.004811227 -0.001939243 -0.007419563 -0.0028007613 -0.002121219 -0.004720307
-0.0030789173 -0.0032187095 -0.0029198427 -0.005604028 -0.0030507203 -0.0025836772 -0.005624367 -0.0069649005
-0.0035465953 0.0012147992 -0.0013291087 0.0021385073 2.6332935e-05 -0.004964763 -0.001752367 0.0004539541
-0.005095707 -0.0035129995 -0.0045336047 -0.0025263305 0.002127977 -0.0013492362 0.0021242588 -0.0014636582
-0.007893045 -0.013682301 -0.008338951 -0.0075112605 -0.008579006 -0.010785431 -0.0088868765 -0.012410155
-0.009569763 -0.006847694 -0.0110487295 -0.012956994 -0.006714919 -0.008102146 -0.010556541 -0.006808794

weight f4 [8, 16]
00000000: 933f c5bc 2a83 903c 22a4 df3c 3f60 7e3c
00000010: b429 26bc cf88 283d 6c61 8bbc ed7e b3bc
00000020: d9f9 343c 183b 1d3c 7a26 17bd 8478 dcbc
00000030: 8a6c 0b3b 65be 643a b471 f23c b6b4 efbc
00000040: f063 67bc c89c fd39 4744 26bc a0b7 bfbc
00000050: 60c0 233d 4ad6 58bc 8fbb 6f3c 66b6 d3bc
00000060: a3a6 d3bc 7b87 033d f29b 0c3c 0c67 fc3b
00000070: c35a 78bc 21ce 7b3c 661f 1b3d ccc2 e6bb
00000080: 432f d33c 68d0 dcbc 8305 113c 39fb 9cbc
00000090: c87b 5fbc 41f8 13bd 3615 acba c56c 7fbc
000000a0: 17a5 1dbd 0b0d 58bc afbe 5abb 5c0b 59bb
000000b0: 55da b13b 12c5 da3c 69d9 393c 64bc 0cbd
000000c0: a621 f7bc eb4b c4bc c861 89bc 684a c03c
000000d0: 6996 24bd 2f89 2c3c 6515 8d3c 8b25 9ebc
000000e0: 4f5d 18bd cad0 bdbc 62c2 20bd 702f 8fbc
000000f0: f8e4 a43b 0a91 233a fb4c e53b fb05 f63c
00000100: 1c92 f9bb f229 2d3c 934e d6bb b6ab 19bc
00000110: e66a f8bc c9ce 82ba a5c7 febb 4c0c 4039
00000120: 215b fd3b d92f 2b3d b1f8 dd3c cd11 1bbc
00000130: 0394 a83c 8a29 933b a776 9d3b 1f0a 25bd
00000140: 9084 96bc 75b4 10bc 2cb2 efbc 63ee b73b
00000150: c86b a73c 578a dabc c1c0 12bd a20a babc
00000160: 707e e23c 8f14 0ebc 6ac8 cf3c ae12 fdbc
00000170: 21d7 33bc 7c15 e13a 9fee d73c 0041 2c3d
00000180: 99f8 0ebd 7963 3e3c d6f1 b23c b4bc 823b
00000190: b8af 9fbc a435 263d 4b3c ae3c f526 ce3c
000001a0: 61ed ca3a ce2a b0bc cdaa 96bc f21a 9cbc
000001b0: 3977 0cbd 4b7a 8b3b 97e2 673c 85de 1fbd
000001c0: 8609 453c 38fb 223c 6092 80bb f62d 10bc
000001d0: 0f0c 123d 96f9 713c 9731 a6bc 983c c33c
000001e0: 0414 683c 31c7 21bd 6793 1d3d c2a3 0d3d
000001f0: b3f9 2b3c 7975 54bc 496a 223d ef23 163d
-0.024078166 0.017640669 0.027299944 0.015525877 -0.010141779 0.041146096 -0.017014228 -0.021911109
0.011045896 0.009596609 -0.03690193 -0.026912935 0.002127441 0.0008725881 0.029595234 -0.029260974
-0.014122948 0.00048372732 -0.0101481145 -0.023402989 0.039978385 -0.013234684 0.01463212 -0.02584381
-0.025836295 0.032111626 0.008582102 0.007702714 -0.015158358 0.015368969 0.03787174 -0.0070422646
0.025779372 -0.026954845 0.008851412 -0.019162761 -0.013640352 -0.036125425 -0.001312888 -0.0155898975
-0.03848752 -0.013186703 -0.0033377816 -0.0033118343 0.0054276385 0.026705299 0.0113433385 -0.03435935
-0.030167412 -0.023961982 -0.016770259 0.02347298 -0.040182505 0.010530754 0.017222116 -0.019305011
-0.03719836 -0.023170847 -0.039247878 -0.017478675 0.005032178 0.0006239569 0.006997702 0.030032149
-0.0076162945 0.010569083 -0.0065401285 -0.009379318 -0.03032441 -0.000997984 -0.0077752643 0.00018315128
0.0077318107 0.041793678 0.027096124 -0.009464693 0.02057839 0.004491036 0.004805404 -0.040292855
-0.018373758 -0.008832087 -0.029259764 0.0056131347 0.020437136 -0.026677294 -0.035828356 -0.022710148
0.02764818 -0.008671894 0.02536412 -0.030892696 -0.010976584 0.001717254 0.0263589 0.042054176
-0.03490505 0.011620396 0.021843832 0.0039897803 -0.019492969 0.0405785 0.021268984 0.02516506
0.0015482121 -0.021504786 -0.018391991 -0.019055817 -0.034293387 0.004256522 0.014153144 -0.03903057
0.012026196 0.0099475905 -0.0039236993 -0.00880002 0.03565603 0.014768979 -0.020287318 0.023832604
0.014164928 -0.039496604 0.038470652 0.03458 0.010496545 -0.012967461 0.039652143 0.036655363

bias f4 [8]
00000000: a010 8dbc 88d5 94bb 8cbe ecbc c841 da3c
00000010: cd65 28bd 8fd5 18bd d971 893a 42f7 0a3d
-0.017219841 -0.0045420565 -0.028899454 0.026642695 -0.04111271 -0.03731304 0.00104862 0.03392721

weight f4 [4, 8]
00000000: 7768 e83a 6b61 5a3d bfeb a9bc 3f09 763b
00000010: 7225 24bd e99b 4b3d e7bf dbbc 7df9 6fbd
00000020: 47f7 af3c 4417 0a3b 9529 67bb 78db 50bc
00000030: 03ea a83c fc29 33bd 7f24 c8bc 5fe1 b63c
00000040: 5ee1 6b3d 4186 58bd 100d 673d 318b 493c
00000050: 2038 42bd 4fcc 0abd e056 3e3d 4c62 2e3d
00000060: 404e 6dbd 5cb6 3fbd 7ce8 6bbd ea9e 67bd
00000070: 96b2 fbbc 0210 483d 19c7 0ebd 549a 2dbd
0.0017731328 0.05331556 -0.020742295 0.0037542132 -0.040074773 0.049709234 -0.026824905 -0.05858754
0.021480216 0.0021070996 -0.0035272588 -0.012747638 0.020619398 -0.04374121 -0.024431465 0.022324262
0.057587974 -0.05286241 0.05640894 0.012301252 -0.047416806 -0.03388625 0.04646957 0.042574212
-0.057935953 -0.04680477 -0.05759476 -0.056548037 -0.030724805 0.04884339 -0.034857843 -0.042383507

bias f4 [4]
00000000: 9945 803c 0003 46bb 1c20 293d e714 3ebd
0.015658187 -0.003021419 0.041290388 -0.046406653

weight f4 [2, 4]
00000000: 0193 3d3d bb71 813d f55f 923d 277e 80bd
00000010: b2bb 6e3c b480 fc3c 26e0 6b3c 5056 973c
0.046282772 0.063205205 0.071472086 -0.06274062 0.014571117 0.03082309 0.014396703 0.018473774

bias f4 [2]
00000000: 2617 0e3d ed48 4abd
0.034690045 -0.049385954

weight f4 [1, 2]
00000000: 378f a7bc 66a3 ceb9
-0.020454032 -0.00039413123
