model_deployment1/mlruns/10/4639ccdb1df747f7988514e0986c4f7f/artifacts/model/data/model.pth (torch, 711639 bytes, 9 tensors)

weight f4 [1, 10354]
0	0x3d66f222	0.05638326
1	0x3c5b6f32	0.01339321
2	0xbcce8439	-0.025209533
3	0x3c502f2a	0.012706557
4	0xbbfbfbd5	-0.007689933
5	0x3cdab8f4	0.02669952
6	0xbd3464ca	-0.044041432
7	0xbc5980b9	-0.013275319
8	0xbaf06401	-0.001834035
9	0xbbc8a239	-0.006122854
10	0x3c73d51d	0.014882353
11	0x3afa2a8a	0.0019086164
12	0x3c43f5c5	0.0119604515
13	0x3a50406c	0.000794417
14	0xbb8523dd	-0.004063113
15	0xbc278c8e	-0.010226382
16	0x3cd157a4	0.025554486
17	0x3d1abdc1	0.03777862
18	0xbe668b46	-0.22514066
19	0x3bd964f3	0.0066343485
20	0xbcf61cf4	-0.030043103
21	0xbd31eaca	-0.043436803
22	0xbb6c7a34	-0.003608358
23	0x3b956637	0.004559304
24	0x3c961b57	0.018323584
25	0xbc4527d2	-0.01203342
26	0xbbe3ea26	-0.006955403
27	0xbdeb1e3c	-0.11480376
28	0x3ce19b4f	0.027539877
29	0x3cbe3f4a	0.023223538
30	0x3c36e8bb	0.011163886
31	0x3cac3566	0.021021556
32	0x3ca33314	0.019921817
33	0x39a1ab82	0.00030836096
34	0x3b9168cb	0.004437541
35	0xbd370300	-0.044680595
36	0x3c18ca1f	0.009325533
37	0xbca7872f	-0.020450203
38	0x3ca5b070	0.020225734
39	0x3cc75329	0.024331646
40	0xbd35cc32	-0.04438419
41	0x3cf192f1	0.029489012
42	0x3d8f5c33	0.070000075
43	0x3c2aff69	0.010436871
44	0x3cdec0ff	0.027191637
45	0x3cc45514	0.02396635
46	0xbd5c8b1e	-0.05384361
47	0x3c951ede	0.018203195
48	0x3c86fc40	0.016477704
49	0xbdfbbaba	-0.12291475
50	0x3d0522e6	0.032503985
51	0x3d4e407d	0.05035447
52	0x3cc6032d	0.024171436
53	0xbc7af579	-0.015317314
54	0x3b2aa17b	0.0026036191
55	0x3cbd7658	0.02312772
56	0xbccb69e2	-0.024830762
57	0x3d006343	0.031344663
58	0x3d0ca63a	0.034338214
59	0xbaf2909a	-0.0018506229
60	0x3bb84862	0.005623863
61	0x3d6025dc	0.054723606
62	0x3c93ccc2	0.018041972
63	0x3cacb0f5	0.021080473
64	0x3b76ef02	0.003767908
65	0x3d22d998	0.039758295
66	0x3caae6f0	0.020862073
67	0xbcf16d03	-0.029470926
68	0x3d0ffd20	0.03515351
69	0x3d0aa67f	0.03385019
70	0x3bdc6337	0.0067256945
71	0x3cdc30f6	0.026878815
72	0x3ca2642e	0.01982316
73	0x3d350c95	0.044201452
74	0xbc6cefe2	-0.014461489
75	0xbd1530d9	-0.036423538
76	0x3b95b00e	0.0045681065
77	0xbc87679b	-0.016528895
78	0x3cec567a	0.028849829
79	0x3d0c2bf8	0.03422162
80	0xbbab28f4	-0.005223388
81	0xbb955202	-0.0045568952
82	0xbc2351f7	-0.009968272
83	0x3cda11e2	0.026619855
84	0x3bc40280	0.0059817433
85	0x3b510441	0.0031893405
86	0x38c72764	9.4963965e-05
87	0xbbb7316f	-0.0055906097
88	0x3d0e78d0	0.034783185
89	0x3c90bbed	0.017667735
90	0xbb8553a4	-0.0040688086
91	0xb9618fe3	-0.00021511274
92	0x3d28696f	0.041116174
93	0xbd047c0f	-0.032344874
94	0x3d03ca1a	0.03217516
95	0x3c19337b	0.009350653
96	0x3c5d5586	0.01350916
97	0x3cca4849	0.024692671
98	0x3bcec224	0.0063097645
99	0x3ce72749	0.028216975
100	0xbc59ed32	-0.013301181
101	0xbbd9724f	-0.006635941
102	0x3d043c95	0.032284338
103	0xbc1d4a15	-0.009600182
104	0x3da3f186	0.08005051
105	0x3d1d3511	0.038380686
106	0x3cb1645d	0.021654302
107	0x3cb1854a	0.021670002
108	0xbc63167f	-0.013860344
109	0x3c6a4be3	0.014300319
110	0x3c07e259	0.008293712
111	0x3ba6b715	0.005087743
112	0xbb2e31d6	-0.0026579998
113	0xbc17f9bd	-0.009275851
114	0x3d1b0328	0.037844807
115	0xbbb9b68d	-0.0056675137
116	0xbccb2adc	-0.02480071
117	0x3c33cd0e	0.010974182
118	0x3d5db24a	0.054125108
119	0xbb746179	-0.0037289544
120	0xbc0e4e0f	-0.008685603
121	0x3d62b4c5	0.055348177
122	0x3bd43dcd	0.006477094
123	0x3c1c5548	0.009541817
124	0x3d02f98d	0.03197627
125	0xbc960c87	-0.01831652
126	0xbc476193	-0.01216926
127	0x3c878bfb	0.01654624
128	0x3d218e72	0.039442487
129	0x3ad91ee1	0.0016564989
130	0xbc9978d0	-0.018734366
131	0xbd7d1da2	-0.06179584
132	0xbc539190	-0.012913123
133	0xbc12cffa	-0.008960718
134	0x3b558909	0.00325829
135	0xbc2fcaa1	-0.010729463
136	0x3c98bee6	0.018645715
137	0xbbbc8c4d	-0.00575403
138	0xbe2eee9f	-0.17083214
139	0xb9618015	-0.00021505386
140	0xba7d0279	-0.00096515525
141	0x3c48a8d1	0.01224728
142	0x3b55912f	0.0032587757
143	0x3a5e46b6	0.00084791647
144	0xbc5b4947	-0.01338417
145	0xbc88a709	-0.016681211
146	0x3c275654	0.010213453
147	0x3aa05410	0.0012232084
148	0xbcd270e7	-0.025688602
149	0xbc270e93	-0.010196346
150	0x3c1ceb9b	0.009577657
151	0x3c6f93a6	0.0146226045
152	0xbe2c42a8	-0.16822302
153	0x3ca3ce9f	0.019995986
154	0x3be3a125	0.0069467
155	0x3ceb1887	0.028698219
156	0x399df0b1	0.00030124703
157	0x3c365407	0.011128432
158	0xbc4463b7	-0.0119866645
159	0xbe30c7b0	-0.17263675
160	0x3c554bca	0.013018558
161	0x3d00431b	0.031313997
162	0xbbc6f2d0	-0.006071426
163	0x3c94e2e1	0.01817459
164	0x3c7af56a	0.0153173
165	0x3c7ade34	0.015311766
166	0x3c4afe0d	0.012389672
167	0x3cf3d598	0.029764935
168	0x3d5eb824	0.05437483
169	0x3bd685d7	0.0065467167
170	0x3d3f46da	0.04669843
171	0x3c88e81f	0.016712246
172	0x3b802d1a	0.0039116265
173	0x3bb8aa90	0.005635567
174	0xbc5aef03	-0.013362649
175	0x3c0b8bbf	0.008517205
176	0xbd312e14	-0.043256834
177	0x3c73b002	0.0148735065
178	0x3c97b01c	0.018516593
179	0x3b8ed3ad	0.00435873
180	0xbd17ed6e	-0.037091665
181	0xbc28aecf	-0.010295584
182	0xbbaa3d63	-0.005195306
183	0x3bdecbcc	0.006799197
184	0xbc0cdae4	-0.0085971095
185	0x3d2ce6f3	0.042212438
186	0x3c4c5d64	0.012473438
187	0x3cf6cd84	0.030127294
188	0xbb42f718	-0.002974933
189	0x3cb1ad32	0.021689031
190	0x3b05e1ec	0.002042885
191	0x3c9148de	0.017734941
192	0x3bb8e400	0.005642414
193	0x3b43a7cb	0.002985465
194	0x3a17b298	0.00057868054
195	0x3a8ef4ed	0.0010906734
196	0x3c936385	0.01799179
197	0xbc8401b5	-0.016114095
198	0xbd41648a	-0.047215022
199	0x3d299053	0.041397404
200	0x3d074f7d	0.03303479
201	0x3d2f880a	0.042854346
202	0x3c9782ee	0.01849505
203	0x3cac514b	0.021034857
204	0x392db1c4	0.00016564789
205	0x3c3e54c5	0.01161689
206	0xbc33216d	-0.010933262
207	0x3c1423f3	0.009041774
208	0xbab5b3a3	-0.001386274
209	0x3cea1c7a	0.028578032
210	0x3ce33645	0.027735839
211	0x3bbe634d	0.0058101774
212	0x3c4984d6	0.012299737
213	0xbba04d22	-0.0048920074
214	0x3ccd9750	0.025096565
215	0x3cf0293a	0.029316533
216	0xbe2ae568	-0.16689074
217	0xbc7a5479	-0.015278929
218	0xbd6a7fce	-0.05725079
219	0x3d13ebe5	0.03611364
220	0x3d6c04a1	0.057621602
221	0xbd045753	-0.03230984
222	0xbcbd970c	-0.023143314
223	0x3c1f7aff	0.009733914
224	0x3bd2a9ec	0.0064289477
225	0x3c692b3e	0.014231501
226	0x3cc74686	0.02432562
227	0xbb820e1a	-0.003968966
228	0x3bffd303	0.007807137
229	0xbd047e54	-0.03234704
230	0x3c3ab009	0.011394509
231	0xbc7cc654	-0.0154281445
232	0xbcd8056f	-0.026369778
233	0xbc740868	-0.014894582
234	0xbbec57be	-0.007212608
235	0xbaa91346	-0.0012899421
236	0xbc27ebee	-0.010249121
237	0x3c826c2d	0.015920723
238	0x3ce6c2c9	0.028169053
239	0x3d1b85ba	0.03796933
240	0x3cc7d035	0.024391273
241	0x3c0b431f	0.00849989
242	0x3c8d5c78	0.017256007
243	0x3ca83081	0.020530941
244	0xbc8c1ea9	-0.017104464
245	0x3d607142	0.05479551
246	0x3bd382d2	0.006454804
247	0x3c179d2d	0.009253782
248	0x3d6cd127	0.05781665
249	0x3c03f91a	0.008054996
250	0x3c0b5a76	0.008505454
251	0x3bd5f796	0.0065297587
252	0x3c5e699d	0.013574985
253	0x3c9b3f63	0.018951124
254	0xbd0a6d51	-0.03379566
255	0x3d165469	0.036701594

weight f4 [10354, 16]
0	0x3d344219	0.044008348
1	0x3d06f9cf	0.03295308
2	0x3d21a75f	0.03946626
3	0x3cc10b8c	0.023565076
4	0x3d119029	0.035537872
5	0x3d41b0ab	0.047287624
6	0x3d3909e5	0.04517545
7	0x3d38d854	0.04512818
8	0x3ce2df42	0.027694348
9	0x3cf73d96	0.030180734
10	0x3d26dd94	0.040738657
11	0x3d33a3b2	0.043857284
12	0x3d384a69	0.044992838
13	0x3d0bce58	0.03413233
14	0x3d4389e6	0.047738932
15	0x3d4949ed	0.049142767
16	0x399b2870	0.00029594032
17	0xbba2b6cd	-0.004965639
18	0x3c8698a8	0.016430214
19	0x3bd1aef2	0.006399029
20	0x3be49aee	0.006976477
21	0xbc07d09e	-0.008289484
22	0x3bed83e9	0.007248391
23	0x3c691fcc	0.014228772
24	0x3c2dc740	0.010606587
25	0x3c5bd5ec	0.013417702
26	0xbbca7ece	-0.006179667
27	0xbbd456d5	-0.0064800777
28	0x3c877c96	0.0165389
29	0x3b719058	0.0036859717
30	0xbbe0ad85	-0.0068566226
31	0x3c5d9031	0.013523147
32	0xbc798e16	-0.01523163
33	0xbc26b71c	-0.010175493
34	0xbcd5442a	-0.02603348
35	0xbbfaf52b	-0.007658621
36	0xbccc32fe	-0.024926659
37	0xbc892051	-0.016739042
38	0xbc0ab57c	-0.008466121
39	0xbcbdbe51	-0.023162039
40	0xbd187bf2	-0.03722758
41	0xbd1c6ce0	-0.03818977
42	0xbc13ef93	-0.009029287
43	0xbc990600	-0.018679619
44	0xbd012aa9	-0.031534825
45	0xbd0c2a08	-0.03421977
46	0xbd060c46	-0.03272655
47	0xbcdc220a	-0.0268717
48	0x3bfc2230	0.007694505
49	0x3c0a5082	0.008442046
50	0x3b962605	0.004582169
51	0x3ac80174	0.0015259222
52	0x3c6e1a0c	0.014532577
53	0xbb1dcf45	-0.002407984
54	0xbc19ba2b	-0.009382765
55	0x3c24af1f	0.010051518
56	0xbc2ba30e	-0.010475887
57	0xbbe5962f	-0.0070064287
58	0xbc0568b8	-0.008142643
59	0x3ac176f6	0.0014760185
60	0xbb2c2a45	-0.0026270312
61	0xbb8e3ea4	-0.0043409634
62	0x3bc20d4a	0.0059219943
63	0x3c712688	0.014718659
64	0x3c8399f6	0.016064625
65	0x3ad24929	0.0016043532
66	0x3b833197	0.0040037143
67	0x3c4898c8	0.012243457
68	0xb9a1d4ac	-0.00030866766
69	0x3c2d95f8	0.010594837
70	0xbc143c17	-0.00904753
71	0xbaa4b157	-0.0012565058
72	0x3c5aa5e0	0.013345212
73	0x3c25a7fc	0.010110851
74	0x3c1ea4a1	0.009682805
75	0x3c4ff462	0.012692543
76	0x3c6d29bc	0.014475282
77	0xbc0bd9d1	-0.008535818
78	0xbc3ab4ac	-0.011395615
79	0xbc47c95e	-0.012194006
80	0xbb7c5b4b	-0.0038506563
81	0xbb26ac70	-0.002543237
82	0x3ac5fd0f	0.0015105325
83	0xbc3bf972	-0.011473047
84	0xbc1d5fd9	-0.009605371
85	0x3c668d94	0.014071841
86	0x3c11fdd7	0.008910618
87	0x3c82d0b8	0.015968665
88	0xbc1d758a	-0.009610543
89	0xbc2a4f3c	-0.0103948675
90	0x3bad1a05	0.005282643
91	0xbbdcd835	-0.006739641
92	0xbba99b9b	-0.0051760203
93	0x3c3b8f64	0.011447761
94	0x3c049272	0.008091556
95	0xbba6587e	-0.005076467
96	0xbced99ad	-0.029003942
97	0xbc7419bc	-0.014898714
98	0xbbffe21c	-0.0078089368
99	0xbcdbe027	-0.026840283
100	0xbbca480a	-0.0061731385
101	0xbd058c26	-0.03260436
102	0xbd09ca6c	-0.03364031
103	0xbcc94f43	-0.024573928
104	0xbd044970	-0.032296598
105	0xbc24e10b	-0.01006342
106	0xbcd2f0f9	-0.02574967
107	0xbc83b3cf	-0.01607695
108	0xbcd816d0	-0.026378065
109	0xbc936908	-0.017994419
110	0xbc732509	-0.014840373
111	0xbd08bf65	-0.033385653
112	0x3c890273	0.0167248
113	0x3c840cf1	0.016119452
114	0x3c3e95b3	0.011632371
115	0xbc2b5cdd	-0.010459152
116	0xbb5b62f3	-0.0033475726
117	0xbbbf2c5a	-0.0058341445
118	0xbbf747f5	-0.0075464197
119	0x3c8287a8	0.015933827
120	0x3bc9d2fe	0.0061591854
121	0xbc1dd826	-0.009634053
122	0xbafb7c9a	-0.0019186914
123	0xba98e38d	-0.0011664495
124	0x3c6d147e	0.014470218
125	0x3c29dc7a	0.010367507
126	0x3c531c9a	0.012885237
127	0xbbab5fee	-0.0052299416
128	0xbc38b464	-0.011273477
129	0x3b443fe8	0.0029945318
130	0xbc590c24	-0.013247523
131	0xbb538b86	-0.0032279207
132	0x3bc69042	0.0060596773
133	0xbc22bd68	-0.009932853
134	0xbc4a0b8d	-0.0123318555
135	0x3c1f517b	0.009724016
136	0xbbf54206	-0.0074846772
137	0xbb287ff1	-0.0025711025
138	0xbb9de848	-0.00481895
139	0xbc3749aa	-0.0111869965
140	0xbc253979	-0.010084503
141	0xbb754945	-0.0037427705
142	0xbc2beea3	-0.010493907
143	0xbc68e9ea	-0.014215926
144	0xbc180b90	-0.0092801
145	0xbc13ba0d	-0.009016526
146	0xbca77862	-0.020443145
147	0xbce3173e	-0.027721044
148	0xbb89c07f	-0.0042038555
149	0xbbd63ca3	-0.00653799
150	0xbbc93e8f	-0.006141491
151	0xbbef7ed6	-0.007308821
152	0xbc8bcbb6	-0.01706491
153	0xbc2e4c5d	-0.010638324
154	0xbc77b665	-0.01511917
155	0xbce29f71	-0.027663918
156	0xbc987ed3	-0.018615162
157	0xbbdf2308	-0.006809596
158	0xbccf9c41	-0.025343062
159	0xbc586b7f	-0.013209223
160	0x3b3d1714	0.0028852867
161	0xbb818faf	-0.003953896
162	0x3c34b4e2	0.011029454
163	0xbc01756d	-0.007901532
164	0x3c62c625	0.013841187
165	0xbba77caf	-0.005111299
166	0x3c07f3d6	0.008297881
167	0x3be48583	0.0069739236
168	0x3c9ff6fb	0.01952695
169	0xbb417330	-0.002951812
170	0x3c5e7152	0.013576822
171	0x3c97c16c	0.018524848
172	0x3cad50d8	0.021156713
173	0x3c704524	0.014664922
174	0x3c90469e	0.017611798
175	0x3caf764f	0.021418719
176	0x3cad4eeb	0.021155795
177	0x3cd4be9d	0.025969798
178	0x3cae4a79	0.021275746
179	0x3cb3f005	0.021965036
180	0x3b7a15c9	0.0038159958
181	0x3c9453e4	0.018106408
182	0x3c9cd65f	0.019145189
183	0x3c8ee557	0.017443342
184	0x3c9383e7	0.018007232
185	0x3c66acdc	0.014079299
186	0xbb0d5dd7	-0.0021570825
187	0x3cc11fc7	0.023574723
188	0xba62da88	-0.00086537795
189	0xbafc9557	-0.0019270581
190	0x3cd95bce	0.026533034
191	0x3cc5eae6	0.02415986
192	0x3b159b6f	0.0022828241
193	0xbc464540	-0.012101471
194	0x3bde63c6	0.0067867963
195	0x3a1e7cd0	0.000604582
196	0x3a8efb67	0.0010908664
197	0x3c966ebf	0.018363355
198	0x3a9bcd44	0.0011886735
199	0xbc177b2e	-0.009245677
200	0x3c566c56	0.013087353
201	0xbb037444	-0.0020058313
202	0xbb872806	-0.004124644
203	0xbab1ae78	-0.0013556024
204	0xbc2b19d7	-0.010443172
205	0x3aa7a0aa	0.001278897
206	0xbc098527	-0.008393562
207	0x3c4c793e	0.012480078
208	0xbcb44f1f	-0.022010384
209	0x3bc68132	0.0060578818
210	0xbc0e7947	-0.008695907
211	0x3b07c28f	0.0020715331
212	0xbc9752a8	-0.01847203
213	0xba97e882	-0.0011589678
214	0x3ab5fbbf	0.001388423
215	0xbc08e0a8	-0.0083543435
216	0xbb10256b	-0.002199496
217	0xbb328b84	-0.0027243802
218	0xbad1ed2e	-0.001601612
219	0xbc3f2181	-0.011665703
220	0xbb09302c	-0.0020933254
221	0xb9b48018	-0.00034427713
222	0xbc4067f3	-0.011743533
223	0xbc895d2c	-0.01676806
224	0xbc81004f	-0.015747217
225	0x3b1be436	0.0023787147
226	0xbbef6a56	-0.0073063774
227	0x3bc13119	0.0058957455
228	0xbb0c982a	-0.0021453002
229	0xbcad3e51	-0.021147879
230	0xbc121aa6	-0.008917486
231	0xba07d6c0	-0.00051818416
232	0xbcb152b0	-0.021645874
233	0xbc7fe9bf	-0.015619694
234	0xbc9fc96e	-0.019505229
235	0xbc425e38	-0.011863284
236	0x3bbfe8cd	0.0058566094
237	0xbbf1e850	-0.00738243
238	0x3bbf677e	0.0058411947
239	0xbc0011c5	-0.007816737
240	0x3be9afb9	0.0071315435
241	0xbc709258	-0.014683329
242	0x3bb2aa67	0.0054524424
243	0x3c0c6d04	0.008570913
244	0x3b94fe8a	0.004546945
245	0xbb76d582	-0.0037663882
246	0x3b5e0215	0.0033875753
247	0xbc220603	-0.009889129
248	0x3a555e77	0.00081393815
249	0x3c35634f	0.01107104
250	0xbb9bf779	-0.0047597256
251	0xbc43cdb4	-0.011950899
252	0x3c3d9441	0.011570991
253	0x3bcfe3c6	0.0063442914
254	0xbb3e585d	-0.0029044368
255	0x3c37c794	0.011217017

weight f4 [8, 16]
0	0xbdb9449e	-0.09046291
1	0x3d87bc2d	0.066276886
2	0x3dd20eb5	0.102567114
3	0x3d6eecf5	0.05833145
4	0xbd1c1212	-0.03810317
5	0x3e1e4c47	0.15458785
6	0xbd82ea36	-0.063923284
7	0xbda897ef	-0.08232104
8	0x3d29fbe1	0.041499976
9	0x3d13ae5b	0.03605495
10	0xbe0df840	-0.13864231
11	0xbdcf146f	-0.10111319
12	0x3c02f4a7	0.0079929
13	0x3b56d9ae	0.0032783556
14	0x3de3b7fb	0.11119076
15	0xbde1258f	-0.10993492
16	0xbd595615	-0.05306061
17	0x3aee3560	0.0018173866
18	0xbd1c2b01	-0.03812695
19	0xbdb412ac	-0.08792624
20	0x3e19ce35	0.15020068
21	0xbd4baaba	-0.049723364
22	0x3d612bff	0.0549736
23	0xbdc6da81	-0.09709645
24	0xbdc6cba4	-0.0970681
25	0x3df714aa	0.12064488
26	0x3d04119e	0.032243364
27	0x3ced1281	0.028939487
28	0xbd694520	-0.05695069
29	0x3d6c82d7	0.057741966
30	0x3e11b36c	0.142286
31	0xbcd8beba	-0.026458133
32	0x3dc65b8e	0.096854314
33	0xbdcf6701	-0.10127068
34	0x3d083695	0.03325518
35	0xbd937256	-0.07199542
36	0xbd51e8d6	-0.05124744
37	0xbe0afb78	-0.1357249
38	0xbba1a17e	-0.0049325814
39	0xbd6fe932	-0.058572
40	0xbe1411e9	-0.14459957
41	0xbd4aedb2	-0.04954309
42	0xbc4d756e	-0.012540204
43	0xbc4bdc90	-0.012442723
44	0x3ca70ce2	0.020391885
45	0x3dcd7b75	0.10033313
46	0x3d2e8f9f	0.042617436
47	0xbe04301d	-0.12908979
48	0xbde8103a	-0.1133122
49	0xbdb84b5c	-0.08998749
50	0xbd80e76e	-0.06294142
51	0x3db4c27a	0.08826156
52	0xbe1a7aa6	-0.15085849
53	0x3d227377	0.039660897
54	0x3d84a82d	0.064773895
55	0xbd943fab	-0.07238706
56	0xbe0f00cb	-0.13965146
57	0xbdb23883	-0.08702185
58	0xbe16f6b1	-0.14742543
59	0xbd86401d	-0.065551974
60	0x3c9b5d66	0.018965434
61	0x3b1db89c	0.0024066335
62	0x3cd84415	0.026399652
63	0x3de73787	0.11289888
64	0xbcea6980	-0.02861476
65	0x3d22a56d	0.039708544
66	0xbcc94a49	-0.024571555
67	0xbd10564f	-0.03523856
68	0xbde95437	-0.11393016
69	0xbb75b9bb	-0.0037494737
70	0xbcef4e1d	-0.029212052
71	0x3a346223	0.00068810786
72	0x3cedf7b9	0.029048787
73	0x3e20ca0e	0.15702078
74	0x3dd07d45	0.10180143
75	0xbd11a6a2	-0.035559304
76	0x3d9e56cf	0.07731401
77	0x3c8a395a	0.01687305
78	0x3c93e643	0.018054133
79	0xbe1b03e9	-0.1513821
80	0xbd8d602a	-0.069031075
81	0xbd07ea6d	-0.03318255
82	0xbde1232f	-0.10993039
83	0x3cacc27b	0.02108883
84	0x3d9d4097	0.07678335
85	0xbdcd4449	-0.1002279
86	0xbe09d6e0	-0.13460875
87	0xbdaebde9	-0.08532316
88	0x3dd4bcbd	0.103875615
89	0xbd057363	-0.032580744
90	0x3dc32994	0.09529415
91	0xbdedb3b0	-0.11606538
92	0xbd28ead0	-0.04123956
93	0x3bd369b9	0.006451812
94	0x3dcad11d	0.099031664
95	0x3e21caab	0.15799968
96	0xbe0641eb	-0.13111083
97	0x3d331bb4	0.04372759
98	0x3da85c50	0.08220732
99	0x3c779ee0	0.015113562
100	0xbd959559	-0.073038764
101	0x3e1c4c96	0.1526359
102	0x3da3e001	0.0800171
103	0x3dc22946	0.094805285
104	0x3bc61db5	0.006046022
105	0xbda54e5f	-0.08071589
106	0xbd8d6195	-0.06903378
107	0xbd9225e1	-0.07136131
108	0xbe03caa1	-0.12870266
109	0x3c83edda	0.016104627
110	0x3d5a8b1f	0.053355332
111	0xbe1602a9	-0.14649452
112	0x3d39220a	0.045198478
113	0x3d1916dd	0.03737532
114	0xbc713a73	-0.014723408
115	0xbd074480	-0.03302431
116	0x3e093c7c	0.13401979
117	0x3d6375f4	0.05553241
118	0xbd9c0c9f	-0.07619595
119	0x3db7847f	0.089608185
120	0x3d5a2da8	0.053266197
121	0xbe17f602	-0.14839938
122	0x3e1401b1	0.1445377
123	0x3e0516d6	0.12996992
124	0x3d21a13e	0.039460413
125	0xbd477ed2	-0.04870493
126	0x3e189a2e	0.14902565
127	0x3e0d095f	0.13773106

bias f4 [8]
0	0xbd847f39	-0.06469578
1	0xbc8bcb57	-0.017064733
2	0xbdde5d68	-0.108576596
3	0x3dcdc820	0.100479364
4	0xbe1e2b60	-0.15446234
5	0xbe0f8d1f	-0.14018677
6	0x3bb8d4b4	0.0056405906
7	0x3e02c522	0.12770513

weight f4 [4, 8]
0	0x3bda4ac3	0.0066617443
1	0x3e4d1dca	0.20030895
2	0xbd9f99a1	-0.07792974
3	0x3c674c2c	0.014117282
4	0xbe1a2d2a	-0.15056291
5	0x3e3f3e09	0.18676008
6	0xbdce441d	-0.10071585
7	0xbe5fe8c8	-0.21866143
8	0x3da5472f	0.08070218
9	0x3c01b420	0.00791648
10	0xbc591f48	-0.013252087
11	0xbd43d1a4	-0.04780735
12	0x3d9ea79b	0.07746812
13	0xbe284827	-0.16433774
14	0xbdbbfcfd	-0.09179113
15	0x3dac1a67	0.08403473
16	0x3e5d8db4	0.21636087
17	0xbe4b5f8c	-0.19860667
18	0x3e590475	0.21193106
19	0x3d3d66cf	0.046240624
20	0xbe366c33	-0.17814712
21	0xbe025e26	-0.12731227
22	0x3e32e5eb	0.17470519
23	0x3e262339	0.16224374
24	0xbe5ee46b	-0.21766822
25	0xbe34116c	-0.17584771
26	0xbe5d9458	-0.2163862
27	0xbe598d71	-0.21245362
28	0xbdec68fe	-0.11543463
29	0x3e3be941	0.18350698
30	0xbe061b0c	-0.13096255
31	0xbe230f01	-0.15923692

bias f4 [4]
0	0x3d873873	0.06602564
1	0xbc2ee522	-0.010674747
2	0x3e2a6c7f	0.1664295
3	0xbe328950	-0.17435193

weight f4 [2, 4]
0	0x3e32fb2d	0.17478628
1	0x3e732cf5	0.23747618
2	0x3e8db7ef	0.27679393
3	0xbe71606f	-0.23571943
4	0x3d603ba7	0.05474439
5	0x3ded2a91	0.115803845
6	0x3d5d8c91	0.054089133
7	0x3d8e2530	0.06940687

bias f4 [2]
0	0x3e4c0d68	0.19926989
1	0xbe3dff9c	-0.18554538

weight f4 [1, 2]
0	0xbe1d56de	-0.15365168
1	0xbac2166f	-0.0014807711
